aggregated_results/TarotMaster/live/TarotMaster_live_snake_3.pt (torch, 12734 bytes, 10 tensors)

weight f4 [16, 14]
0.07706714 0.252937 0.14833787 -0.15155992 -0.2798003 -0.0021193326 -0.20229015 -0.049220324
-0.20578474 -0.18663552 -0.17371352 -0.15843686 -0.050934583 -0.17426318 0.24431655 0.17307526
0.14881045 -0.22684635 -0.3255132 0.11658688 -0.09549323 0.041712716 -0.32775545 -0.2622715
-0.19490552 0.05834134 -0.18933359 -0.2247074 -0.1971034 0.07474592 -0.2001127 -0.061590686
0.73863536 -1.0314556 -0.8599321 0.670249 -0.29232532 -0.7799495 -0.77006555 0.35118085
-0.3026465 -0.12829751 -0.08216162 0.19108585 -0.2104532 -0.034894586 0.24064173 0.25002953
0.50477195 -0.0023939908 -0.49875826 -0.052262068 0.019667178 0.05364889 0.090375416 -0.20842703
-0.1531979 0.076007664 -0.122440875 -1.064016 -1.1314892 -0.094534434 -0.074601606 0.4299572
0.37601903 -0.3290072 0.17896834 -0.6156523 0.10134811 0.9050585 0.23174259 0.07648203
-0.1745151 0.038974956 0.116917074 -0.0095567405 -0.20822196 -0.09232943 -0.48484227 0.053840756
-0.0917878 -0.18525946 -0.33239728 -0.1409929 0.026949435 -0.24071464 -0.20084584 0.23750968
0.005438015 -0.25130683 -0.041569024 -0.37368166 -0.2705079 -0.24550357 -0.35719568 0.07207698
-0.2384412 -0.11868638 -0.24595456 0.07894236 0.093429804 0.050088882 -0.13422641 -0.4365375
-0.076286644 -0.0059324205 -0.150298 -0.18414813 0.049708962 -0.1825698 -0.15982687 0.018439293
0.22300473 0.258217 0.15418538 -0.5545377 0.19666243 0.10291281 0.36019704 1.0305039
0.8247723 -0.45767766 0.4643184 0.8507407 -0.14693674 0.73685604 0.22529659 0.026704878
0.09632841 -0.19803856 -0.2823338 -0.4269523 -0.02293624 -0.35194302 -0.34643802 -0.12170847
-0.17393708 0.04399942 0.056580633 0.06277278 -0.025654003 -0.16186978 -0.110608056 0.12537053
0.19070573 -0.64335436 0.35517776 -0.13260733 -0.20294292 -0.0985236 0.017055854 -0.6234092
-0.29599327 0.23694082 -0.13751146 0.059155434 0.026290447 -0.4452029 0.49209654 -0.33116624
-0.14609846 0.4147693 0.34040195 -0.5169272 -0.30715305 -0.030215308 -0.028515905 -0.1254704
0.19948664 0.10445553 0.11906889 -0.26374322 0.38013577 -0.27728814 0.3251711 0.8041194
0.3325482 -0.22195143 -0.6273218 -0.683675 -0.0828188 0.6117653 -0.103095084 -0.022397026
-0.07135779 0.53543824 0.0017109513 0.62946236 -0.1513765 -0.2761197 -0.77905923 1.1759409
1.1183953 1.0446147 0.44696197 -0.2551736 0.19563293 -0.12900202 0.25066212 -0.18379399
-0.12821509 0.019346595 0.0012414157 -0.21660721 -0.37159833 0.038467765 0.17469522 -0.042560533
0.11049348 -0.24353653 0.22724786 -0.19557205 0.2084732 0.11134623 -0.33347458 -0.33626956
0.057564676 -0.110435516 -0.29075247 0.048244506 -0.04047613 -0.46371067 -0.40754825 -0.07821524
00000000: 60d5 9d3d f580 813e e2e5 173e 8632 1bbe
00000010: fc41 8fbe 80e4 0abb 2625 4fbe 409b 49bd
00000020: 3cb9 52be 621d 3fbe f5e1 31be 463d 22be
00000030: c8a0 50bd 0c72 32be 1e2e 7a3e a43a 313e
00000040: c461 183e 694a 68be aba9 a6be 1ac5 ee3d
00000050: f491 c3bd f4da 2a3d 90cf a7be 7348 86be
00000060: 5095 47be 54f7 6e3d aae0 41be b219 66be
00000070: 79d5 49be 6414 993d 58ea 4cbe 8446 7cbd
00000080: 3517 3d3f bd06 84bf 8324 5cbf 7095 2b3f
00000090: aaab 95be c5aa 47bf 0423 45bf facd b33e
000000a0: 7bf4 9abe 6c60 03be 5a44 a8bd 02ac 433e
000000b0: 0b81 57be a0ed 0ebd c96a 763e df03 803e
000000c0: bc38 013f 80e4 1cbb 3e5d ffbe c010 56bd
000000d0: 101d a13c f0be 5b3d bf16 b93d e56d 55be
000000e0: e9df 1cbe e8a9 9b3d 48c2 fabd ad31 88bf
000000f0: a3d4 90bf 459b c1bd bac8 98bd 5a23 dc3e
00000100: 9185 c03e a273 a8be 7a43 373e 649b 1dbf
00000110: 998f cf3d eab1 673f ee4d 6d3e 9ca2 9c3d
00000120: 16b4 32be 34a4 1f3d 3872 ef3d e093 1cbc
00000130: 2338 55be 3617 bdbd 3f3d f8be 2088 5c3d
00000140: 3efb bbbd a8b4 3dbe fa2f aabe 7160 10be
00000150: 10c5 dc3c e67d 76be 88aa 4dbe bd35 733e
00000160: 6031 b23b 4aab 80be 4844 2abd 3453 bfbe
00000170: 0380 8abe 4a65 7bbe 5ae2 b6be 189d 933d
00000180: ee29 74be d811 f3bd 83db 7bbe 88ac a13d
00000190: 2058 bf3d 002a 4d3d a672 09be d881 dfbe
000001a0: 2c3c 9cbd c064 c2bb b8e7 19be 5491 3cbe
000001b0: a09b 4b3d 94f3 3abe a8a9 23be 000e 973c
000001c0: 5a5b 643e 0535 843e c6e2 1d3e 2ff6 0dbf
000001d0: e061 493e f4c3 d23d bf6b b83e 8de7 833f
000001e0: 4724 533f ba54 eabe 24bb ed3e 24ca 593f
000001f0: 9676 16be 99a2 3c3f 26b4 663e 30c4 da3c
00000200: d447 c53d 9fca 4abe 0e8e 90be 7e99 dabe
00000210: c8e4 bbbc e031 b4be 5360 b1be 4a42 f9bd
00000220: 901c 32be bc38 343d 18c1 673d 048f 803d
00000230: 5828 d2bc 31c1 25be 7a86 e2bd 2261 003e
00000240: 5d48 433e dfb2 24bf dcd9 b53e 37ca 07be
00000250: 45d0 4fbe bec6 c9bd b8b8 8b3c bf97 1fbf
00000260: 6e8c 97be 9da0 723e cecf 0cbe f84c 723d
00000270: 105f d73c a2f1 e3be 14f4 fb3e 9f8e a9be
00000280: d69a 15be a45c d43e 2a49 ae3e 5755 04bf
00000290: 2a43 9dbe 1886 f7bc 309a e9bc 507b 00be
000002a0: 3a46 4c3e c8ec d53d 64da f33d 5a09 87be
000002b0: 28a1 c23e b6f8 8dbe d47c a63e c5da 4d3f
000002c0: c243 aa3e 3c47 63be 2998 20bf 5305 2fbf
000002d0: e79c a9bd a79c 1c3f 8423 d3bd f879 b7bc
000002e0: 0824 92bd 7b12 093f 0042 e03a 7224 213f
000002f0: 7102 1bbe 905f 8dbe 6d70 47bf 3b85 963f
00000300: 9427 8f3f efb5 853f 33d8 e43e 1da6 82be
00000310: 0054 483e 1b19 04be c956 803e 7e34 3cbe
00000320: d14a 03be c07c 9e3c 00b7 a23a 48ce 5dbe
00000330: 2342 bebe 6090 1d3d 4ee3 323e f453 2ebd
00000340: 684a e23d a461 79be aab3 683e 0a44 48be
00000350: 007a 553e 7e09 e43d 2ebd aabe 862b acbe
00000360: f0c8 6b3d 042c e2bd 82dd 94be 089c 453d
00000370: 4cca 25bd 7c6b edbe 2aaa d0be 502f a0bd

bias f4 [16]
-0.29232985 -0.39273232 0.13544154 -0.566995 0.25239712 -0.2306316 -0.33199364 -0.19004087
1.2091677 -0.1386984 -0.762868 -0.03916198 0.36601475 0.44499236 -0.3782068 -0.31556994
00000000: 42ac 95be 3614 c9be 30b1 0a3e 9626 11bf
00000010: 323a 813e b12a 6cbe 12fb a9be 139a 42be
00000020: 02c6 9a3f f406 0ebe 514b 43bf 5068 20bd
00000030: 4966 bb3e 0ad6 e33e 52a4 c1be 6292 a1be

weight f4 [32, 16]
-0.0023689866 0.008146197 -0.31568787 -0.096692964 0.21699014 -0.016579568 0.07679406 0.1765165
-0.19948454 -0.22298682 -0.26229757 0.08822709 -0.59262747 -0.18006726 0.15114126 -0.44005153
0.11920491 0.3051356 1.5059322 0.46203232 0.9496231 -0.013130605 0.09386736 -0.031013519
1.1182476 -0.16425146 -0.07293059 0.4262026 1.2284731 0.06794241 -0.44682446 0.45043826
0.15295035 -0.20947391 -0.06577064 0.08520584 -0.05677703 -0.04093066 -0.19346541 0.10998958
-0.17161138 -0.16625816 -0.038788497 0.24764445 -0.4455096 -0.04463078 -0.018979162 0.042404562
0.042708278 -0.06650099 -0.3309322 -0.20470998 -0.0766048 -0.18454814 0.06583789 0.103844315
-0.06333169 0.052122295 -0.21250218 -0.16572556 -0.3628552 -0.40940374 -0.16382799 0.105251074
-0.118519336 0.29552513 -0.10696562 0.47267613 -0.033087403 0.23600547 -0.22519013 0.3473655
-0.49448055 0.2923624 0.42873105 -0.07181826 -0.16538656 -0.16737178 0.10120198 0.4226563
0.055323154 -0.046462893 -0.05411601 0.034488976 -0.22788063 0.02726698 -0.32915056 0.12279466
-0.31287923 -0.15076688 -0.20084673 0.17615154 -0.07094732 -0.010356933 -0.22644731 -0.18440911
-0.16828898 0.10966274 0.020671353 -0.12864876 -0.34770006 -0.107293755 -0.21272644 0.016887486
-0.20587036 -0.21935225 -0.017882213 0.17271167 -0.32974416 -0.0253205 0.061249733 -0.108480096
0.12784977 -0.1567366 0.60591376 0.35901064 0.5799181 -0.20263636 0.25383198 -0.09457743
-0.1993626 0.121156886 -0.6287717 -0.033385083 1.2920161 -0.34956384 0.20895307 0.58859354
-0.15801826 0.1340324 -0.15544215 -0.017900795 -0.23001388 0.15628171 -0.061495423 -0.22570685
-0.30394408 -0.10296205 -0.051959276 -0.065476894 -0.047754616 -0.0004953891 -0.09373742 -0.036961526
0.059850365 0.022053093 -0.17630103 0.2236473 -0.15957335 -0.11955646 -0.024193048 -0.22851586
-0.21900728 0.1042999 0.15310639 -0.20558995 -0.10959971 -0.11650944 -0.22435027 0.24665305
-0.35744357 0.22038741 0.8051243 0.13306811 -1.0365362 0.14477687 0.28886062 0.2647663
0.111575365 -0.14687365 0.6326334 -0.42794997 -0.40249532 0.16353734 -0.37262976 0.44537118
0.17925763 0.05627601 -0.75925463 -0.14485733 0.15712388 -0.21166568 -0.060385525 0.14110146
-0.5973033 0.2259503 0.3502487 -0.029758126 0.040221795 -0.14495116 0.1788846 0.16170853
-0.24873611 -0.18247685 -0.090845436 -0.35112387 0.12314299 -0.24670084 0.0047735125 0.3366056
0.8495046 0.09319222 0.6271247 0.7709488 0.16728547 -0.044187382 0.052497774 -0.3275742
0.00893113 -0.08007485 0.06602031 -0.2077629 -0.4172426 -0.2590205 -0.29952484 -0.21437564
-0.15957014 -0.08528453 0.015590906 -0.040243626 -0.3343652 -0.2864648 0.16489235 -0.27128953
0.22488403 -0.14204782 -0.15990089 -0.10475744 -0.3290457 0.11141674 -0.35124928 -0.22243494
-0.52216977 0.02783516 -0.07306214 0.2247251 -0.066735536 -0.58455175 -0.24905396 -0.06789008
0.03477806 -0.039801046 -0.69206774 0.22773343 0.031990945 -0.32395482 -0.10662505 0.22909984
1.1831021 -0.18680087 -0.2619815 -0.18375406 0.68901026 1.0649099 0.24735758 1.0367717
00000000: 0041 1bbb a077 053c d7a1 a1be f606 c6bd
00000010: aa32 5e3e e0d1 87bc 3446 9d3d bec0 343e
00000020: ad45 4cbe a856 64be de4b 86be 68b0 b43d
00000030: 6fb6 17bf 8d63 38be c6c4 1a3e 6f4e e1be
00000040: b421 f43d bc3a 9c3e 63c2 c03f 808f ec3e
00000050: 801a 733f c021 57bc 883d c03d 1010 febc
00000060: bd22 8f3f 8931 28be a25c 95bd 3a37 da3e
00000070: 9b3e 9d3f 6425 8b3d 2dc6 e4be d89f e63e
00000080: 049f 1c3e 5480 56be c2b2 86bd 6680 ae3d
00000090: 088f 68bd e8a6 27bd cc1b 46be 3842 e13d
000000a0: e5ba 2fbe 943f 2abe b0e0 1ebd 8296 7d3e
000000b0: d619 e4be c4ce 36bd 307a 9bbc 68b0 2d3d
000000c0: e0ee 2e3d ac31 88bd f26f a9be 7e9f 51be
000000d0: fae2 9cbd 30fa 3cbe 04d6 863d 54ac d43d
000000e0: 0cb4 81bd 307e 553d 2c9a 59be f6b3 29be
000000f0: 28c8 b9be 5e9d d1be 86c2 27be e08d d73d
00000100: 44ba f2bd 124f 973e ca10 dbbd 9b02 f23e
00000110: a886 07bd 6bab 713e 3e98 66be e4d9 b13e
00000120: 8e2c fdbe 86b0 953e a382 db3e 7415 93bd
00000130: 185b 29be 8263 2bbe fc42 cf3d 6866 d83e
00000140: 889a 623d e04f 3ebd c0a8 5dbd 5044 0d3d
00000150: 8a59 69be 005f df3c 6c86 a8be c47b fb3d
00000160: b531 a0be a262 1abe c4aa 4dbe 1261 343e
00000170: d44c 91bd 20b0 29bc cee1 67be bed5 3cbe
00000180: f253 2cbe dc96 e03d f856 a93c 80bc 03be
00000190: be05 b2be d4bc dbbd f6d4 59be a057 8a3c
000001a0: aecf 52be e09d 60be b87d 92bc 54db 303e
000001b0: 3ad4 a8be f06c cfbc 00e1 7a3d d02a debd
000001c0: 0deb 023e 8f7f 20be 2a1d 1b3f 3ed0 b73e
000001d0: 8375 143f e87f 4fbe 44f6 813e d0b1 c1bd
000001e0: b625 4cbe 1a21 f83d 2ff7 20bf ccbe 08bd
000001f0: c960 a53f 08fa b2be cbf7 553e 11ae 163f
00000200: 8acf 21be ca3f 093e 3a2c 1fbe b0a4 92bc
00000210: c288 6bbe 5008 203e a0e2 7bbd b21f 67be
00000220: 8f9e 9bbe c4dd d2bd 40d3 54bd c018 86bd
00000230: 589a 43bd 00dd 01ba 68f9 bfbd f864 17bd
00000240: a825 753d b0a8 b43c 4288 34be cc03 653e
00000250: 3267 23be 04da f4bd 8030 c6bc 1000 6abe
00000260: 7243 60be 309b d53d ecc7 1c3e 2c86 52be
00000270: d075 e0bd 809c eebd 14bc 65be 9e92 7c3e
00000280: d802 b7be 3dad 613e a01c 4e3f 0243 083e
00000290: 38ad 84bf 6340 143e 8ae5 933e 738f 873e
000002a0: a081 e43d 0c66 16be 43f4 213f 421c dbbe
000002b0: de13 cebe 5576 273e 54c9 bebe b107 e43e
000002c0: 508f 373e ac81 663d 835e 42bf 7b55 14be
000002d0: 15e5 203e e3be 58be d056 77bd e77c 103e
000002e0: dee8 18bf 845f 673e cc53 b33e 50c7 f3bc
000002f0: 9cbf 243d 146e 14be 862d 373e ec96 253e
00000300: aeb4 7ebe 36db 3abe 2c0d babd 82c6 b3be
00000310: 6432 fc3d 259f 7cbe 206b 9c3b 9257 ac3e
00000320: 2279 593f 90db be3d 3f8b 203f e75c 453f
00000330: e24c 2b3e d4fd 34bd e807 573d ceb7 a7be
00000340: e053 123c 48fe a3bd a835 873d ccbf 54be
00000350: d2a0 d5be 569e 84be 525b 99be 4a85 5bbe
00000360: 5b66 23be a8a9 aebd 0071 7f3c 80d6 24bd
00000370: ea31 abbe 84ab 92be 8ad9 283e 76e6 8abe
00000380: 0048 663e fc74 11be 0fbd 23be 128b d6bd
00000390: ae78 a8be 762e e43d f2d6 b3be fcc5 63be
000003a0: ebac 05bf 9006 e43c 9aa1 95bd 561e 663e
000003b0: a4ac 88bd 2fa5 15bf 0008 7fbe f409 8bbd
000003c0: 7073 0e3d 6c06 23bd 5a2b 31bf f432 693e
000003d0: f008 033d 68dd a5be 3c5e dabd 2699 6a3e
000003e0: e46f 973f ba48 3fbe 7022 86be 062a 3cbe
000003f0: fa62 303f f84e 883f 4e4b 7d3e efb4 843f

bias f4 [32]
-0.62137985 0.5843054 -0.22295763 -0.32877526 0.08250371 -0.3665613 -0.20299844 0.42796242
-0.39857692 -0.09249231 -0.091693446 0.039612576 0.5466287 0.009232357 0.16771857 -0.28750023
-0.3683638 -0.08684154 0.51061964 0.5093436 -0.34005153 0.2815286 -0.37872374 1.0985076
0.42206407 -0.3707636 0.5644142 1.2000086 -0.0977817 -0.2435081 -0.40641922 1.3957096
00000000: c012 1fbf 0a95 153f 014f 64be 3b55 a8be
00000010: b5f7 a83d ecad bbbe d3de 4fbe e41d db3e
00000020: 4612 ccbe 9c6c bdbd c6c9 bbbd cc40 223d
00000030: dcef 0b3f 5043 173c 6bbe 2b3e 3b33 93be
00000040: 2e9a bcbe fad9 b1bd f8b7 023f 5864 023f
00000050: 3c1b aebe 8424 903e 14e8 c1be e69b 8c3f
00000060: c818 d83e bad4 bdbe 737d 103f e299 993f
00000070: c641 c8bd 305a 79be 2e16 d0be 9da6 b23f

weight f4 [16, 32]
0.31001237 -0.6991275 0.17922436 -0.10324326 -0.024725646 0.029309839 0.023977414 -0.6541708
0.04890284 -0.099637 -0.13724567 0.6418495 0.40031832 -0.27413496 -0.45361042 -0.68414253
-0.13419136 0.31460643 -0.43561345 -0.098481774 -0.15950617 0.055207 -0.07683247 0.43473256
0.029758535 -0.23474717 0.19755343 0.12816231 -0.16047388 0.09138624 0.17581625 0.033173144
0.044653 -0.06282207 0.12047021 0.09601547 0.3386733 -0.016816616 0.09711836 0.2573524
-0.16116036 -0.043838605 -0.281678 -0.1326624 -0.627907 0.24968587 0.10394761 -0.25640148
0.1769817 -0.27094805 -0.25655794 0.55334085 0.015133843 0.15593548 0.13240202 -0.32039
0.26934645 0.19695838 0.5558928 -0.5548197 0.29842263 0.0020410717 0.039800927 -0.85343707
0.103742674 -0.3089649 -0.06327392 0.04827097 -0.32043 0.13906373 -0.031175599 0.15748675
-0.020359576 0.07491119 -0.14649229 -0.22400264 -0.32252148 -0.133274 -0.1926816 0.052885994
0.097585216 -0.30328718 -0.033767104 -0.14747451 -0.011051387 -0.111678146 0.041772515 -0.19942422
-0.1730735 0.1460221 -0.0395485 -0.08047818 -0.062064208 -0.065607935 0.09103243 -0.3674236
-0.00905852 -0.30947253 -0.05237981 0.117500946 -0.08235891 0.011838794 0.06692755 0.29625183
0.03780794 0.1528896 -0.24541906 -0.24390025 -0.11139456 -0.15724276 0.22569434 0.15758824
-0.044461012 -0.14975911 -0.32804948 -0.050803497 -0.1627135 0.08658333 0.17375965 -0.3040992
-0.14796859 -0.0012756735 -0.13169478 -0.17401709 -0.09877227 -0.12576926 0.002977237 -0.03609766
-0.11767543 -0.117780134 0.17398418 -0.042522117 -0.28633973 0.05655165 0.037839636 -0.009562448
0.16622238 -0.043811902 -0.3219372 -0.28147745 -0.10606545 -0.115333945 -0.16485138 0.12795599
-0.30865094 -0.13916963 -0.36977762 -0.08228743 -0.015337765 -0.032152623 -0.12976408 -0.18202405
0.005559355 -0.06432189 -0.05410485 0.10359196 -0.13632403 0.03541243 0.050590456 -0.36673105
0.1940802 -0.090534486 -0.005865991 0.018897071 -0.100227796 0.02557087 -0.095320195 -0.25971338
0.09054868 0.14642106 -0.20696115 -0.3219407 -0.13544935 -0.12622747 0.008866534 -0.07235551
0.122191355 0.10620482 -0.118426 -0.19443086 -0.025824293 0.07918997 -0.074678674 -0.27290434
0.0017821938 0.16120486 -0.08603021 -0.11730773 0.027978152 -0.13835225 0.16908123 -0.25873154
-0.111615166 -0.27532 0.06773545 -0.10469972 -0.09938267 -0.029527113 -0.08721365 -0.20546381
0.07468279 0.16580965 -0.076550454 -0.06457363 -0.36477792 -0.11660397 0.02557841 -0.09907542
-0.13766184 0.020358354 -0.21243398 -0.34830564 -0.07279709 -0.09673683 -0.048062354 -0.06759724
-0.25237495 0.016933173 -0.30996412 -0.17421347 0.15771465 0.009922028 -0.06477749 -0.26666138
0.17529048 -0.6156131 0.13675131 -0.110299736 -0.6231159 -0.080391385 -0.004500568 0.5106706
-0.05952751 -0.034965992 0.28465325 -0.14791922 0.047424033 -0.13017486 0.12015642 0.23525718
-0.18726538 0.32622474 -0.365685 -0.44543552 -0.089915894 0.0716999 -0.11781944 -0.24085031
-0.14487955 -0.23889023 -0.031222746 -0.15817353 -0.30827785 0.0005158335 -0.119686306 -0.11705123
00000000: f1b9 9e3e 05fa 32bf 9786 373e 3471 d3bd
00000010: 708d cabc 301b f03c 486c c43c bd77 27bf
00000020: 584e 483d 7c0e ccbd 218a 0cbe 4050 243f
00000030: 86f6 cc3e 6b5b 8cbe a03f e8be f723 2fbf
00000040: 7669 09be 1814 a13e ba08 dfbe d0b0 c9bd
00000050: 9655 23be bc20 623d 585a 9dbd 4495 de3e
00000060: 2cc8 f33c 9061 70be 724b 4a3e fb3c 033e
00000070: 4453 24be b628 bb3d 2d09 343e 90e0 073d
00000080: 10e6 363d dca8 80bd 16b9 f63d c2a3 c43d
00000090: 9666 ad3e 00c3 89bc fee5 c63d b2c3 833e
000000a0: 3907 25be 1c90 33bd 1938 90be a7d8 07be
000000b0: 83be 20bf a7ad 7f3e 7ce2 d43d 0e47 83be
000000c0: b13a 353e b4b9 8abe 905b 83be bfa7 0d3f
000000d0: f0f3 773c 8dad 1f3e 6594 073e 280a a4be
000000e0: c7e7 893e 75af 493e fe4e 0e3f aa08 0ebf
000000f0: daca 983e 80c3 053b 4c06 233d da7a 5abf
00000100: 0a77 d43d a630 9ebe c295 81bd c8b7 453d
00000110: 670f a4be b966 0e3e f863 ffbc 3544 213e
00000120: 20c9 a6bc 0a6b 993d 1302 16be f360 65be
00000130: 8921 a5be fb78 08be 534e 45be fc9e 583d
00000140: c2da c73d 7548 9bbe 604f 0abd 8f03 17be
00000150: e010 35bc 83b7 e4bd a819 2b3d dd35 4cbe
00000160: 2e3a 31be d186 153e 9cfd 21bd bed1 a4bd
00000170: 0a37 7ebd 745d 86bd 366f ba3d f21e bcbe
00000180: 306a 14bc 2f73 9ebe 368c 56bd 56a4 f03d
00000190: caab a8bd 80f7 413c 5011 893d 52ae 973e
000001a0: 80dc 1a3d 178f 1c3e 224f 7bbe fdc0 79be
000001b0: d522 e4bd 3f04 21be 6b1c 673e d05e 213e
000001c0: c01c 36bd 745a 19be 1af6 a7be 5417 50bd
000001d0: 5e9e 26be 9a52 b13d 0dee 313e e4b2 9bbe
000001e0: 1485 17be 8034 a7ba ffda 06be 8931 32be
000001f0: 1e49 cabd a8c9 00be c01d 433b 24db 13bd
00000200: d1ff f0bd b636 f1bd e928 323e ac2b 2ebd
00000210: 1f9b 92be b4a2 673d bcfd 1a3d d0ab 1cbc
00000220: 3336 2a3e 1c74 33bd f4d4 a4be d01d 90be
00000230: d838 d9bd 3434 ecbd cdce 28be e506 033e
00000240: 7f07 9ebe 7c82 0ebe 7e53 bdbe 5086 a8bd
00000250: 404b 7bbc 78b2 03bd e0e0 04be 8364 3abe
00000260: 402b b63b 32bb 83bd 0c9d 5dbd 0628 d43d
00000270: 8798 0bbe a00c 113d f037 4f3d 2cc4 bbbe
00000280: f6bc 463e 256a b9bd 8037 c0bb 08ce 9a3c
00000290: 3b44 cdbd 007a d13c 3c37 c3bd 27f9 84be
000002a0: 9671 b93d 67ef 153e a0ed 53be 69d5 a4be
000002b0: 3cb3 0abe c641 01be f044 113c 202f 94bd
000002c0: 763f fa3d ea81 d93d 5589 f2bd e218 47be
000002d0: 788d d3bc 5a2e a23d 22f1 98bd 1eba 8bbe
000002e0: 8098 e93a e312 253e 9b30 b0bd 093f f0bd
000002f0: 7032 e53c 36ac 0dbe a123 2d3e 7678 84be
00000300: 7e96 e4bd bef6 8cbe e2b8 8a3d cf6c d6bd
00000310: 2489 cbbd d8e2 f1bc 129d b2bd 1b65 52be
00000320: 4af3 983d 01ca 293e 7cc6 9cbd 2e3f 84bd
00000330: 2cc4 babe 10ce eebd d089 d13c 0ee8 cabd
00000340: 3af7 0cbe 90c6 a63c 4b88 59be 1e55 b2be
00000350: a416 95bd f61d c6bd 08dd 44bd 6c70 8abd
00000360: 4a37 81be 70b7 8a3c 9eb3 9ebe 0465 32be
00000370: f37f 213e 0090 223c 10aa 84bd d787 88be
00000380: 597f 333e d298 1dbf 8908 0c3e d4e4 e1bd
00000390: 8684 1fbf 3da4 a4bd 8079 93bb 4fbb 023f
000003a0: 1ed3 73bd 8038 0fbd 12be 913e 2378 17be
000003b0: b43f 423d 8f4c 05be 9214 f63d 42e7 703e
000003c0: 7fc2 3fbe ee06 a73e 103b bbbe 2010 e4be
000003d0: d325 b8bd 66d7 923d 524b f1bd 77a1 76be
000003e0: 4e5b 14be a49f 74be d8c6 ffbc 3ef8 21be
000003f0: 98d6 9dbe 0039 073a 181e f5bd 8eb8 efbd

bias f4 [16]
0.87143874 0.014525801 -0.20651914 0.009054782 -0.20398395 -0.039108086 -0.27865964 0.10946619
-0.01344274 -0.30572206 -0.36040664 0.15239799 9.903312e-05 -0.314261 -0.06310852 -0.25078914
00000000: 9c16 5f3f a0fd 6d3c c179 53be 825a 143c
00000010: 2be1 50be cd2f 20bd 7aac 8ebe cf2f e03d
00000020: f03e 5cbc 9a87 9cbe 3887 b8be 380e 1c3e
00000030: 00b0 cf38 d1e6 a0be 0a3f 81bd 6f67 80be

weight f4 [14, 16]
-0.41552585 -0.17333122 0.24276093 0.06828447 0.011522964 0.22692001 -0.10280982 0.19736972
0.0923599 0.41547948 -0.047655508 -0.13356993 0.02182816 0.2368378 -0.41415548 -0.35418004
-0.5076338 0.22451879 0.022430718 0.16610987 -0.12691095 0.111567855 0.17898256 0.50554025
-0.008578137 0.19386257 0.14379454 0.009710148 -0.06401269 -0.2117056 0.09293401 -0.03308955
-0.16388576 -0.030126333 0.14078125 -0.10143176 0.07046905 0.4194661 0.03826268 -0.21838054
-0.08311464 -0.3747916 -0.22102404 -0.21693468 -0.29152495 0.16420946 -0.16084334 0.344114
0.012485579 -0.24954636 -0.11036691 -0.03852056 0.18415254 -0.08507593 -0.19801505 -0.09934197
0.15445085 0.007212162 0.020146072 -0.33758807 0.018699631 0.26933396 -0.044297412 0.43052515
0.0058431923 -0.108787805 -0.20213252 0.083832085 -0.1299654 -0.012702137 0.20696494 -0.17458832
0.039331138 -0.051305026 0.20336756 0.08632788 -0.13106593 0.069204986 -0.22253796 0.0059410036
-0.7349998 -0.24368417 -0.08942498 0.1387583 0.26085073 -0.22008911 0.0590719 0.118826896
-0.20575874 0.029785931 -0.1459535 -0.22719821 -0.102752835 -0.031927302 0.48372477 0.1235259
-0.2664974 -0.14829686 -0.105150014 0.013088182 -0.109138936 -0.041205004 -0.26880127 -0.0028974563
-0.2401162 -0.11442977 0.16260463 0.059740365 0.20479481 0.08384237 -0.17290244 0.40713003
-0.42933 0.16370356 -0.08567211 0.053558856 0.06624968 -0.26124215 -0.10924661 0.24591492
-0.14333211 0.113580525 -0.08079234 0.088659346 -0.25715894 -0.13883892 0.17146568 -0.048648372
-0.16114806 -0.008705258 -0.17291868 -0.12847465 0.066842526 -0.05721143 0.059108526 0.22140813
0.018189207 0.22850183 0.098978624 -0.15695411 0.057677463 0.12071791 0.42659807 0.27326083
-0.51427686 -0.102630734 0.022865027 0.22612773 0.17985156 0.00052535534 0.10185179 0.4163605
-0.1804216 -0.19029929 0.15519106 -0.01773639 -0.104453444 -0.12749031 0.45459586 0.056961015
-0.56367224 -0.6215055 0.10737802 0.30522344 -0.09526542 -0.0073466003 -0.038005605 0.25018334
0.09901224 -0.10555251 0.20579934 -0.04362309 0.09402351 -0.28213286 -0.21185783 -0.25891897
-0.11527479 -0.17090654 0.16299087 0.12752998 0.21673581 0.06773147 0.17387977 -0.016205221
-0.11908507 -0.015978932 0.075689584 -0.04010567 -0.091919065 -0.3013758 -0.095671594 0.033278823
0.07963802 0.55907947 -0.093964994 -0.10038525 -0.048123986 0.29375574 0.2602197 0.07540056
0.007607341 -0.030082121 -0.023221731 0.5985594 0.17155296 -0.001274854 -0.4067972 0.44372636
-0.41637546 -0.2995782 0.19714078 -0.08902997 -0.18985996 0.22945729 -0.23357856 -0.15621465
-0.19426045 -0.16501093 -0.08046889 -0.1216151 -0.09705043 -0.16554071 0.3423524 -0.17990273
00000000: cebf d4be bd7d 31be 5296 783e bad8 8b3d
00000010: d0ca 3c3c b85d 683e f48d d2bd 4a1b 4a3e
00000020: 3027 bd3d bab9 d43e 6c32 43bd 8ec6 08be
00000030: f8d0 b23c 9c85 723e 300c d4be 1657 b5be
00000040: 4af4 01bf 41e8 653e a0c0 b73c b518 2a3e
00000050: f2f4 01be b07d e43d 3447 373e 166b 013f
00000060: 508b 0cbc e983 463e e03e 133e 5017 1f3c
00000070: 1619 83bd 5ac9 58be 3054 be3d e888 07bd
00000080: abd1 27be 80cb f6bc f628 103e 74bb cfbd
00000090: 1452 903d 43c4 d63e 54b9 1c3d 269f 5fbe
000000a0: 0238 aabd afe4 bfbe 2054 62be 2024 5ebe
000000b0: c242 95be 8626 283e 1eb4 24be b62f b03e
000000c0: 5090 4c3c 1589 7fbe 0c08 e2bd bcc7 1dbd
000000d0: 7c92 3c3e 4a3c aebd 75c4 4abe ce73 cbbd
000000e0: 5d28 1e3e 0054 ec3b 6009 a53c 58d8 acbe
000000f0: f82f 993c 24e6 893e 3471 35bd cb6d dc3e
00000100: 4078 bf3b 24cc debd d4fb 4ebe 28b0 ab3d
00000110: a615 05be a01c 50bc 9eee 533e 48c7 32be
00000120: b019 213d 3825 52bd 963f 503e accc b03d
00000130: 2636 06be 58bb 8d3d fee0 63be c0ac c23b
00000140: f228 3cbf 5888 79be 7224 b7bd a816 0e3e
00000150: 3a8e 853e 0a5f 61be 60f5 713d 845b f33d
00000160: 6bb2 52be a001 f43c d674 15be a6a6 68be
00000170: 1470 d2bd 34c6 02bd c6aa f73e 26fb fc3d
00000180: 5972 88be 22db 17be e458 d7bd d06f 563c
00000190: 3c84 dfbd 94c6 28bd 52a0 89be 40e3 3dbb
000001a0: 05e1 75be 285a eabd d481 263e 50b2 743d
000001b0: bbb5 513e 8cb5 ab3d 560d 31be 5973 d03e
000001c0: 24d1 dbbe e8a1 273e dc74 afbd 8860 5b3d
000001d0: eaad 873d 88c1 85be b0bc dfbd 1fd1 7b3e
000001e0: a7c5 12be e89c e83d 7476 a5bd 0893 b53d
000001f0: 56aa 83be ca2b 0ebe b394 2f3e 8443 47bd
00000200: ff03 25be 80a0 0ebc 9811 31be dc8e 03be
00000210: bce4 883d 8856 6abd c81b 723d d0b8 623e
00000220: 8801 953c 62fc 693e 4eb5 ca3d 94b8 20be
00000230: 343f 6c3d f43a f73d 106b da3e d8e8 8b3e
00000240: a6a7 03bf 1030 d2bd 704f bb3c 078e 673e
00000250: 022b 383e 00b8 093a ac97 d03d 342d d53e
00000260: 71c0 38be d1dd 42be 68ea 1e3e e84b 91bc
00000270: b0eb d5bd d28c 02be cac0 e83e f44f 693d
00000280: d34c 10bf fc1a 1fbf 02e9 db3d 3f46 9c3e
00000290: 841a c3bd c0bb f0bb c4ab 1bbd 0818 803e
000002a0: eec6 ca3d ea2b d8bd 10bd 523e 20ae 32bd
000002b0: 668f c03d b873 90be 42f1 58be 0791 84be
000002c0: 3015 ecbd 2002 2fbe 14e7 263e 3897 023e
000002d0: feef 5d3e ccb6 8a3d 8a0d 323e d0c0 84bc
000002e0: e0e2 f3bd 40e6 82bc 2403 9b3d d845 24bd
000002f0: 1040 bcbd ee4d 9abe 78ef c3bd 604f 083d
00000300: 4219 a33d d51f 0f3f b870 c0bd c896 cdbd
00000310: a81d 45bd 2767 963e 843b 853e 9c6b 9a3d
00000320: 0047 f93b c86e f6bc 803b bebc 303b 193f
00000330: 94ab 2f3e 0019 a7ba b947 d0be 1a30 e33e
00000340: 2a2f d5be 5062 99be 46df 493e 5855 b6bd
00000350: a66a 42be daf6 6a3e 382f 6fbe bcf6 1fbe
00000360: 36ec 46be a0f8 28be e0cc a4bd 5611 f9bd
00000370: 60c2 c6bd 8183 29be d048 af3e 6c38 38be

bias f4 [14]
-0.23943648 -0.30842385 -0.49135467 0.517868 -0.19442439 -0.030573089 -0.34385404 -0.22820318
-0.30746222 -0.3994379 -0.0047654565 -0.20485453 2.4764805 -0.004873421
00000000: d62e 75be bbe9 9dbe d792 fbbe ff92 043f
00000010: 3017 47be 6a74 fabc a30d b0be 18ae 69be
00000020: b06b 9dbe 2083 ccbe 8c27 9cbb 63c5 51be
00000030: a87e 1e40 38b1 9fbb

weight f4 [2, 14]
-0.39848864 -0.2254364 0.13851328 -0.4169989 -0.102234766 0.7952311 -0.13884301 -0.55743456
0.2995211 0.6611967 -0.0053156465 0.23726223 -2.4249485 0.11877697 -0.20461516 -0.6523351
-0.026926622 0.20305537 -0.07577479 -0.7508544 0.0940081 -0.44204998 -0.43900317 -1.3189168
-0.27627817 0.030698568 1.700266 -0.34551692
00000000: b406 ccbe cdd8 66be 6dd6 0d3e e180 d5be
00000010: 7660 d1bd 4494 4b3f dd2c 0ebe 08b4 0ebf
00000020: d45a 993e 3044 293f e02e aebb dff4 723e
00000030: 5b32 1bc0 5741 f33d a386 51be 6fff 26bf
00000040: 3895 dcbc bfed 4f3e d02f 9bbd fe37 40bf
00000050: 5287 c03d 6054 e2be 06c5 e0be 44d2 a8bf
00000060: 5574 8dbe 907b fb3c 51a2 d93f 98e7 b0be

bias f4 [2]
-1.4665412 1.0956402
00000000: 9fb7 bbbf f03d 8c3f
