aggregated_results/TarotMaster/live/TarotMaster_live_ttt_1.pt (torch, 12260 bytes, 8 tensors)

weight f4 [16, 36]
00000000: 401c 923c 1233 a53d 9ee0 94bd 1049 3e3d
00000010: dbde c3bd 85cd 273e b07c 54bc 204a 87bc
00000020: d63d 39bd a816 b2bd 70c2 50bd 9af1 953d
00000030: 5bd9 f1bd fe77 f9bd 6866 c6bc 22aa 28be
00000040: 6c05 0cbe 5b27 f8bd dc2c 223d 703b 19be
00000050: 709d 58bd 82f7 d03d 90c3 70bd 8863 ec3c
00000060: f871 c23c 7c22 443d 021c e23d 68b9 07be
00000070: a3f8 afbd 9c56 04be d8f9 08be f34a c4bd
00000080: 979e 1c3e f42f 693d e383 c4bd 888e 85bd
00000090: 042d 023d b62c 50bd 80bd e7bb fbd0 12be
000000a0: d831 e2bc a335 fbbd 2072 e83c cdc5 183e
000000b0: 48ac 01be 26b7 2cbd fb0f f8bd d8f2 92bc
000000c0: 556b 1b3e f9bc 153e 7807 8a3d 2a4a 933d
000000d0: 2a5d b33d 4830 f4bd ab09 0d3e d815 a93d
000000e0: 104c 353c b602 a1bd e8ba 943d cf2d 123e
000000f0: 1b0d 85bd 6c9b 7cbd 6e85 aebd f43c 7b3d
00000100: ac70 1abd d025 043c 801a b8ba 40ff 9bbd
00000110: 50ee 66bc 2c56 3bbd f01c 0e3d c6fd 9dbd
00000120: 01d7 083e e386 bbbd c045 d9bd 4041 e0bc
00000130: 4f8d 0cbe 7801 cf3c 42f8 ea3d 18f5 f43c
00000140: f1f2 033e 2049 6a3d 08c2 fd3c f03f 1abe
00000150: c3b0 0c3e 8e61 b5bd 74ec 18be f09c 12bd
00000160: 221b d93d b673 72bd 1eee 903d ceef e3bd
00000170: 5ea7 a63d c32c 143e e07a 7e3d e09e d1bb
00000180: 403a a4bc 5cff 4fbd 6047 afbc 40e2 183d
00000190: 80a5 6abd ec2e 0dbd acd7 7a3d 20e4 9cbc
000001a0: aa9f c43d f350 d3bd 6abe ba3d fcbb 31bd
000001b0: 5011 cabd a8ed 883d 1067 21bc 2c56 0dbd
000001c0: a2a0 b33d 8297 9e3d 8887 cabc 9a99 bc3d
000001d0: 387f d13c 9c0b 6ebd e37f 9dbd 4e11 b9bd
000001e0: 585a ad3c 579d 193e 8680 dd3d 3029 293d
000001f0: bcf7 5cbd 1eb7 16be a055 8ebd 6e46 8f3d
00000200: 4087 1a3c 2124 183e 4a00 bd3d e877 84bd
00000210: 6077 a3bd 43bb 9dbd a49a 14be f8f6 c03c
00000220: 9d61 063e 86e3 8ebd 290e 1f3e 1465 03bd
00000230: a754 0bbe 680c 9abc bc71 18bd 0677 9ebd
00000240: d5c4 133e 902a 313d caec d23d 24cd 12be
00000250: 42b4 a33d c0c3 6a3b 10c4 4ebc c335 ddbd
00000260: 30a1 733c 3e6e a5bd bbb4 c0bd 1b44 cabd
00000270: 123b e63d e850 a6bc 005a 68bc 6ab0 bc3d
00000280: 7b8b e4bd 00a1 24bc 9a1a ab3d 0466 18be
00000290: 7017 a13d 1847 8dbc 97ce 113e 02ba 0cbe
000002a0: d203 ea3d 7e1e a13d 4c30 413d 3a19 b53d
000002b0: d0e3 743c 5256 f03d d660 c13d ce59 16be
000002c0: 2b85 293e 7106 1c3e 78f4 ecbc da97 09be
000002d0: 40ed 603d 585a ca3c c285 b33d 3c3e 52bd
000002e0: a0cd 7d3d 41d3 013e 90f6 5a3d 0618 ebbd
000002f0: 00e6 ceb9 621b b13d 709b 423c 7186 173e
00000300: af53 1abe 408d ca3c 7697 93bd 904a 3c3c
00000310: 00a0 97b7 077a 103e acbb 04be 2362 82bd
00000320: 16d9 3bbd 006a 6abc 2ed4 07be 0ec2 d5bd
00000330: e09b 1dbd f828 9dbd dd78 213e a03a 0a3d
00000340: f0d9 54bc 6ba9 d2bd 73c9 a0bd a6cf 2abd
00000350: 5ab2 c63d b825 ee3c 8b94 b0bd 243e 163d
00000360: 328c f63d b837 f23c 086a 09be dc13 153d
00000370: 4fc7 0cbe 1ae9 c83d 6a6d 0bbe 1770 0b3e
00000380: 404b 3f3d 0e7a d93d 0a91 aa3d e28d e93d
00000390: 062d f23d 5694 ec3d 3015 7fbc 52f9 f23d
000003a0: bd09 1d3e 8436 13bd eb26 fabd 2a87 ed3d
000003b0: 1e8a debd 001c dbbd 5c5b 08bd fc74 713d
000003c0: 3e4a 983d 68fd cebc 36fc fd3d 4039 963d
000003d0: 1fde 12be 3876 d6bd e20e ae3d 9022 76bc
000003e0: 2079 f4bc 4062 663b dd43 093e e083 653d
000003f0: 7ce5 5cbd f6bc bdbd 26d4 dabd 8066 a8bb
0.017835736 0.080663815 -0.07269405 0.046456397 -0.09563991 0.16386993 -0.012969181 -0.016514838
-0.045224987 -0.086957276 -0.05096668 0.073214725 -0.118090354 -0.1218109 -0.024218753 -0.1647115
-0.13673943 -0.121168815 0.039593562 -0.1496408 -0.05288452 0.10203458 -0.058780253 0.028856054
0.023735985 0.04788445 0.11040498 -0.1325432 -0.085923456 -0.12923664 -0.13376558 -0.09584608
0.15294872 0.056930497 -0.09595468 -0.06521326 0.03178121 -0.05082389 -0.0070721507 -0.14337532
-0.027611658 -0.1226609 0.028374732 0.14919205 -0.12663376 -0.04216685 -0.12112423 -0.017938063
0.15177663 0.14622869 0.06739706 0.0719188 0.08758004 -0.119232714 0.1377322 0.082561195
0.011065498 -0.07861845 0.07262212 0.14275287 -0.0649664 -0.06167166 -0.085215434 0.061337426
-0.03770511 0.008065656 -0.0014045984 -0.076170444 -0.014094904 -0.045736477 0.034695566 -0.07714419
0.13363267 -0.09156587 -0.10609007 -0.027374864 -0.1372578 0.025269255 0.11473133 0.029902026
0.12885644 0.057198644 0.03097631 -0.15063453 0.13739304 -0.08856498 -0.1493395 -0.0357942
0.10600878 -0.05919238 0.07076667 -0.111297235 0.081373915 0.144702 0.0621289 -0.006397113
-0.020047307 -0.05078064 -0.021396339 0.037325144 -0.05728674 -0.034468576 0.061240837 -0.019151747
0.09600766 -0.10318174 0.0911835 -0.043392166 -0.09866583 0.06685954 -0.009851232 -0.034506008
0.08770873 0.077437416 -0.02472283 0.09208985 0.025573358 -0.05811654 -0.07690408 -0.09036504
0.021161243 0.15001427 0.108155295 0.041299045 -0.053947195 -0.14718291 -0.069499254 0.06995855
0.00943166 0.14857532 0.09228571 -0.06468183 -0.07981753 -0.07701733 -0.14512116 0.023555264
0.13123174 -0.069769904 0.15532745 -0.032078817 -0.13606511 -0.018804744 -0.03721784 -0.07737546
0.14430554 0.04325348 0.1029907 -0.14336067 0.07993366 0.0035822242 -0.012619987 -0.1080127
0.014869973 -0.08077668 -0.094094716 -0.09876271 0.112417355 -0.020302251 -0.014181614 0.09213336
-0.11159416 -0.010048151 0.08354683 -0.14882666 0.078657985 -0.017245814 0.14238964 -0.13742831
0.1142651 0.07867144 0.0471652 0.08842702 0.014946893 0.11735214 0.09442298 -0.14682695
0.16554706 0.15236832 -0.028925166 -0.13436833 0.05491376 0.024701282 0.08765747 -0.051328883
0.061963677 0.12678243 0.053457797 -0.114791915 -0.00039462745 0.08647801 0.0118778795 0.14797379
-0.15070985 0.024725556 -0.07206623 0.011492386 -1.8075109e-05 0.1410905 -0.12962216 -0.06366374
-0.045861326 -0.014307499 -0.13264534 -0.104374036 -0.038478732 -0.0767383 0.15768762 0.033747315
-0.0129914135 -0.1028622 -0.078509234 -0.041701935 0.097019866 0.02907072 -0.08622082 0.036680356
0.12038459 0.029567584 -0.13419354 0.036395893 -0.13747905 0.098100856 -0.13615957 0.13616978
0.046702623 0.10618983 0.08328445 0.11404015 0.11824994 0.1155173 -0.015569016 0.1186396
0.15335746 -0.035940662 -0.12214454 0.11598046 -0.108661875 -0.106987 -0.033290252 0.058949456
0.074360356 -0.025267318 0.12401621 0.07335138 -0.14342545 -0.10471767 0.084989324 -0.015022889
-0.029842913 0.0035153776 0.13404794 0.05603397 -0.05392979 -0.09264557 -0.10684995 -0.005139172

bias f4 [16]
00000000: 8eab 97bd f26d a03d da15 9c3d f071 23be
00000010: 2404 373d dc37 7e3d a01f 963c 48fa 88bd
00000020: 9ac6 21be cc36 503d 12d8 cd3d 09c9 293e
00000030: d071 6b3d 6b12 1cbe a31d 9ebd 6003 e03c
-0.07405768 0.078334704 0.07621355 -0.15961432 0.044681683 0.06206499 0.018325627 -0.06688362
-0.15798417 0.05083351 0.10050978 0.16580595 0.057481587 -0.15241401 -0.077204965 0.02734536

weight f4 [32, 16]
00000000: 2668 1a3e de02 49be 70ec 90bd f034 d83c
00000010: 3810 2ebd 900a 393d 64bc 9abd 009b 29bc
00000020: 546a c4bd b8a0 1ebd 58fc 1c3e e8ab 01be
00000030: f4a8 bdbd e045 3d3e a018 14bd f8f4 0d3e
00000040: 68ea cf3d 206f 5fbe 70f7 563d 0059 4a3c
00000050: 54d5 db3d 00c3 713b e07d 0fbe a0a1 92bd
00000060: b059 1cbd 2002 d7bc f82e 983d 38f5 4cbe
00000070: 0420 1ebe 082c d5bd 8855 233d aa8a 733e
00000080: 8089 7bbc 2e4f 02be e0bd 983d 1a07 7f3e
00000090: 0011 003c 4076 72be bc15 e9bd 44e5 433e
000000a0: 90b2 e6bc a40e abbd 22f5 67be b84e c13d
000000b0: 1ee9 673e 5cf8 ed3d 2ce1 573e 3889 183e
000000c0: 3656 77be d898 aabd 305e a4bd a03e 8dbd
000000d0: b2da 073e 50a0 1e3e 746b db3d 3418 cfbd
000000e0: 0059 313d 383a f83d e200 223e 84e1 4b3e
000000f0: 0212 563e e6c5 093e a0f7 773e f862 313e
00000100: 985c e63d 40cc 1a3d 0e2c 393e a4ad c83d
00000110: 5043 30bd c089 b73c 1813 193e ac26 9a3d
00000120: a49c 17be 3878 13bd 4aa7 4f3e b8a1 743d
00000130: 6802 cfbd 08a5 873d 6cad 6abe b4d7 ab3d
00000140: 281e 70be 0069 bd3d f079 1b3d 6020 d3bc
00000150: e848 273e 1693 1f3e 10e1 b3bd 963e 223e
00000160: 5882 b73d f049 dabd 5842 c93d 5012 023d
00000170: 60fc 713c 904f e93d a850 4b3d fc6c 3bbe
00000180: 205f 7cbe 70ef ecbc 006c 293b a891 70bd
00000190: 80b8 54be fccb 9e3d 6072 73bc dc4f c4bd
000001a0: 50fd 703e 6e41 413e 7c9a 82bd 5450 22be
000001b0: 8c48 0ebe c00e 0ebc 4e02 253e 20d0 68bc
000001c0: d8cb a0bd 687d 41bd e0eb 903d 18fb 27bd
000001d0: 2684 693e f485 c0bd ba4f 29be c466 b8bd
000001e0: 40ec babc 888b 8d3d 0029 ddbb 701a c13c
000001f0: 908d e23d 0e05 5cbe f220 0cbe 10d0 5abe
00000200: 683e 913d 8c9e f5bd ecf5 bcbd dc4e 013e
00000210: 00bf ba3c b8d2 c43d 3ecd 0a3e c03e 6dbe
00000220: 8830 05be 6841 0b3d 906f ce3d 6297 663e
00000230: 68d5 44bd 9eb2 74be 205e d1bd 00b6 00bb
00000240: ae56 1d3e 7e2c 363e e42e 383e 8cab 33be
00000250: d8a7 e33d f613 32be e0f1 6abc a220 193e
00000260: 483f 79be a079 143c de06 49be 0479 90bd
00000270: f665 78be 28cf 66be 1847 793d 1003 c63c
00000280: 00a0 53ba a036 f2bc 20ab d93d aa20 203e
00000290: ccbb 5fbe 8cab 663e 6812 7e3d 8041 c7bd
000002a0: 1e64 6bbe 446d 8b3d cc17 abbd 74bd d93d
000002b0: 1c45 543e 045d bbbd b0cd 6c3e 22f4 45be
000002c0: 8647 6b3e a0f8 b9bc c03f 96bc 38e2 c7bd
000002d0: 50de 6a3e a4aa 2abe 9027 143d 843e 41be
000002e0: 3047 84bd 30ac b1bd 9a30 29be 20ee 163d
000002f0: be15 27be 4830 96bd 36c1 393e 80ef 493c
00000300: 7843 453d 10ee abbd 40d2 413e c822 243d
00000310: 1e16 1d3e 5866 e3bd c096 cf3b e023 72bc
00000320: 8224 44be 2232 3d3e 2227 0dbe cacb 4f3e
00000330: a01f a4bc f466 20be 80bc 7dbc c083 b8bb
00000340: daa8 443e 68f6 9abd 2839 fdbd d8c7 d5bd
00000350: 58a8 febd 307b 8abc 6845 463e 84f1 363e
00000360: fc44 82bd da20 093e 8cae e03d d62c 67be
00000370: d88c 59bd 2a01 683e ee1a 1fbe 2052 1a3e
00000380: 9cec 5fbe 7840 723d 4e24 6c3e 4832 e6bd
00000390: a05e 9e3d c0e8 8ebd d8f2 70be 38f4 60be
000003a0: 064b 35be 1630 7f3e 701b 7d3e dabf 15be
000003b0: 2c19 9d3d 005b ed3c 10cf c0bd 089d 493e
000003c0: 0614 723e 28ea c0bd a84e d63d c86e 453d
000003d0: 102f 81bd 24cb 5c3e 2464 88bd a0a9 d0bd
000003e0: 0c9a a9bd fcf3 22be 7a59 633e 808b 453e
000003f0: b896 9a3d 7e0c 51be f0b0 be3d 68df 0dbd
0.15078792 -0.1963 -0.07076347 0.02639243 -0.042495936 0.04517609 -0.07555464 -0.010351896
-0.09590593 -0.038727492 0.15330637 -0.12663233 -0.09260741 0.18483686 -0.036156297 0.1386298
0.10152131 -0.21819735 0.05248207 0.012350321 0.107340485 0.003688991 -0.14012861 -0.07159734
-0.03817147 -0.02624613 0.074308336 -0.20015419 -0.154419 -0.10408789 0.03987649 0.23783365
-0.015352607 -0.12725517 0.07458091 0.24905053 0.007816553 -0.23677921 -0.11381099 0.19130427
-0.028161317 -0.08352402 -0.22652104 0.094388425 0.22647521 0.116196364 0.2108199 0.14896095
-0.2415398 -0.08329934 -0.08025777 -0.068967104 0.1326702 0.15490842 0.107138544 -0.10112038
0.043297768 0.12120479 0.1582065 0.19910246 0.20905307 0.13454399 0.24215555 0.1732291
0.112481296 0.037792444 0.18083212 0.09798744 -0.043032944 0.022404552 0.1494869 0.07526907
-0.14805847 -0.03600332 0.2027866 0.05972454 -0.10107881 0.06623274 -0.22917718 0.083907515
-0.23449004 0.09248543 0.037958086 -0.025772274 0.16336405 0.15583453 -0.08783162 0.15844187
0.08960408 -0.10658634 0.09827107 0.031755745 0.014769644 0.113921285 0.049637467 -0.18303293
-0.24645662 -0.028922766 0.0025851727 -0.05873266 -0.20773506 0.07753751 -0.014858812 -0.095855445
0.23534131 0.18872616 -0.06377122 -0.15850955 -0.13894862 -0.008670509 0.1611416 -0.014209777
-0.0785138 -0.047238737 0.070762396 -0.041010946 0.22804317 -0.094005495 -0.1653432 -0.09003976
-0.02281773 0.06911379 -0.0067492723 0.023572177 0.11062157 -0.21486303 -0.13684443 -0.21368432
0.07091981 -0.11993131 -0.092265934 0.12627739 0.022796154 0.09610504 0.13554856 -0.23168468
-0.13006794 0.033997923 0.100798726 0.22518685 -0.048055083 -0.23896262 -0.10223031 -0.001963973
0.15365097 0.1779041 0.17986637 -0.17545909 0.11115998 -0.17390427 -0.014339894 0.14953855
-0.24340546 0.009062201 -0.19631526 -0.07054332 -0.24257645 -0.22539961 0.060858816 0.024171382
-0.0008072853 -0.029567063 0.10628343 0.1563746 -0.21848983 0.22526377 0.062029272 -0.0972929
-0.2298741 0.0680795 -0.08354148 0.106318384 0.20729488 -0.09148601 0.23125339 -0.1933141
0.22976503 -0.022701561 -0.018340945 -0.09759945 0.22936368 -0.16666657 0.036170542 -0.18871504
-0.064588904 -0.0867542 -0.16522446 0.036848187 -0.16316888 -0.07333428 0.1814011 0.012325168
0.048160046 -0.08395016 0.1892786 0.040072232 0.15340468 -0.11103505 0.0063351095 -0.014779061
-0.19154552 0.18476155 -0.13784459 0.20292583 -0.020034611 -0.15664274 -0.015486836 -0.00563094
0.19205037 -0.075665295 -0.12364417 -0.10438508 -0.12434453 -0.016904444 0.19362414 0.17865568
-0.06360814 0.13391438 0.10970792 -0.22575697 -0.053112835 0.22656694 -0.15537617 0.1507039
-0.21867603 0.059143513 0.23060724 -0.11240059 0.07732892 -0.06977987 -0.23530138 -0.21968162
-0.177044 0.24920687 0.24717498 -0.14623967 0.07670817 0.028974056 -0.09414494 0.19688809
0.23640451 -0.09419662 0.10464221 0.048201352 -0.063078046 0.21561867 -0.06659725 -0.101886034
-0.08281335 -0.15913385 0.22202101 0.19291496 0.075482786 -0.20414922 0.09311092 -0.034636885

bias f4 [32]
00000000: 9416 55be 428e 1cbe 3ad6 1c3e 1a90 66be
00000010: 287f 6abd 2460 49be 902e e1bc 3aa1 6bbe
00000020: 4418 acbd e0e8 173d b691 723e f874 e6bd
00000030: 0a60 7dbe 18fc 363e f088 8abc 2055 57bc
00000040: ac76 ddbd 08c5 35be cae4 16be 4c38 b03d
00000050: b4ac 7b3e deab 113e 6042 77bd 4454 283e
00000060: 12f1 623e 3c40 89bd 0e29 79be 84d0 ef3d
00000070: 7092 8e3c 6c09 9abd 2021 073d dae1 2e3e
-0.20809394 -0.15288642 0.15316096 -0.22515908 -0.057250172 -0.19665581 -0.027488023 -0.23010722
-0.08403066 0.03708732 0.23688397 -0.11252779 -0.24743667 0.17869604 -0.016911 -0.013142854
-0.108136505 -0.17750943 -0.14735714 0.08604488 0.245776 0.14225718 -0.060366035 0.16438395
0.22162274 -0.06701705 -0.24332067 0.11709693 0.017403811 -0.07521328 0.032990575 0.17078343

weight f4 [16, 32]
00000000: d1e7 92bd 1ebb f4bd e3e9 bbbd 8405 c3bd
00000010: 6ae2 2ebe f677 a83d 19d0 313e 0bd9 2f3e
00000020: 5478 20be c6a7 c43d b054 4e3c 0502 d3bd
00000030: a376 abbd 3308 1d3e 0065 053c 1fc9 a1bd
00000040: b07a 543c e821 513d f3ff 013e b3fc 203e
00000050: 600e 683d 5b0b 123e 80a5 40bb efab 073e
00000060: e0d6 623c 8ab8 fc3d 4bc0 273e e7b8 2d3e
00000070: dde8 20be 80d7 013c 054c 1fbe 9f95 053e
00000080: 3dcd 2bbe 60bb d4bb bd30 a8bd eb18 20be
00000090: 1905 30be 729c 5fbd 9527 2f3e 9856 9b3c
000000a0: 3922 cfbd b0f2 7c3d c25b fa3d ab34 303e
000000b0: 12a2 18be 4058 0f3b 1e59 cf3d 28d1 8c3c
000000c0: 9f56 0d3e 0302 c1bd b439 66bd 3cf2 66bd
000000d0: 020d 05be 804b 1dbb 5604 8c3d a24a 963d
000000e0: a7f4 163e 04b7 013d 0cfd 513d 2e39 0fbe
000000f0: f660 2dbe ec71 1fbd 7692 aebd 9c2c 48bd
00000100: 7e0e a9bd 9a31 e43d 0bd4 103e 5c25 10bd
00000110: 576c 143e 6c32 18bd e381 13be 806c 1c3b
00000120: 652e 343e 16e1 d8bd cdb8 1ebe 44c3 433d
00000130: 735e 1d3e 00f9 afba 0279 18be 3032 ccbc
00000140: b265 babd 6362 333e 564c ef3d 3500 1e3e
00000150: 4621 b73d 085a 83bd f07a fcbc 1a7b f83d
00000160: cffa 2e3e 022b debd c555 9ebd 5cfe 203d
00000170: a28f d2bd ecbe 303d 2199 193e 544d 5c3d
00000180: 971c 153e d531 0c3e 07a8 27be 4962 233e
00000190: 08de aabc fe05 9e3d a235 c73d a669 a6bd
000001a0: 50ca 5cbd 2219 6ebd b85b fa3c 589b ffbc
000001b0: 7188 223e 9e6f d63d eda5 343e c241 e2bd
000001c0: 4608 ac3d 7c8e 8f3d ee5f ec3d 809f 49bb
000001d0: 0a08 d63d 5839 24be aa8b f33d 10ba 22be
000001e0: 8502 2c3e c0f0 bbbd b8f1 43bd c011 4d3b
000001f0: 87ed 073e 20d5 5fbd ebc2 0b3e a9aa 2b3e
00000200: a69a c93d aa8c fa3d f8c1 0abe 18a2 61bd
00000210: d001 703d 0e2b f13d 9ce4 6c3d 304f 1bbe
00000220: 3ca9 073d 4f9b 083e e336 2d3e 1757 1f3e
00000230: 0eb9 f03d 204d 003d c67d a03d d092 f4bc
00000240: 80c4 f8bc ad79 b5bd d449 283d 8469 533d
00000250: 964c a23d fce1 1cbe 6fa3 123e 507b 01bc
00000260: 58cb d3bc 3e3e a33d 0740 0d3e eaf7 babd
00000270: 24b4 01bd e1fb b0bd 7bec 243e 41b5 1f3e
00000280: 7669 95bd 3b7e 243e a8e1 303d 66e9 d23d
00000290: 8814 01be a1fb 013e 6c0f 03be a813 21be
000002a0: a6c2 b8bd eee6 8ebd 043d d1bd 5535 273e
000002b0: 50e0 37bd c89a fabd 4b60 09be 4bd6 2cbe
000002c0: 587f 9ebc 806a 9dbd d0e8 803c a0b1 fd3c
000002d0: 3089 3cbc b78d 303e d646 5cbd 1eb7 2dbe
000002e0: 9a45 0abe 2c38 07bd deab 15be f9cb 2f3e
000002f0: 9a18 92bd c5d9 1f3e 2446 383d f08f e9bc
00000300: 6852 0abd 37df 223e 4092 64bb d861 923d
00000310: 7b8b 1ebe adc9 323e b843 6ebd 4e3c e43d
00000320: cdec 2abe 73b1 21be 1256 fb3d e738 313e
00000330: 96c9 bcbd 6ef1 ca3d de6e f93d 4436 263d
00000340: b355 abbd 152c b1bd 9e1c d83d a3fe 243e
00000350: e25e ae3d f8e1 ba3c f1c4 1f3e e063 783c
00000360: 805c 453b 5636 cebd 567b c8bd dc2f 12be
00000370: 541c 0ebd b28b fc3d 941d 3cbd 8004 f4ba
00000380: 743b 09be 1033 06bc df6b 1ebe a49c 15be
00000390: 78ff 2c3d eef2 f63d a9ed 21be 185a 1dbe
000003a0: 014b 343e 038c 2dbe 30d9 9ebc ed3e c7bd
000003b0: 9074 763c 8cb7 34bd 229f a53d 3893 083d
000003c0: 8021 6c3b cd15 1e3e 589f 2ebe 0c0f 1fbd
000003d0: aada 09be 914c 93bd d6a7 a03d 0078 1fb9
000003e0: c51c 1ebe 4633 e63d c7b2 b7bd 64a3 aebd
000003f0: 34c0 3e3d 1b41 b8bd 812f 0a3e 918f bfbd
-0.07173122 -0.11949752 -0.0917547 -0.095225364 -0.17078558 0.08226006 0.17364539 0.17172639
-0.15670902 0.09602313 0.012593433 -0.103031196 -0.083722375 0.15335159 0.008141756 -0.07899689
0.012968704 0.051057726 0.12695293 0.15721397 0.056654334 0.14262144 -0.002939552 0.13249181
0.0138451755 0.123398855 0.16381948 0.16965066 -0.1571383 0.007924914 -0.15556343 0.13045357
-0.16777511 -0.0064920634 -0.08212421 -0.15634505 -0.17189445 -0.054592557 0.17104943 0.01896219
-0.10113949 0.061754882 0.12224533 0.17207591 -0.14905575 0.002187267 0.1012442 0.017189577
0.13802575 -0.09424212 -0.056207374 -0.056383356 -0.12993243 -0.00240013 0.068367645 0.07338454
0.14741765 0.031668678 0.051266715 -0.13986656 -0.16931519 -0.038927004 -0.08524029 -0.048870668
-0.08254717 0.11142273 0.14143388 -0.03519188 0.14494453 -0.03715746 -0.14405017 0.0023868382
0.17595823 -0.10589807 -0.15500183 0.04779364 0.15368061 -0.0013425648 -0.14889911 -0.024926275
-0.09101428 0.17518 0.11684482 0.15429766 0.08941893 -0.064136565 -0.03082034 0.12132855
0.17087863 -0.10848047 -0.07731203 0.039305076 -0.10281302 0.043150827 0.1499982 0.053784683
0.14561687 0.13690884 -0.16372691 0.15955462 -0.020857826 0.07715987 0.097270265 -0.081256196
-0.053903878 -0.058129437 0.030561313 -0.031202003 0.15872361 0.10470508 0.1764142 -0.110476986
0.084000155 0.070095986 0.11541735 -0.0030765235 0.10450752 -0.160375 0.11891873 -0.1589129
0.16797836 -0.09176779 -0.047837943 0.0031291097 0.13274203 -0.05464661 0.13648574 0.1676432
0.0984395 0.12233861 -0.13550556 -0.055086225 0.05859548 0.1177579 0.057835206 -0.15166926
0.03312038 0.13340496 0.16915469 0.15560566 0.117540464 0.031323552 0.078364894 -0.029855162
-0.030367136 -0.088610984 0.041086033 0.0516143 0.07924764 -0.15320581 0.14320157 -0.007902935
-0.025853798 0.07970856 0.13793956 -0.09129317 -0.031665936 -0.08641792 0.16105835 0.15596487
-0.07295506 0.16063778 0.043183953 0.102984235 -0.12605488 0.12693645 -0.12798852 -0.15730155
-0.09021501 -0.0697764 -0.10216716 0.16328938 -0.044891655 -0.122365534 -0.13415639 -0.16878621
-0.019347832 -0.07686329 0.015736014 0.030968487 -0.011507317 0.1724156 -0.053778492 -0.16964385
-0.13503113 -0.033012554 -0.14616343 0.17167653 -0.071335986 0.15610416 0.044988766 -0.028511018
-0.033769995 0.15905462 -0.003487721 0.071475685 -0.15482895 0.17459746 -0.05817005 0.11144315
-0.16691895 -0.15790348 0.12272276 0.17306863 -0.09218137 0.0990933 0.12179349 0.040579095
-0.08365955 -0.08650986 0.10552333 0.16112761 0.08514191 0.022812828 0.15602471 0.015160531
0.0030114949 -0.100689575 -0.097891495 -0.1427607 -0.034694985 0.12331332 -0.045926645 -0.0018617064
-0.13401586 -0.008190885 -0.15470837 -0.14610535 0.04223582 0.12058054 -0.15813316 -0.153664
0.17606737 -0.16947941 -0.019390672 -0.09728799 0.015042439 -0.044120356 0.08086993 0.033343524
0.003603071 0.15438004 -0.17052972 -0.03883271 -0.1346232 -0.07192338 0.07844512 -0.00015208125
-0.15440662 0.112402484 -0.08969646 -0.08527258 0.046570018 -0.08996793 0.13494684 -0.09353555

bias f4 [16]
00000000: 78d5 123d 902f 0dbc c7d3 cabd 9619 5bbd
00000010: 98fc 683d 6331 cebd a86d bbbd 9c71 0cbd
00000020: 4a5c 00be bedc f93d 3975 283e 75df 22be
00000030: 91b3 023e c020 783b 0397 173e 0358 053e
0.03584811 -0.008617297 -0.099036746 -0.053491198 0.056881517 -0.100680135 -0.09151775 -0.034288034
-0.12535205 0.12200306 0.16450967 -0.15905555 0.12763812 0.0037861317 0.148037 0.13021855

weight f4 [2, 16]
00000000: d490 4b3e 082b 8b3d 1c80 743e 701d cbbd
00000010: ec87 acbd b6db 2dbe c001 1dbc c61c 3b3e
00000020: 306d 793e f6db 08be 9c0f e53d 94b7 43be
00000030: 80c0 33be f41c cdbd b214 6abe e450 f23d
00000040: a63a 10be 486c 403e 78dd 09bd b21b 103e
00000050: 5e82 47be 5892 86bd c0ec ba3c 7449 eebd
00000060: 085b 023e 74a1 e63d 6e4b 55be 0853 4c3e
00000070: c053 363e 74ea 85bd bc18 373e 44e8 d4bd
0.19879466 0.06795317 0.23876995 -0.09917724 -0.084243625 -0.16978344 -0.009582937 0.18272695
0.24358058 -0.13365158 0.11184618 -0.19112998 -0.17553902 -0.10015288 -0.22859457 0.11831835
-0.14084873 0.18791306 -0.033658475 0.14073065 -0.19483325 -0.065708816 0.02281797 -0.11635104
0.12730038 0.112612635 -0.20829555 0.19953549 0.17805386 -0.06538859 0.17880529 -0.10395864

bias f4 [2]
00000000: 484c 98bd d0ed 133d
-0.074364245 0.036115468
