aggregated_results/Thistle/retrospective_mc_2.pt (torch, 4470 bytes, 6 tensors)

network.0.weight f4 [16, 5]
0	0x3ed4ca74	0.4156071
1	0x3e9bf52c	0.3046049
2	0xbed35d14	-0.4128195
3	0x3ede351a	0.43399888
4	0xbedfa3b2	-0.43679577
5	0x3d98b750	0.07456839
6	0x3e84d878	0.25946403
7	0xbee414a6	-0.44547004
8	0x3e240a54	0.16019565
9	0xbe41602e	-0.18884346
10	0x3e121650	0.14266324
11	0xc0cccb15	-6.3997903
12	0xbd0e2334	-0.03470154
13	0x3ed061ae	0.40699524
14	0xbeb28146	-0.34864253
15	0x3f85b09a	1.044452
16	0x40124ce9	2.2859442
17	0xbe98ddba	-0.29856664
18	0x3e9687b6	0.29400414
19	0x3e0879b9	0.13327684
20	0x403e24ae	2.9709888
21	0x40bee332	5.965234
22	0x3e34f00f	0.176697
23	0xbebd8b6e	-0.3702044
24	0x3f1f2fc8	0.62182283
25	0xbffc6b4a	-1.9720242
26	0xc0dafe6a	-6.8435564
27	0xbeed8fde	-0.46398824
28	0x3ebef58c	0.37296712
29	0x3fa8bc3e	1.3182447
30	0xc01be522	-2.4358602
31	0x3fc86201	1.5654908
32	0x3d2b7df4	0.041868165
33	0x3e8e7f88	0.27831674
34	0xbe394082	-0.18091014
35	0xbde9e272	-0.11420144
36	0xc0cff676	-6.4988356
37	0xbe8e308a	-0.27771407
38	0xbdc92fb0	-0.09823549
39	0xbeec61b2	-0.46168286
40	0x3f238d0a	0.63887084
41	0xbef96c62	-0.48715502
42	0xbec5bcb0	-0.3862052
43	0x3de62f88	0.112395346
44	0xbeaf843d	-0.34280577
45	0xbde8464e	-0.113415346
46	0x40809034	4.017603
47	0xbce8a518	-0.028399035
48	0xbdac7d1c	-0.084223
49	0x3e1b9f10	0.15197396
50	0xbf5c8d71	-0.8615332
51	0x40bdfb30	5.9369125
52	0x3e27e784	0.1639691
53	0xbe9de53a	-0.30838948
54	0xbf5ad00c	-0.85473704
55	0xbe33d476	-0.17561516
56	0xbed30d2b	-0.41220984
57	0x3da63a58	0.08116597
58	0xbe2ea8fc	-0.1705665
59	0xbe26150e	-0.16218969
60	0x3e94de0e	0.29075664
61	0xbed696f4	-0.41912043
62	0xbeb71d52	-0.35764557
63	0xbeb0995e	-0.3449201
64	0x3b599d40	0.00332053
65	0x3d7834c0	0.06059718
66	0xbdb275c0	-0.08713865
67	0x3e778888	0.24173176
68	0x3d8dd5d8	0.06925553
69	0x3dd6b3c0	0.10483503
70	0x3f3200b6	0.69532335
71	0x40197b8b	2.3981655
72	0xbeedb545	-0.4642736
73	0xbd482a68	-0.048868567
74	0x3ec52b9c	0.38509834
75	0x3ca732f0	0.020410031
76	0x40a60b62	5.1888895
77	0xbd9796b0	-0.07401788
78	0xbe9a8f27	-0.30187342
79	0x3e351740	0.1768465

network.0.bias f4 [16]
0	0x3de26060	0.11053538
1	0xbe6752d6	-0.22590193
2	0xbf0a8afe	-0.54118335
3	0xbe7601f4	-0.24024183
4	0x3dd30df4	0.10305396
5	0x3f7ea606	0.9947208
6	0x3e4f5078	0.2024554
7	0xbdb94112	-0.09045614
8	0xbe5680af	-0.20947526
9	0xbf28ae3a	-0.6589085
10	0xbe05bb5d	-0.13059755
11	0xbe9e98f8	-0.3097608
12	0xbea3ac3f	-0.3196735
13	0xbe821b8a	-0.25411636
14	0x3f4230b8	0.7585559
15	0x3eb89f08	0.3605883

network.2.weight f4 [16, 16]
0	0xbd922b80	-0.07137203
1	0x3e2ab0b0	0.16668963
2	0xbe736968	-0.23770678
3	0x3d910a48	0.07082039
4	0xbdfd87bc	-0.12379405
5	0xbe4a993c	-0.19785017
6	0x3e1dfd7c	0.15428728
7	0xbd39be98	-0.04534778
8	0xbdfd8894	-0.12379566
9	0x3df21748	0.11820847
10	0xbdb7d08c	-0.08975324
11	0x3da52eb4	0.080655485
12	0xbe0b1058	-0.13580453
13	0xbe58da04	-0.21176916
14	0x3ddd208c	0.107972234
15	0x3e57a96e	0.21060726
16	0x3dcda34c	0.10040912
17	0xbe59af9c	-0.21258396
18	0x400082cd	2.0079834
19	0xbd829bd0	-0.06377375
20	0xbfe48d1a	-1.7855561
21	0x3f839329	1.0279285
22	0xc0282461	-2.6272204
23	0x40003b02	2.0036016
24	0xbd71172c	-0.05885999
25	0xbf801a3f	-1.000801
26	0xc079b493	-3.9016464
27	0xbe450b5c	-0.19242615
28	0xbe0e7a06	-0.13913736
29	0xbd590880	-0.05298662
30	0x3f4166b0	0.75547314
31	0xbe5bb930	-0.21457362
32	0x3c36e740	0.011163533
33	0xbe46abb4	-0.19401437
34	0xbea5566e	-0.32292503
35	0xbe616afc	-0.22013468
36	0xbdb6f644	-0.0893369
37	0xbe17c31c	-0.14820522
38	0xbe9171d1	-0.28407148
39	0xbea468b0	-0.3211112
40	0xbdb0a2e4	-0.08624819
41	0xbe2c11b4	-0.16803628
42	0xbe99964b	-0.29997477
43	0xbd18c3f8	-0.037296265
44	0xbe293664	-0.16524655
45	0xbe682836	-0.2267159
46	0xbe223c42	-0.15843299
47	0xbd5c5dd0	-0.053800404
48	0x3e3c8492	0.18409947
49	0x3e16cd3e	0.14726731
50	0xbe53c8d1	-0.20682074
51	0x3e1739b2	0.14768103
52	0xbe3d8698	-0.18508375
53	0xbe4cd4ac	-0.20003003
54	0xbe2efa18	-0.1708759
55	0xbe96a2c4	-0.29421055
56	0x3e15613e	0.14587876
57	0x3d0d35ec	0.034475252
58	0xbe63166a	-0.22176519
59	0x3e79777e	0.24361989
60	0xbdb36718	-0.08759898
61	0x3e74f626	0.23922023
62	0x3dd25494	0.10270038
63	0x3c0a8760	0.0084551275
64	0x3e5e5cac	0.21715039
65	0x3d9c1b58	0.07622403
66	0x3fc3f6d3	1.53097
67	0xbe4ff7ea	-0.20309415
68	0xbfe9a69b	-1.8253969
69	0x3f7dcd32	0.9914123
70	0xc024a99a	-2.5728517
71	0x3fca2c90	1.5794849
72	0x3eb71043	0.35754594
73	0xbeb67848	-0.35638642
74	0xc01ad11f	-2.4190137
75	0x3e3d120a	0.18463913
76	0xbe009112	-0.1255534
77	0x3bfd9300	0.007738471
78	0x3f5d48da	0.8643929
79	0x3f5a7005	0.8532718
80	0xbcf6cf60	-0.030128181
81	0x3e1d3d86	0.153555
82	0x3f61d267	0.88211673
83	0x3e3f9e0c	0.18712634
84	0xbe9abb28	-0.30220914
85	0xbd053eb8	-0.032530516
86	0xc026a118	-2.6035824
87	0x3f2eddb0	0.6830702
88	0xbca54bb8	-0.020177707
89	0xbf199216	-0.59988534
90	0xbf9925b3	-1.196463
91	0x3e4d4492	0.20045689
92	0xbdc902b8	-0.09814972
93	0xbd1ba1b0	-0.037995994
94	0x3f210adb	0.6290719
95	0xbe027cf0	-0.12742972
96	0xbdd38b1c	-0.103292674
97	0x3e579a54	0.21054965
98	0x3f78be05	0.97164947
99	0xbc97d100	-0.018532276
100	0xbf1317a9	-0.5745798
101	0x3db6abc4	0.089194804
102	0xc001a2c6	-2.02556
103	0x3f93e362	1.1553767
104	0xbf14494e	-0.57924354
105	0x3d9d210a	0.07672317
106	0xbfe4c700	-1.787323
107	0x3da3d3ac	0.079993576
108	0x3e0c1e10	0.13683343
109	0xbe2700ee	-0.16308948
110	0x3f2c42ea	0.672896
111	0x3f5f49f6	0.8722223
112	0x3e7bed1e	0.24602172
113	0x3c3b9080	0.011448026
114	0x40063d26	2.0974822
115	0x3e0648be	0.13113686
116	0xbfb45a1a	-1.4089997
117	0x3f536892	0.82581437
118	0xc0361bc6	-2.8454452
119	0x3ff13275	1.8843523
120	0x3e05ca10	0.13065362
121	0xbf96e486	-1.178849
122	0xc05cc893	-3.449742
123	0xbe227e94	-0.15868598
124	0x3e28d31a	0.16486779
125	0xbe5dcb1e	-0.21659514
126	0x3f83041e	1.0235631
127	0x3e3156c0	0.17318249
128	0x3db4ae70	0.08822334
129	0x3d8aafc8	0.06771809
130	0x3ea9edae	0.33189148
131	0xbd83a7cc	-0.06428489
132	0xbf1af728	-0.6053338
133	0xbe79b780	-0.24386406
134	0xbffca31b	-1.9737276
135	0x3e69f11d	0.22845884
136	0x3e2dcc7f	0.1697254
137	0xbee292d4	-0.44252646
138	0xc037f9f5	-2.8746312
139	0x3d843f70	0.06457412
140	0xbe6875a2	-0.22701123
141	0xbc43c560	-0.011948913
142	0x3f38a004	0.72119164
143	0x3f9c1ff0	1.2197247
144	0x3c917cc0	0.01775968
145	0xbe61765c	-0.22017807
146	0xbf11eada	-0.5699898
147	0xbe43b43c	-0.19111723
148	0xbe1cedcd	-0.15325089
149	0x3b0b3180	0.002123922
150	0xbe6b4d4d	-0.22978707
151	0xbef912fd	-0.486473
152	0x3e28520d	0.1643755
153	0xbe64ca44	-0.22342783
154	0xbec9c77a	-0.3941
155	0x3d1e3810	0.038627684
156	0xbe6d0212	-0.23145321
157	0xbe46c1e6	-0.19409904
158	0x3dcd306c	0.10019001
159	0x3d9785b8	0.07398552
160	0xbe5c9dc0	-0.21544552
161	0xbd301488	-0.04298833
162	0x3fd6f2a2	1.6792796
163	0x3d87e2e0	0.0663507
164	0xbfcf5d23	-1.6200298
165	0x3f590bfe	0.84783924
166	0xc0294d62	-2.645348
167	0x3fc8e8ca	1.5696042
168	0x3e670894	0.22561866
169	0xbf7aa1e2	-0.97903264
170	0xc05824e7	-3.3772523
171	0x3e2b61e6	0.16736564
172	0xbe08720c	-0.13324755
173	0xbe1d5ccc	-0.1536743
174	0x3f10c193	0.5654537
175	0x3f84c6c8	1.0373163
176	0xbe5688e2	-0.20950654
177	0x3b294580	0.0025828779
178	0x3e13f586	0.14449129
179	0x3eccf5e8	0.40031362
180	0x3ee30012	0.4433599
181	0xbed0003b	-0.40625176
182	0xc002d111	-2.0440104
183	0xbee020f3	-0.43775138
184	0xbe09ad3e	-0.13444993
185	0xbfc9e3e4	-1.5772672
186	0x3f74c74c	0.956166
187	0xbda8c3ec	-0.08240494
188	0xbdb04368	-0.08606607
189	0xbacaf500	-0.0015484393
190	0x3e2ca19a	0.16858521
191	0x3ffc25c7	1.9699029
192	0xbdaf7f08	-0.08569151
193	0x3e7c4a84	0.246378
194	0x3e3a04e1	0.18165924
195	0xbe4679e4	-0.19382435
196	0xbe1f2973	-0.15543155
197	0xbe6611d9	-0.22467746
198	0xbe079a70	-0.13242507
199	0x3dcde468	0.10053331
200	0xbcada4d8	-0.021196768
201	0xbd71b474	-0.059009984
202	0xbf2505d2	-0.64462006
203	0x3e410d40	0.1885271
204	0xbc8fcec0	-0.01755464
205	0x3e3b3862	0.18283227
206	0x3dc9e2c0	0.09857702
207	0x3e177622	0.14791158
208	0x3e4e27a4	0.20132309
209	0x3e35c0bc	0.17749304
210	0xbe102ea6	-0.14080295
211	0x3d1aebe0	0.037822604
212	0xbe5bdabc	-0.2147016
213	0xbc7f1320	-0.015568525
214	0xbe2d6fa0	-0.16937113
215	0x3e21b0aa	0.15790048
216	0xbe7b03ec	-0.24513215
217	0x3e11673e	0.1419954
218	0xbd133e90	-0.035948336
219	0x3e7b764a	0.24556842
220	0xbe5d5944	-0.21616083
221	0xbe1f95ee	-0.15584537
222	0xbe7ae150	-0.24500012
223	0xbe61124e	-0.21979639
224	0x3e33f958	0.17575586
225	0xbc42c460	-0.01188764
226	0x3fde6454	1.7374368
227	0xbe6fb6b8	-0.23409545
228	0xbf413506	-0.7547153
229	0x3ec4ddce	0.38450474
230	0xc038057a	-2.8753343
231	0x3fcd7128	1.6050158
232	0xbdf8b23a	-0.12143369
233	0xbeb32d81	-0.34995654
234	0xc042ddf9	-3.0447981
235	0xbe4e31b8	-0.20136154
236	0xbe2d67d6	-0.16934142
237	0xbe74a618	-0.23891485
238	0x3f1d0302	0.61332715
239	0xbdb8f9fc	-0.09032056
240	0x3df0a018	0.117492855
241	0xbe0dff50	-0.13866925
242	0x3e416b2f	0.18888544
243	0x3ff5a94c	1.919229
244	0x403cfd1f	2.9529493
245	0xbfcec741	-1.6154557
246	0x3e6fa537	0.23402868
247	0x3d988b80	0.074484825
248	0xbd38e9bc	-0.04514478
249	0xbe95e9f6	-0.2928006
250	0x3fd0af08	1.6303415
251	0x3e05d468	0.13069308
252	0xbe212449	-0.15736498
253	0xbe177676	-0.14791283
254	0x3faec799	1.3654662
255	0x40068018	2.1015682

network.2.bias f4 [16]
0	0xbe5d61ca	-0.21619335
1	0xbdea2002	-0.11431886
2	0xbc27d55d	-0.010243741
3	0x3e82ac5f	0.25522134
4	0x3f43ac2a	0.76434577
5	0xbebe2eee	-0.3714518
6	0xbd5de908	-0.054177314
7	0x3e0de0a2	0.13855222
8	0x3e97f0f6	0.29676026
9	0xbe872d06	-0.26401538
10	0xbdd68ed8	-0.10476464
11	0x3e24878e	0.16067335
12	0xbdc613c2	-0.09671737
13	0xbe5c8a56	-0.21537146
14	0x3e940dae	0.28916687
15	0x3d8e6a17	0.06953829

network.4.weight f4 [2, 16]
0	0xbe5f92f2	-0.21833399
1	0xc00a68c1	-2.1626437
2	0x3e32f966	0.1747795
3	0x3ebcf051	0.36902097
4	0xc0229c82	-2.5408025
5	0xc00fd225	-2.2472012
6	0xc01844b2	-2.3791928
7	0xc0322469	-2.7834723
8	0xbff56b0f	-1.9173297
9	0x3e593d14	0.21214706
10	0xc0251ef9	-2.5800154
11	0xbfbd8192	-1.4805167
12	0xbf1b1d06	-0.6059116
13	0xbc72cf20	-0.01481989
14	0xc05ba43c	-3.431899
15	0xbff86aff	-1.9407653
16	0x3e79320a	0.24335495
17	0x4036d30d	2.8566315
18	0xbde4151c	-0.11136839
19	0x3de2e9a8	0.11079723
20	0x403be10f	2.9356115
21	0x3ff2e610	1.897646
22	0x4075c006	3.8398452
23	0x405a3e08	3.410036
24	0x3f753d13	0.95796317
25	0xbeb34098	-0.3501022
26	0x4019634d	2.3966858
27	0x401b16bc	2.4232626
28	0x3c3c03d0	0.011475518
29	0xbdcb38d4	-0.099229485
30	0x403072dc	2.7570105
31	0x4000800d	2.0078156

network.4.bias f4 [2]
0	0xbe9de4c2	-0.3083859
1	0xbe21489a	-0.15750352
