saved_ttt/live_ttt_3.pt (torch, 12260 bytes, 8 tensors)

weight f4 [16, 36]
-0.088234305 -0.11725682 0.01298745 -0.13780591 0.10304202 -0.115678966 0.15146707 -0.16156761
-0.087316394 0.088058904 0.007891908 0.07503642 0.018799856 0.0030272007 0.12893642 -0.113579355
0.10431264 0.031191483 -0.048772417 0.11585446 -0.00307931 0.11059846 0.07878333 -0.11845299
0.15483285 0.009232566 -0.09115392 0.09466 -0.070231855 0.03642516 0.09129502 -0.070706725
0.12146635 -0.08519304 -0.04710281 -0.030896738 0.53986174 0.13832518 -0.10113911 0.2580941
-0.12521529 0.07711764 0.4726203 -0.10981133 0.052082155 0.1569347 0.33201298 -0.07923337
0.43056402 0.1579804 0.12666182 0.16246757 0.009804949 0.11425816 0.51711106 0.15178905
-0.0525697 0.14059588 0.061587796 0.52938485 0.3254328 0.17488359 0.097648166 -0.13184886
-0.13099071 0.055245034 0.062485278 -0.14981821 -0.032109603 -0.01976695 -0.019390032 0.3581206
0.4757787 0.13578075 0.08685292 0.51938045 -0.15160342 -0.08952682 0.43015075 -0.08756247
-0.020534385 -0.092276655 0.30327937 0.07485345 0.487012 -0.11682072 -0.020792782 0.20038226
0.001645863 0.31467545 0.31444037 0.045172747 -0.06105027 -0.052796558 -0.14250052 0.4916462
0.2996905 0.03582671 0.07841827 0.16204037 -0.0014224373 -0.07863923 0.3101247 -0.0807892
0.1004727 0.02998426 0.01875113 0.19861054 -0.0061038584 0.116484776 0.036036596 0.16252781
0.08322704 0.016362742 0.043795124 0.022365928 -0.03693503 -0.09704845 -0.15144372 0.10743235
-0.060240686 -0.101445064 0.107069656 -0.01992701 -0.07804545 -0.10942392 -0.07136582 -0.07336782
-0.12414458 0.071175694 -0.15180503 -0.11735859 0.014951662 0.039219216 -0.13730489 0.110569015
-0.026897192 0.001402244 0.12585457 -0.16377227 0.069270074 0.116534725 0.04694192 -0.022635177
0.24797367 -0.12920488 -0.025154293 0.54149806 -0.06301641 0.13619596 0.42081112 -0.0936393
-0.11657327 0.05641544 0.47380218 0.14405549 0.3520907 0.0058861333 0.0278451 0.34220633
0.09577067 0.34776205 0.35963514 0.14637153 -0.055865638 -0.0017793505 0.09588443 0.4696833
0.25086808 0.331047 -0.080898546 -0.059781194 0.11281137 -0.05979273 0.081335515 -0.14307968
0.1314132 -0.006130082 0.1634887 0.077953786 0.061555207 0.042544574 -0.13057402 -0.0038865805
-0.024567485 0.10870014 0.046746746 0.05457528 -0.15637484 0.08036508 -0.1623826 -0.14804377
-0.0055411304 -0.1365186 -0.16104662 0.08530384 -0.101688646 0.008231209 -0.1256717 0.11798853
-0.13464355 0.09493239 0.029860675 0.007848697 0.14347522 -0.12223437 0.10630728 0.039254084
0.09932335 -0.12827478 -0.08100802 0.15659094 0.08282752 0.0056800703 0.07503335 0.06726207
-0.10657116 -0.14989763 0.14083205 0.09663792 0.09033133 -0.05351486 0.06336558 -0.10106947
-0.09279929 -0.050343633 -0.11676125 -0.06110444 0.04849714 0.0954252 -0.003491655 -0.058182
0.13316305 -0.010663763 -0.0050450414 0.0697474 0.11888637 -0.07406823 0.11847998 0.0016451031
0.00047904253 -0.16089898 -0.08411294 0.16302381 0.1506706 -0.0706652 -0.028071702 -0.01534979
0.12049623 0.15438117 -0.15994929 0.14986928 -0.05457606 0.022628691 0.057990655 -0.02632688
00000000: 30b4 b4bd 5824 f0bd 50c9 543c fe1c 0dbe
00000010: b207 d33d 18e9 ecbd 2f1a 1b3e fb71 25be
00000020: f0d2 b2bd 3a58 b43d 104d 013c b2ac 993d
00000030: 2802 9a3c 0064 463b e907 043e 4b9c e8bd
00000040: dea1 d53d 4885 ff3c 96c5 47bd 1a45 ed3d
00000050: 40ce 49bb 7281 e23d 2859 a13d 7b97 f2bd
00000060: 818c 1e3e 3044 173c e8ae babd 1add c13d
00000070: b8d5 8fbd 8c32 153d e2f8 ba3d b0ce 90bd
00000080: 5ac3 f83d b079 aebd e0ee 40bd 281b fdbc
00000090: 6134 0a3f 1ea5 0d3e 0622 cfbd e924 843e
000000a0: 7038 00be daef 9d3d 4afb f13e c3e4 e0bd
000000b0: 1954 553d 7db3 203e 9bfd a93e 1b45 a2bd
000000c0: e372 dc3e 9dc5 213e a3b3 013e e65d 263e
000000d0: f0a4 203c 2f00 ea3d 6461 043f 976e 1b3e
000000e0: 5353 57bd 5ef8 0f3e 7c43 7c3d c485 073f
000000f0: 219f a63e af14 333e c3fb c73d 6303 07be
00000100: 6e22 06be 9e48 623d 90f0 7f3d f269 19be
00000110: 5c85 03bd 4cee a1bc d8d7 9ebc 955b b73e
00000120: 4499 f33e 1c0a 0b3e f2df b13d 1ef6 043f
00000130: ed3d 1bbe d659 b7bd b83c dc3e f453 b3bd
00000140: ba37 a8bc 8bfb bcbd 6f47 9b3e c44c 993d
00000150: a359 f93e b43f efbd a055 aabc 0231 4d3e
00000160: 00ba d73a 241d a13e 54fe a03e 0f07 393d
00000170: d90f 7abd 3441 58bd a8eb 11be 0db9 fb3e
00000180: 0971 993e 07bf 123d c299 a03d e9ed 253e
00000190: 1371 baba 9b0d a1bd aac8 9e3e cf74 a5bd
000001a0: a2c4 cd3d 8da1 f53c f89b 993c 9060 4b3e
000001b0: e002 c8bb 928f ee3d 1c9b 133d b16d 263e
000001c0: f072 aa3d 280b 863c 8462 333d c038 b73c
000001d0: 3049 17bd 56c1 c6bd 1014 1bbe 7e05 dc3d
000001e0: f0be 76bd 6ec2 cfbd 5647 db3d f83d a3bc
000001f0: 4bd6 9fbd a619 e0bd 3e28 92bd de41 96bd
00000200: 833f febd 90c4 913d c772 1bbe b359 f0bd
00000210: d1f7 743c 54a4 203d a799 0cbe 0272 e23d
00000220: 8057 dcbc 80cb b73a 05e0 003e ebb3 27be
00000230: 78dd 8d3d c2a9 ee3d 2c46 403d 686d b9bc
00000240: cfec 7d3e 494e 04be 6010 cebc 9e9f 0a3f
00000250: bf0e 81bd f476 0b3e 8e74 d73e f6c5 bfbd
00000260: f7bd eebd e013 673d 3396 f23e 4883 133e
00000270: 3b45 b43e 77e0 c03b 681b e43c ab35 af3e
00000280: 6a23 c43d de0d b23e 1922 b83e 6be2 153e
00000290: 5ed3 64bd 1839 e9ba 0e5f c43d 547a f03e
000002a0: c871 803e fe7e a93e 23ae a5bd 20dd 74bd
000002b0: a609 e73d 39e9 74bd 3c93 a63d 7b83 12be
000002c0: 2f91 063e dbde c8bb 9569 273e 3ca6 9f3d
000002d0: 5021 7c3d 3843 2e3d 32b5 05be 00b6 7ebb
000002e0: c041 c9bc 2e9e de3d 8479 3f3d 548a 5f3d
000002f0: ba20 20be 7296 a43d a047 26be c998 17be
00000300: 5f92 b5bb 88cb 0bbe 68e9 24be c8b3 ae3d
00000310: 2342 d0bd 31dc 063c 15b0 00be f8a3 f13d
00000320: 00e0 09be ea6b c23d 609e f43c d297 003c
00000330: 2beb 123e 0356 fabd a2b7 d93d e4c8 203d
00000340: 0a6a cb3d 775a 03be 88e7 a5bd 6059 203e
00000350: 7aa1 a93d e21f ba3b 16ab 993d b2c0 893d
00000360: fb41 dabd c47e 19be 4736 103e 1aea c53d
00000370: a2ff b83d 6632 5bbd d0c5 813d 83fd cebd
00000380: 8e0d bebd 2035 4ebd 8620 efbd a648 7abd
00000390: f0a4 463d 4a6e c33d 40d4 64bb 4050 6ebd
000003a0: e55b 083e 10b7 2ebc e050 a5bb bad7 8e3d
000003b0: b27a f33d 16b1 97bd a2a5 f23d 80a0 d73a
000003c0: 0028 fb39 b4c2 24be 6843 acbd b7ef 263e
000003d0: 6549 1a3e ebb8 90bd a0f6 e5bc b07d 7bbc
000003e0: bac6 f63d 1916 1e3e bfc9 23be 5577 193e
000003f0: 268b 5fbd ce5f b93c 9c87 6d3d 78ab d7bc

bias f4 [16]
-0.029088318 0.32675105 0.55819374 -0.16306055 0.33971706 -0.00471918 -0.1502333 -0.06943808
0.04825855 -0.17987742 -0.21994093 -0.02539323 0.49007803 -0.0909774 0.44719824 -0.27545
00000000: a04a eebc ea4b a73e c9e5 0e3f 58f9 26be
00000010: 65ef ad3e 5aa3 9abb c2d6 19be 8d35 8ebd
00000020: c2aa 453d c931 38be 3238 61be 7705 d0bc
00000030: 82eb fa3e 5c52 babd 2bf7 e43e c807 8dbe

weight f4 [32, 16]
-0.24578956 0.28633597 0.18637952 0.093114436 0.39338318 -0.053259328 -0.09174797 0.22660808
0.051251743 -0.24245518 -0.024490625 0.0012085811 0.31067014 -0.031075642 0.20640299 0.020038903
-0.11654276 -0.13290876 -0.099622965 -0.1342741 -0.03322509 0.051186442 -0.005356908 -0.046125293
0.2013177 0.14315891 0.10420072 -0.19661203 0.15244296 0.08779737 -0.0017571747 -0.20827004
-0.14446849 0.14367905 -0.19738185 0.061246246 -0.17916638 0.045162708 0.18917584 0.013556123
0.11530483 0.09374517 -0.07346824 -0.22410265 -0.01821658 -0.03032875 -0.23040682 -0.026196241
0.016613513 0.13780366 -0.0053661726 -0.23006618 0.20554058 -0.080971934 -0.029637992 0.122368254
-0.20701844 0.19614568 -0.1348024 0.090104885 -0.12774281 0.08302501 -0.16041797 0.04286754
0.02087459 -0.08879003 0.13234901 0.22743446 -0.24551687 -0.013823569 0.013693154 -0.0011642277
0.047661126 -0.15360263 -0.037020266 -0.23852432 -0.1827339 -0.096429974 -0.029008597 0.18398362
0.20424822 -0.07051754 -0.13150874 0.1723555 -0.24475592 -0.0021772385 0.001968801 -0.022793412
0.04011321 0.072594285 0.023702294 0.09848109 -0.22644109 -0.12394157 -0.033825487 -0.1854533
0.00854823 -0.15032107 -0.19617167 -0.21950465 0.06753278 0.15246445 0.11988971 0.21095788
0.06611821 -0.11386803 0.22635758 -0.15330046 0.043604255 -0.14280015 0.14534587 0.2089046
0.15287241 -0.11077045 -0.35795817 -0.028099716 -0.14861366 0.23570701 0.13982713 0.23895118
0.0632509 -0.15261969 0.07375878 0.023222119 -0.008475482 -0.03243582 -0.3937062 -0.26062313
0.2260068 -0.06794658 0.093553245 0.18661386 -0.03986925 0.14418882 -0.20550191 0.07734242
-0.032709718 0.025256455 0.0776912 0.1618534 0.18116024 -0.22592548 -0.2241314 0.15615916
0.23137587 -0.026131928 -0.1912238 0.054380387 0.19651568 -0.09329423 -0.06445375 -0.20832306
-0.10793841 0.23794037 0.2351673 0.17434135 -0.24843377 0.010221183 0.0063245595 -0.012060314
0.07829812 -0.37959313 -0.10745604 -0.080979735 -0.070192724 -0.12242925 -0.17583662 0.14340588
-0.1413509 0.046261728 -0.24512954 -0.07675195 -0.25195324 0.20763719 -0.32898054 -0.116580576
-0.028809458 0.20184533 0.07897174 -0.15473905 -0.22812197 -0.1495656 -0.12491697 -0.112617314
-0.10277348 0.2811731 0.33584344 -0.08599321 -0.10193444 -0.28516406 -0.03248274 -0.43193835
-0.006687999 -0.18373507 -0.15109596 0.10518527 -0.21948579 -0.10579145 -0.2180255 -0.24446824
0.12863147 0.18564835 0.1628224 -0.22164497 -0.16219652 0.1898925 0.2273342 -0.066877335
0.023702472 -0.14233175 -0.39360273 -0.1431211 -0.0704613 -0.012383431 0.09729561 0.1949985
0.13048577 -0.20186798 -0.0711223 0.03888002 0.019793436 0.15352103 -0.028715283 -0.0043753088
-0.18110138 0.56086737 0.5150137 -0.046270758 0.6464654 -0.0056236316 0.149934 0.12043838
0.12638342 -0.032442763 0.172194 0.014135871 0.6341469 0.25001884 0.5386171 0.13208936
0.045290142 0.23107688 0.43855107 0.03904268 0.23282042 0.18518999 -0.1803323 -0.018701674
-0.029565359 0.32563564 0.084412664 -0.20110822 0.36504704 -0.039754376 0.61880517 0.11271329
00000000: 42b0 7bbe a19a 923e 46da 3e3e c8b2 be3d
00000010: 8569 c93e 7426 5abd 5ce6 bbbd f30b 683e
00000020: 59ed 513d 2c46 78be 90a0 c8bc 4169 9e3a
00000030: 2810 9f3e 5892 febc 4e5b 533e a028 a43c
00000040: f8ad eebd 3c19 08be 2007 ccbd 267f 09be
00000050: 0817 08bd e0a8 513d 0089 afbb e0ed 3cbd
00000060: 3a26 4e3e 4098 123e 3067 d53d aa54 49be
00000070: 021a 1c3e 1ccf b33d 0051 e6ba be44 55be
00000080: 8cef 13be 9a20 133e 781e 4abe 58dd 7a3d
00000090: 6477 37be 88fc 383d 50b7 413e 801a 5e3c
000000a0: f024 ec3d 78fd bf3d 8476 96bd 2a7b 65be
000000b0: f03a 95bc 0074 f8bc c4ef 6bbe 8099 d6bc
000000c0: 1019 883c 671c 0d3e b8d6 afbb 7896 6bbe
000000d0: 3b79 523e 9dd4 a5bd 60cb f2bc 359c fa3d
000000e0: a4fc 53be 6ada 483e a409 0abe e988 b83d
000000f0: 03cf 02be 0409 aa3d 9c44 24be e095 2f3d
00000100: 3001 ab3c 8cd7 b5bd 8086 073e 94e4 683e
00000110: c668 7bbe 407c 62bc 4059 603c 0099 98ba
00000120: 5038 433d 024a 1dbe 90a2 17bd b83f 74be
00000130: 981e 3bbe 147d c5bd 70a3 edbc 3466 3c3e
00000140: 7226 513e 806b 90bd 3aaa 06be f67d 303e
00000150: 4ca1 7abe 00b0 0ebb 0007 013b 40b9 babc
00000160: c04d 243d 50ac 943d 502b c23c 74b0 c93d
00000170: 2ce0 67be 14d5 fdbd 988c 0abd 78e7 3dbe
00000180: e00d 0c3c c4ed 19be 3ae1 48be d4c5 60be
00000190: a04e 8a3d a41f 1c3e bc88 f53d 5805 583e
000001a0: fc68 873d a433 e9bd 48ca 673e ccfa 1cbe
000001b0: 609a 323d 343a 12be 8cd5 143e 16eb 553e
000001c0: 968a 1c3e 9edb e2bd 4b46 b7be 6031 e6bc
000001d0: 2e2e 18be 2e5d 713e d82e 0f3e 9eaf 743e
000001e0: b089 813d 5648 1cbe d80e 973d 503c be3c
000001f0: c0dc 0abc 6cdb 04bd dc93 c9be 6570 85be
00000200: 546e 673e 9427 8bbd d898 bf3d b417 3f3e
00000210: f04d 23bd 3ca6 133e 186f 52be b465 9e3d
00000220: a0fa 05bd a0e6 ce3c 901c 9f3d e6bc 253e
00000230: 1282 393e 0259 67be b482 65be 30e8 1f3e
00000240: cced 6c3e a012 d6bc 2cd0 43be f8bd 5e3d
00000250: 683b 493e 0c11 bfbd 5400 84bd a452 55be
00000260: d00e ddbd a4a6 733e b2cf 703e 8a86 323e
00000270: 6c65 7ebe c076 273c 403e cf3b a098 45bc
00000280: c45a a03d 085a c2be ea11 dcbd b4d8 a5bd
00000290: 34c1 8fbd 30bc fabd 840e 34be fed8 123e
000002a0: 4abe 10be f07c 3d3d 3d03 7bbe 2030 9dbd
000002b0: 0400 81be d89e 543e 2370 a8be ccc1 eebd
000002c0: d001 ecbc 8bb0 4e3e f0bb a13d ea73 1ebe
000002d0: ce98 69be ba27 19be 78d4 ffbd e8a3 e6bd
000002e0: e77a d2bd ecf5 8f3e acf3 ab3e 351d b0bd
000002f0: 01c3 d0bd 0601 92be 9f0c 05bd 0627 ddbe
00000300: 0027 dbbb 0c25 3cbe e6b8 1abe 606b d73d
00000310: e2c0 60be 30a9 d8bd 1442 5fbe e255 7abe
00000320: f8b7 033e 9a1a 3e3e eaba 263e e6f6 62be
00000330: d816 26be 2e73 423e 4cca 683e fcf6 88bd
00000340: b02b c23c 6abf 11be 4c86 c9be 568e 12be
00000350: 044e 90bd e0e3 4abc ec42 c73d b0ad 473e
00000360: 109e 053e 7bb6 4ebe 92a8 91bd a840 1f3d
00000370: d825 a23c 9e34 1d3e 503c ebbc c05e 8fbb
00000380: a472 39be 0195 0f3f f0d7 033f 6886 3dbd
00000390: c27e 253f 7146 b8bb 4c88 193e 66a8 f63d
000003a0: a86a 013e b4e2 04bd a053 303e 249a 673c
000003b0: 7457 223f 7802 803e cfe2 093f 6f42 073e
000003c0: 2882 393d 6b9f 6c3e c489 e03e 38eb 1f3d
000003d0: 7a68 6e3e 72a2 3d3e 08a9 38be 4134 99bc
000003e0: 0d33 f2bc b7b9 a63e 8ce0 ac3d 50ef 4dbe
000003f0: 72e7 ba3e 7cd5 22bd 046a 1e3f 3ad6 e63d

bias f4 [32]
0.12882741 -0.19345647 -0.042852223 -0.0947688 0.045514464 0.08230713 -0.16665167 -0.19925404
-0.1475859 0.05891463 -0.23042041 0.13754962 -0.019598186 -0.070724815 0.3416246 0.37652948
0.21457651 -0.047464028 -0.067117825 -0.008971721 -0.19377977 0.09835574 -0.36671573 0.5405964
0.51042956 -0.07371588 -0.09530619 0.38923228 0.53220093 -0.24979237 -0.00872305 0.4458377
00000000: 55eb 033e 7419 46be d085 2fbd 2516 c2bd
00000010: 606d 3a3d a490 a83d bca6 2abe 4009 4cbe
00000020: c220 17be 7850 713d 54f3 6bbe cfd9 0c3e
00000030: 608c a0bc 2cd8 90bd 6be9 ae3e 79c8 c03e
00000040: f2b9 5b3e a469 42bd 1275 89bd 20fe 12bc
00000050: 346e 46be bc6e c93d 2ac2 bbbe 8764 0a3f
00000060: 83ab 023f 5af8 96bd e42f c3bd 7449 c73e
00000070: 523e 083f 92c9 7fbe 20eb 0ebc d744 e43e

weight f4 [16, 32]
0.2414328 0.08367236 -0.03258677 -0.041310497 0.09600605 -0.085376196 0.016518548 0.1336628
0.057476208 -0.17206742 0.37339795 0.23161086 -0.104658276 0.07803884 0.37210506 0.5768185
-0.17018524 0.032946497 0.25177026 0.30724603 -0.08935233 -0.10113964 0.3444978 0.50570345
0.23920931 0.044657364 0.08255775 0.43462938 0.42611736 0.041775078 -0.14110795 0.46254057
-0.1431558 0.06398277 0.15002461 0.006714821 -0.14840513 -0.10950936 0.064599186 -0.14713958
0.13633482 -0.020596087 -0.16730314 -0.19836663 0.094164774 -0.042729884 -0.32353374 -0.15693939
-0.10380606 -0.29269746 -0.23020738 -0.28518865 0.101134405 -0.13199814 -0.12385668 -0.059991047
-0.20904733 -0.14556049 -0.1543132 -0.18031366 -0.30604762 0.11213885 -0.07571962 -0.23448753
0.29425338 -0.067030534 0.16160457 -0.15291378 0.0067882985 0.013610244 -0.07962777 0.3579102
0.12151562 -0.16746278 0.014901772 0.12434187 0.12813045 -0.117166236 0.124597766 0.03177287
0.17599528 0.043703064 0.034546718 -0.0141367465 -0.14408103 0.14671673 0.034118146 0.34917453
0.2172707 0.17524306 0.016634777 0.37356704 0.1997688 -0.011901572 0.037135944 0.30769566
-0.052304722 0.15620114 -0.007142812 -0.14738187 0.102809235 -0.14644794 0.1616358 0.053428397
0.08754246 0.105303064 -0.111670434 -0.07143845 0.09499742 -0.164552 -0.005035326 -0.021185413
-0.026631266 0.10224305 -0.14456902 0.030802265 -0.03889495 0.047136933 0.086891815 0.00045980513
-0.07502067 -0.17237425 -0.08927948 -0.16148297 0.035489753 -0.030061468 0.07294305 0.11528222
0.36077863 0.059333757 -0.14269935 -0.030748319 0.08124195 0.16334297 -0.049052626 0.328178
-0.016952172 -0.17303078 0.09255941 0.2809837 0.0627193 0.007335812 0.06570781 0.10785694
0.1528938 0.07170001 -0.14815374 0.027541682 -0.108182445 0.06536569 -0.016984046 0.117405005
0.3704974 0.15256305 -0.0510384 0.27974105 0.31344497 -0.054597236 -0.082222976 0.29707012
0.040123552 0.15845422 -0.08561709 -0.0013458133 0.12657936 0.099555984 0.12501578 0.15219866
-0.13426784 -0.16779248 -0.15507708 -0.3330613 -0.018958703 -0.18016008 -0.22266312 -0.13733383
0.10178633 -0.17815974 -0.30189264 -0.26006997 -0.14114413 0.10861553 -0.07084164 -0.29667655
-0.36265895 -0.22027233 -0.101108454 -0.20106421 -0.19705682 0.067697704 0.073405996 -0.20590894
0.32930914 -0.10558249 -0.16908485 0.1113694 -0.06991287 -0.13917503 -0.12714806 0.15360677
-0.0951809 0.06725697 -0.105959855 0.21566841 -0.04643546 -0.06278637 0.09163818 0.1467135
0.14348318 -0.15541828 -0.109409526 -0.002471134 -0.12772503 0.12582283 -0.10367819 0.37136823
0.18079135 -0.014420927 -0.07756516 0.050421596 0.3080839 -0.078066796 0.17391185 0.32615864
0.13420455 -0.033210576 -0.06195414 0.09258233 0.048738807 0.155095 0.08757685 -0.15025792
0.008186579 -0.090436704 -0.034257323 0.09404118 -0.12630205 -0.099627204 -0.16835248 -0.0909419
-0.14668892 -0.15375042 -0.15426016 -0.067457125 -0.15641603 0.11162646 0.02516374 -0.04919292
-0.052990302 -0.047167584 -0.11492963 -0.013621867 0.04407136 0.0024778396 -0.098788716 0.16502295
00000000: 293a 773e 6a5c ab3d b479 05bd 3235 29bd
00000010: d29e c43d b7d9 aebd e851 873c e7de 083e
00000020: 2c6c 6b3d 7132 30be 042e bf3e 662b 6d3e
00000030: 1457 d6bd d4d2 9f3d 8e84 be3e 61aa 133f
00000040: 0a45 2ebe e8f2 063d 08e8 803e 5a4f 9d3e
00000050: 5bfe b6bd 4d22 cfbd 0462 b03e c875 013f
00000060: 49f3 743e a4ea 363d 0a14 a93d be87 de3e
00000070: 0e2c da3e 581c 2b3d 9a7e 10be 1ed2 ec3e
00000080: 6f97 12be 6609 833d 0da0 193e 0008 dc3b
00000090: 84f7 17be 7146 e0bd 944c 843d c2ab 16be
000000a0: 5b9b 0b3e 20b9 a8bc 8451 2bbe 9f20 4bbe
000000b0: 76d9 c03d 8805 2fbd 37a6 a5be b8b4 20be
000000c0: 4698 d4bd 71dc 95be 7cbb 6bbe 3f04 92be
000000d0: 8e1f cf3d 852a 07be 92a8 fdbd 2cb9 75bd
000000e0: 8110 56be cf0d 15be 4804 1ebe 25a4 38be
000000f0: 46b2 9cbe 0ea9 e53d e312 9bbd 801d 70be
00000100: 61a8 963e 4e47 89bd ab7b 253e 6e95 1cbe
00000110: 6070 de3b 80fd 5e3c e213 a3bd 0140 b73e
00000120: 2edd f83d 5d7b 2bbe 9026 743c f3a6 fe3d
00000130: a134 033e daf4 efbd 1d2d ff3d 4524 023d
00000140: 1b38 343e fc01 333d dc80 0d3d d09d 67bc
00000150: fa89 13be e93c 163e 78bf 0b3d 01c7 b23e
00000160: 367c 5e3e eb72 333e a845 883c 2e44 bf3e
00000170: 3190 4c3e d0fe 42bc dc1b 183d 498a 9d3e
00000180: 7a3d 56bd 31f3 1f3e 400e eabb 46eb 16be
00000190: a68d d23d 73f6 15be db83 253e bcd7 5a3d
000001a0: 7649 b33d 22a9 d73d 78b3 e4bd 524e 92bd
000001b0: 028e c23d 5280 28be 60ff a4bb 088d adbc
000001c0: d029 dabc ce64 d13d e709 14be 0855 fc3c
000001d0: 5050 1fbd a812 413d 56f4 b13d 0012 f139
000001e0: 70a4 99bd e082 30be 29d8 b6bd cb5b 25be
000001f0: b45d 113d 7843 f6bc 2a63 953d 1619 ec3d
00000200: fab7 b83e f407 733d c71f 12be e6e3 fbbc
00000210: 2e62 a63d 6143 273e 68eb 48bd f206 a83e
00000220: 48df 8abc fb2e 31be ca8f bd3d 18dd 8f3e
00000230: fa72 803d 4061 f03b d191 863d 19e4 dc3d
00000240: 3190 1c3e 74d7 923d 9db5 17be 189f e13c
00000250: c28e ddbd 72de 853d 2022 8bbc 0972 f03d
00000260: d6b1 bd3e 7d39 1c3e a40d 51bd 383a 8f3e
00000270: dc7b a03e 5aa1 5fbd 8564 a8bd 9319 983e
00000280: 9858 243d d341 223e 0358 afbd 0066 b0ba
00000290: 059e 013e 02e4 cb3d 2304 003e f7d9 1b3e
000002a0: 827d 09be cbd1 2bbe 87cc 1ebe 0387 aabe
000002b0: 484f 9bbc e27b 38be cd01 64be 3da1 0cbe
000002c0: 5a75 d03d 826f 36be ac91 9abe e427 85be
000002d0: 1688 10be d271 de3d 6c15 91bd fde5 97be
000002e0: 6fae b9be 128f 61be f311 cfbd c7e3 4dbe
000002f0: 43c9 49be 18a5 8a3d e255 963d cbd9 52be
00000300: 359b a83e a23b d8bd 9424 2dbe a415 e43d
00000310: 7b2e 8fbd e683 0ebe 1a33 02be 184b 1d3e
00000320: 34ee c2bd 06be 893d 7b01 d9bd 2ed8 5c3e
00000330: 1c33 3ebd 2496 80bd ccac bb3d 103c 163e
00000340: 41ed 123e f825 1fbe 1a12 e0bd c0f2 21bb
00000350: 5aca 02be b3d7 003e 3b55 d4bd fa23 be3e
00000360: 5e21 393e c045 6cbc 7cda 9ebd e086 4e3d
00000370: 2cbd 9d3e 7ce1 9fbd f315 323e 44fe a63e
00000380: eb6c 093e d007 08bd a0c3 7dbd ce9b bd3d
00000390: 58a2 473d 39d1 1e3e 7e5b b33d 36dd 19be
000003a0: 0021 063c e136 b9bd 6851 0cbd aa98 c03d
000003b0: 5355 01be 5909 ccbd 9864 2cbe bf3f babd
000003c0: 9f35 16be c070 1dbe 60f6 1dbe f626 8abd
000003d0: 862b 20be 6a9c e43d 3024 ce3c 847e 49bd
000003e0: 5c0c 59bd cc32 41bd 3a60 ebbd 402e 5fbc
000003f0: 2c84 343d 4063 223b bd51 cabd c7fb 283e

bias f4 [16]
0.50508463 -0.049052313 0.02883098 -0.062733814 0.029220114 -0.10909866 0.17075753 -0.041734695
-0.10010779 -0.037181884 -0.15964842 -0.14795111 0.06658331 -0.36157304 -0.013886347 -0.13953927
00000000: 3a4d 013f 14eb 48bd f32e ec3c 967a 80bd
00000010: 055f ef3c 1e6f dfbd 10db 2e3e 00f2 2abd
00000020: 5005 cdbd 084c 18bd e07a 23be 7f80 17be
00000030: d55c 883d 1a20 b9be 9083 63bc 62e3 0ebe

weight f4 [2, 16]
-0.21595526 -0.16513124 -0.25448695 0.11747074 -0.41396055 -0.005564183 -0.392558 -0.24891856
-0.052554622 -0.12657699 -0.19872667 -0.19854343 -0.29095563 -0.12103753 -0.14640135 -0.22231556
0.60595584 0.14695826 0.32615507 0.1146349 0.07279976 0.19528043 0.23119469 -0.13532004
-0.011549607 0.24295077 0.12494065 -0.017707407 0.36209226 0.12561701 0.05957365 0.044555023
00000000: 6023 5dbe 2a18 29be 1d4c 82be 8094 f03d
00000010: a3f2 d3be c053 b6bb 5dfd c8be 82e4 7ebe
00000020: 8443 57bd 669d 01be 017f 4bbe f84e 4bbe
00000030: 23f8 94be 86e2 f7bd 3cea 15be b1a6 63be
00000040: ec1f 1b3f 3a7c 163e ccfd a63e b4c5 ea3d
00000050: 0a18 953d 98f7 473e 4dbe 6c3e 5691 0abe
00000060: 903a 3dbc 16c8 783e e2e0 ff3d 200f 91bc
00000070: 2864 b93e bfa1 003e 8003 743d 547f 363d

bias f4 [2]
-0.2538493 0.452515
00000000: 89f8 81be 0cb0 e73e
