aggregated_results/Something/live/Something_live_ttt_1.pt (torch, 12260 bytes, 8 tensors)

weight f4 [16, 36]
0	0x3db496a2	0.088177934
1	0xbda9eab6	-0.08296721
2	0x3e113679	0.14180936
3	0xbdb202d3	-0.08691945
4	0xbafde480	-0.0019370466
5	0x3d510e94	0.051039293
6	0xbd133204	-0.03593637
7	0xbe05f91c	-0.13083309
8	0xbddaa983	-0.10676863
9	0x3e14059b	0.14455263
10	0x3d364854	0.04450257
11	0x3b331000	0.002732277
12	0x3d044d40	0.032300234
13	0xbdccf736	-0.10008089
14	0xbd5e2cd0	-0.054241955
15	0xbcb3ed18	-0.021963641
16	0xb9831200	-0.00024999678
17	0x3e13e36d	0.14442225
18	0xbd4b6c1c	-0.049663648
19	0xbbf87160	-0.0075818747
20	0x3d7649bc	0.060128912
21	0x3d24c914	0.040230826
22	0x3dfef636	0.12449305
23	0xbdd0a006	-0.10186772
24	0x3dce1afe	0.10063742
25	0xbce1e4f8	-0.027575001
26	0xbcbe50f8	-0.023231968
27	0x3dc1c7c6	0.09461932
28	0xbd85297e	-0.06502055
29	0x3c6b8580	0.014375091
30	0xbcf723e0	-0.030168474
31	0xbd4da8d0	-0.05020982
32	0xbe186978	-0.14883983
33	0xbb259b40	-0.0025269538
34	0x3c3ed340	0.011647046
35	0xbe02ee6e	-0.12786266
36	0xbcb1bd80	-0.021696806
37	0xbd9dd22e	-0.07706104
38	0xbcdb31e8	-0.026757196
39	0x3d90db06	0.070730254
40	0x3e106cbd	0.1410398
41	0xbbcc2620	-0.006230131
42	0x3cafd4f8	0.021463856
43	0xbab85200	-0.0014062524
44	0x3dce894a	0.100847796
45	0x3dd38aa6	0.103291795
46	0x3d016560	0.03159082
47	0x3e17e48d	0.14833279
48	0x3bbd7180	0.0057813525
49	0x3e20f0e9	0.157169
50	0x3e1e48f5	0.15457518
51	0xbd0505fc	-0.03247641
52	0x3e000899	0.1250328
53	0x3e0a2e05	0.13494118
54	0x3db13c7e	0.08654116
55	0xbd9abd4b	-0.07555636
56	0x3ddec8ea	0.10878165
57	0xbe101bc7	-0.14073096
58	0xbc4119f0	-0.011785969
59	0x3d813696	0.063092396
60	0x3c29c0f0	0.010360941
61	0xbd806adb	-0.06270381
62	0xbd66e4f6	-0.056370698
63	0xbd82e296	-0.06390874
64	0x3e019e09	0.12657942
65	0xbcc1a188	-0.023636594
66	0xbd87dbe6	-0.06633739
67	0xbe195acb	-0.14976041
68	0x3e096cf7	0.13420473
69	0x3c4a6f80	0.012355685
70	0xbdcb7b36	-0.0993561
71	0x3e0489a5	0.12943132
72	0x3e00508f	0.1253073
73	0xbe0b2754	-0.13589221
74	0x3e21b2d1	0.1579087
75	0x3df441a6	0.11926584
76	0x3d4ffe8c	0.050779864
77	0xbd29733c	-0.04136966
78	0x3d474d5c	0.04865776
79	0xbe274523	-0.16334967
80	0x3e04d3cf	0.12971424
81	0x3d7cb8fc	0.061699852
82	0x3dc2833a	0.09497686
83	0xbdbb8e56	-0.09158008
84	0x39abc000	0.00032758713
85	0x3db06402	0.08612825
86	0x3c3f5e30	0.011680171
87	0xbd68c6c6	-0.05683019
88	0xbc5b1740	-0.013372242
89	0xbdb47318	-0.08811015
90	0xbc7a6d70	-0.015284881
91	0x3d975de2	0.073909536
92	0xbe0ee768	-0.13955462
93	0xbe218eec	-0.15777177
94	0xbdcbb453	-0.099465035
95	0xbdca82d6	-0.09888236
96	0xbd98c1cb	-0.07458838
97	0xbdfac350	-0.12244284
98	0x3dda17be	0.1064906
99	0xbd23b814	-0.039970472
100	0xbe0da31b	-0.13831751
101	0x3ddc3762	0.10752751
102	0xbdfb553b	-0.12272116
103	0x3da52e96	0.08065526
104	0xbd98b21b	-0.07455846
105	0xbe14bf24	-0.1452604
106	0x3df98f2a	0.121855095
107	0xbe28d8a2	-0.16488889
108	0x3d1e6a94	0.03867586
109	0xbdb9c453	-0.09070649
110	0x3c8e1fb8	0.017349109
111	0xbe1478f2	-0.14499262
112	0x3cd00628	0.02539356
113	0xbcbe5278	-0.023232684
114	0xbd4c32a6	-0.04985299
115	0xbde06738	-0.109571874
116	0xbcd85c78	-0.02641128
117	0x3deeeb1e	0.11665939
118	0x3d65bde0	0.056089282
119	0x3d7eef6c	0.06224005
120	0xbd8d90d6	-0.06912391
121	0x3daf304a	0.08554132
122	0xbd9b56e0	-0.075849295
123	0xbdab183e	-0.08354233
124	0x3e245ff5	0.1605223
125	0x3dc1ba3e	0.09459351
126	0x3dcf1ac2	0.101125255
127	0x3dc20242	0.09473087
128	0x3e14eafb	0.14542763
129	0x3d59dfa4	0.053191796
130	0xbdc2324e	-0.09482251
131	0xbdc05e68	-0.093930066
132	0x3def8842	0.11695911
133	0x3da57768	0.080794156
134	0xbdc37293	-0.09543338
135	0x3df6d1c2	0.12051727
136	0x3d4eea30	0.050516307
137	0x3d5ef950	0.05443698
138	0xbdcd4d63	-0.10024526
139	0xbd35c8f0	-0.044381082
140	0xbdc1a443	-0.094551586
141	0xbb6edc40	-0.0036447197
142	0xbe034812	-0.12820461
143	0x3c94b920	0.01815468
144	0x3d9f8700	0.07789421
145	0xbdfd3be6	-0.1236494
146	0x3ccbb538	0.024866685
147	0x3de12f92	0.109954014
148	0x3e1767ad	0.14785643
149	0x3e0dd765	0.13851698
150	0xbe16a91a	-0.14712945
151	0x3dac6776	0.08418171
152	0x3e16f2dd	0.14741082
153	0xbe154506	-0.14577112
154	0x3c9d8998	0.019230649
155	0xbc97a620	-0.018511832
156	0xbde86af6	-0.11348526
157	0xbe1e989a	-0.154879
158	0x3dc7f122	0.09762789
159	0x3e24fd69	0.16112293
160	0x3e13b58f	0.14424728
161	0xbd005b24	-0.03133692
162	0x3d51cfb4	0.05122347
163	0xbe1df5aa	-0.15425745
164	0x3da7f75a	0.082014754
165	0x3d46c09c	0.04852353
166	0xbd8db31e	-0.069189295
167	0x3e230d1d	0.15922971
168	0x3e24dd37	0.16100012
169	0xbadd5080	-0.0016884953
170	0xbdb402d3	-0.08789601
171	0xbd9ae90e	-0.07563983
172	0xbe03e9da	-0.12882176
173	0x3c7f30c0	0.015575588
174	0xbe116640	-0.14199162
175	0xbd3e76e0	-0.046500087
176	0x3e087257	0.13324867
177	0x3e20d7f5	0.15707381
178	0x3ba51aa0	0.0050385743
179	0xbe271446	-0.16316327
180	0xbd8be7b0	-0.068313
181	0xbc9d7000	-0.019218445
182	0xbc83c858	-0.016086742
183	0xbd94fd2b	-0.072748505
184	0x3de968a2	0.1139691
185	0xbe237783	-0.15963559
186	0xbe105e10	-0.14098382
187	0x3cb5f118	0.022209689
188	0x3dbc418e	0.09192191
189	0x3e07d2d5	0.1326402
190	0x3d99b740	0.07505655
191	0x3d3f41a4	0.04669346
192	0xbd8afbb6	-0.06786291
193	0xbda613d0	-0.08109248
194	0xbe285b1a	-0.16441002
195	0xbdba26e3	-0.09089448
196	0xbdfbc2d3	-0.12293019
197	0xbe158bef	-0.14604162
198	0xbe00c918	-0.12576711
199	0x3d091e50	0.033476174
200	0xbdf7900b	-0.12088021
201	0x3e29c983	0.16580777
202	0xbc877578	-0.016535506
203	0xbcd59658	-0.026072666
204	0xbdfae500	-0.122507095
205	0xbd9c9cd6	-0.076471016
206	0xbdc6b84e	-0.09703122
207	0x3e0bdd91	0.1365874
208	0x3a692300	0.000889346
209	0xbcf00df8	-0.029303536
210	0x3cada708	0.02119781
211	0x3c96a5d8	0.018389627
212	0x3d38718c	0.04503016
213	0x3e2a0d65	0.16606672
214	0x3cbc6900	0.022999287
215	0x3c98cd40	0.018652558
216	0xbcb85258	-0.022500202
217	0x3d163c1c	0.03667842
218	0xbdc70b7b	-0.097189866
219	0x3ddc0c7a	0.10744567
220	0x3b08c840	0.0020871311
221	0xbd0855e0	-0.03328502
222	0x3e1671c9	0.14691843
223	0xbd4cc106	-0.04998877
224	0x3dc5b96a	0.096545056
225	0xbc20c830	-0.009813353
226	0xbd2a41ac	-0.041566536
227	0x3d1ab6d4	0.037772015
228	0x3dca0cca	0.098657206
229	0x3dfd5262	0.12369229
230	0xbdeb1d8b	-0.11480244
231	0x3e11d4a3	0.1424127
232	0x3e27eb0b	0.16398256
233	0xbdf0f5d0	-0.11765635
234	0x3c1a6280	0.009422898
235	0x3db8e4aa	0.09027989
236	0x3e06d9bf	0.13169001
237	0xbdb5a860	-0.088700056
238	0x3dd5bfb2	0.104369536
239	0x3d5658ec	0.052330896
240	0x3e01a5d5	0.12660916
241	0x3e23198f	0.15927719
242	0xbc429f10	-0.011878744
243	0xbd87e7f0	-0.066360354
244	0xbe1b5748	-0.15170014
245	0xbdfc0340	-0.123053074
246	0x3dcfd53a	0.101480916
247	0xbd882346	-0.06647353
248	0x3ded47aa	0.115859345
249	0xb99b2000	-0.00029587746
250	0xbcb56de0	-0.022147119
251	0xbe25c2bc	-0.16187567
252	0x3d132c04	0.03593065
253	0xbdf8b220	-0.1214335
254	0xbe21c3bc	-0.15797323
255	0x3d11db8c	0.035609767

bias f4 [16]
0	0xbdea61b6	-0.11444418
1	0x3e23cedf	0.15996884
2	0x3d843406	0.06455235
3	0x3de3ea66	0.11128692
4	0xbd84ba78	-0.064808786
5	0xbd87ed1b	-0.06637021
6	0xbdb20d68	-0.08693963
7	0xbe15213b	-0.14563458
8	0x3c296e10	0.010341182
9	0xbdc77918	-0.09739894
10	0x3d9e1ba6	0.07720117
11	0x3e088df7	0.13335405
12	0x3e1896a5	0.14901216
13	0x3d735ac4	0.059412733
14	0x3dac36ca	0.08408888
15	0x3d849b92	0.06474985

weight f4 [32, 16]
0	0xbc6771e0	-0.014126271
1	0xbdd02cb8	-0.101647794
2	0x3e4a80e2	0.19775727
3	0xbc799000	-0.015232086
4	0x3e110492	0.141619
5	0x3e17876e	0.14797756
6	0xbba27d00	-0.004958749
7	0xbdefaaf0	-0.117025256
8	0x3e402176	0.18762764
9	0x3db64cc8	0.089013636
10	0x3e1a77d8	0.1508478
11	0x3dc2f5c0	0.09519529
12	0xbdd5cdc4	-0.10439637
13	0xbda4d304	-0.080480605
14	0x3d86c1ac	0.06579909
15	0xbe64da74	-0.22348958
16	0x3e4da512	0.200825
17	0x3de0b750	0.10972464
18	0x3db6d418	0.089271724
19	0xbe51fd6e	-0.20506832
20	0xbcef3640	-0.029200673
21	0x3e1034cc	0.1408264
22	0xbe165fd6	-0.14684996
23	0xbe663d9c	-0.2248444
24	0xbe27c69e	-0.1638436
25	0x3c34f740	0.011045277
26	0x3de2f87c	0.11082551
27	0x3d59b1b0	0.05314797
28	0xbd9b9eec	-0.07598671
29	0x3d3ec838	0.046577662
30	0x3e5e1018	0.21685827
31	0x3e50d6e2	0.20394471
32	0xbe1a50d0	-0.1506989
33	0xbe02b82c	-0.12765568
34	0xbd6889e0	-0.056772113
35	0xbe45b73e	-0.19308183
36	0x3b55b400	0.003260851
37	0xbe2983b2	-0.16554144
38	0x3d521ed8	0.051298946
39	0x3dff9c98	0.1248104
40	0xbe20e35a	-0.15711728
41	0x3d843044	0.064545184
42	0xbe5e04d4	-0.2168153
43	0x3ddf7874	0.109116465
44	0x3db47234	0.08810845
45	0xbd55eff0	-0.052230775
46	0x3e5e09a6	0.21683368
47	0xbdd5fbe0	-0.10448432
48	0x3e673614	0.22579223
49	0xbe36893a	-0.17825785
50	0xbe251b0a	-0.16123596
51	0x3d63b628	0.05559364
52	0xbe337c3e	-0.17527863
53	0x3e09faae	0.13474533
54	0x3d14ff80	0.036376476
55	0x3e1aa5fa	0.15102378
56	0x3e4ec85c	0.20193619
57	0xbcf70b40	-0.030156732
58	0xbc2983e0	-0.010346383
59	0x3e0faa9a	0.14029923
60	0x3ddd1a18	0.107959926
61	0xbda3281c	-0.07966635
62	0xbe60d362	-0.21955636
63	0x3d0d1150	0.03444034
64	0x3e222606	0.15834817
65	0x3e59d4e6	0.2127262
66	0x3dc77c30	0.09740484
67	0xbe6f6f3e	-0.2338228
68	0xbcb6e0c0	-0.022323966
69	0x3dc8d774	0.098067194
70	0x3e53bc02	0.20677188
71	0xbe3a9c34	-0.1822365
72	0xbe048d1a	-0.12944451
73	0x3d313fa0	0.04327357
74	0x3c3bff80	0.01147449
75	0xbe3f2148	-0.1866504
76	0xbe0a662a	-0.13515535
77	0xbaf60d00	-0.0018772185
78	0xbe41f570	-0.18941283
79	0xbde34ea4	-0.11098984
80	0xbe20fbb6	-0.1572102
81	0xbd823ddc	-0.06359455
82	0x3e4be2ea	0.1991078
83	0xbe7bdc2c	-0.24595708
84	0xbcb26960	-0.021778762
85	0x3c25ccc0	0.010119617
86	0x3e339e8c	0.1754095
87	0x3df84088	0.12121683
88	0xbda2b398	-0.07944411
89	0x3dd192a8	0.102330506
90	0x3e705bac	0.2347247
91	0xbe1aff12	-0.15136364
92	0xbc989af0	-0.018628567
93	0xbdbc3550	-0.09189856
94	0xbd83ab04	-0.06429103
95	0x3d1f59b8	0.03890392
96	0xbd4ae238	-0.049532145
97	0x3e26397e	0.16232869
98	0xbe643b10	-0.22288156
99	0xbe245f44	-0.16051966
100	0x3df7b1cc	0.12094459
101	0x3d2c84a8	0.0421187
102	0x3c58f460	0.013241857
103	0xbe5c2c48	-0.21501267
104	0xbe3c967e	-0.18416783
105	0x3e6a4260	0.22876883
106	0x3d6472d8	0.055773586
107	0xbd516600	-0.051122665
108	0x3e3f0f70	0.18658233
109	0x3dcfecc8	0.10152584
110	0xbcb8e140	-0.022568345
111	0xbdfab9ec	-0.12242493
112	0xbe775d1e	-0.24156615
113	0x3e23c120	0.1599164
114	0x3e5264d6	0.20546278
115	0x3e41a0c6	0.18908986
116	0xbbb89700	-0.005633235
117	0xbe08a5aa	-0.13344446
118	0xbdfa6a64	-0.12227324
119	0x3e43e1e8	0.19129145
120	0x3de9f3e0	0.114234686
121	0x3e450c8e	0.1924307
122	0x3e6997ec	0.2281186
123	0xbe566b22	-0.20939305
124	0x3ae75a00	0.0017650723
125	0xbd66c818	-0.056343168
126	0xbdc2f888	-0.0952006
127	0x3e47cfc6	0.19512853
128	0xbdfa5b88	-0.122244895
129	0xbe740bae	-0.2383258
130	0x3dd2f47c	0.10300538
131	0x3e785a3e	0.24253175
132	0x3e17bad6	0.14817366
133	0x3da442b8	0.08020538
134	0xbe7a60ea	-0.24451032
135	0xbe639b0c	-0.22227114
136	0xbd833a8c	-0.06407651
137	0x3dc12b8c	0.09432134
138	0xbcf862c0	-0.030320525
139	0x3d2ce6b8	0.042212218
140	0xbdf280d8	-0.11840981
141	0xbd77be98	-0.0604845
142	0xbe6e3ec0	-0.23266125
143	0x3e07d0ca	0.1326324
144	0x3e084046	0.13305768
145	0xbd5337f8	-0.051567048
146	0xbd238938	-0.039925784
147	0x3d523e20	0.05132878
148	0x3dca15d8	0.098674476
149	0x3e4d8c28	0.20072997
150	0x3de5b718	0.11216563
151	0x3ca6b040	0.020347714
152	0x3d022fe8	0.03178397
153	0xbdb22150	-0.0869776
154	0x3e33983e	0.17538545
155	0xbe6b8666	-0.23000488
156	0xbdb58fa4	-0.08865288
157	0x3e5af372	0.2138193
158	0x3e1ead70	0.15495849
159	0x3d8f0b00	0.0698452
160	0x3da9c20c	0.08288965
161	0xbddf423c	-0.10901305
162	0x3e39381a	0.18087807
163	0xbd2c80d8	-0.042115062
164	0xbe1f0bf4	-0.15531904
165	0xbe342272	-0.17591265
166	0x3e4658e8	0.19369853
167	0x3e55b278	0.20868862
168	0x3e6b4778	0.22976482
169	0x3e01907c	0.12652773
170	0x3bbad480	0.0057016015
171	0x3e4dee0e	0.20110342
172	0x3e7a6226	0.24451503
173	0x3c2b35a0	0.010449797
174	0xbe0452ea	-0.12922254
175	0x3e25a1ac	0.16174954
176	0xbe1d9294	-0.15387946
177	0xbd8ba204	-0.068180114
178	0x3e016182	0.12634853
179	0x3df2b1a4	0.118502885
180	0xbe1f3f02	-0.1555138
181	0x3e63d182	0.2224789
182	0x3e14d1b4	0.1453312
183	0xbe54d21c	-0.20783275
184	0x3e707bdc	0.23484749
185	0xbe699928	-0.2281233
186	0xbd850f30	-0.064970374
187	0x3e3b3930	0.18283534
188	0xbe66369a	-0.22481766
189	0x3e2a60d4	0.166385
190	0x3b2f8b80	0.002678603
191	0x3e4cea22	0.2001119
192	0xb9be3400	-0.00036278367
193	0xbd92c408	-0.07166296
194	0xbe103b32	-0.14085081
195	0x3df64194	0.12024227
196	0xbd973eec	-0.07385048
197	0xbe6ffe2c	-0.23436803
198	0x3e2121a6	0.15735492
199	0xbd609158	-0.05482611
200	0x3db574e0	0.08860183
201	0x3de165a4	0.110057145
202	0x3e577c90	0.2104361
203	0xbe041fee	-0.12902805
204	0xbe70845e	-0.23487994
205	0x3db2b814	0.08726516
206	0xbda5bc24	-0.080925256
207	0x3e0baa02	0.13639072
208	0x3e48be70	0.19603896
209	0xbddd4a64	-0.108052045
210	0xbe0a4cc4	-0.13505846
211	0xbe22480a	-0.15847793
212	0x3e1a3cc8	0.15062249
213	0x3dac5fd8	0.08416718
214	0x3d9ae248	0.07562691
215	0x3c72aca0	0.014811665
216	0x3a972a00	0.0011532903
217	0x3dfdbe20	0.12389779
218	0xbe0b1f30	-0.13586116
219	0xbd973c6c	-0.073845714
220	0xbdefe748	-0.11714035
221	0x3dc34b5c	0.09535858
222	0xbc180f80	-0.009281039
223	0xbe424780	-0.18972588
224	0xbcd05460	-0.025430858
225	0x3e02aab4	0.1276043
226	0xbe008e74	-0.12554342
227	0x3e3c4588	0.18385899
228	0x3df54ba0	0.11977315
229	0x3e51b68c	0.20479792
230	0x3df37554	0.11887613
231	0x3e4c8fb0	0.19976687
232	0x3dc5731c	0.09641096
233	0x3e7dfbb8	0.24803054
234	0xbe2feca2	-0.17180112
235	0x3e3a4492	0.1819022
236	0x3d54c030	0.051941097
237	0xbe06a072	-0.13147143
238	0x3db92454	0.09040132
239	0xbccd1eb0	-0.025039047
240	0x3da8dbd4	0.08245054
241	0xbd6bd418	-0.057575315
242	0xbe03b958	-0.12863672
243	0xbdf6d320	-0.12051988
244	0xbcaafac0	-0.02087152
245	0xbc3de260	-0.011589617
246	0xbdf51e94	-0.11968723
247	0xbe6f546a	-0.23372045
248	0xbdc64da8	-0.096827805
249	0x3e36a622	0.17836812
250	0xbe0c97dc	-0.13729805
251	0xbdc3ea10	-0.09566128
252	0x3e0350e8	0.12823832
253	0xbe0541fc	-0.13013452
254	0xbe1cf1e0	-0.15326643
255	0xbdfece08	-0.12441641

bias f4 [32]
0	0xbe43fc4e	-0.19139215
1	0x3e65406c	0.22387856
2	0x3dbc161c	0.091839045
3	0xbe1cdeb2	-0.15319327
4	0x3e2282fe	0.15870282
5	0xbe0b1872	-0.13583544
6	0x3e58c776	0.21169838
7	0x3d698e00	0.057020187
8	0xbe62c3b2	-0.22144964
9	0xbcb50700	-0.022098064
10	0xbd62f910	-0.055413306
11	0xbd20ad70	-0.039227903
12	0xbda97b34	-0.08275452
13	0x3e44065c	0.19143051
14	0x3df7a530	0.12092054
15	0xbd1269f8	-0.03574559
16	0x3ca38410	0.019960433
17	0xbd13a718	-0.036048025
18	0x3d507890	0.050896227
19	0xbccf5ea0	-0.025313675
20	0x3e14ec08	0.14543164
21	0x3d582110	0.052765906
22	0xbe7f3732	-0.24923399
23	0x3df3a640	0.11896944
24	0xbbbb1c80	-0.0057101846
25	0x3e1eb954	0.15500385
26	0x3db4ffdc	0.08837864
27	0x3e7e8a0c	0.24857348
28	0x3e122b24	0.1427427
29	0x3d0b0768	0.03394261
30	0xbb730c00	-0.003708601
31	0xbe411f3e	-0.18859574

weight f4 [16, 32]
0	0xbe293119	-0.16522636
1	0xbe279c74	-0.16368276
2	0xbe0a5e1f	-0.13512467
3	0x3ddff61e	0.10935615
4	0xbb05fa80	-0.00204435
5	0xbe1aa66d	-0.15102549
6	0xbc82c178	-0.015961394
7	0xbe09eed4	-0.13470012
8	0x3d44f000	0.048080444
9	0x3e1f247b	0.1554126
10	0xbe01f727	-0.12691937
11	0x3e328791	0.17434527
12	0xbd3ffa7c	-0.04686974
13	0xbe13c9a0	-0.14432383
14	0x3e341061	0.17584373
15	0x3d7cc2b4	0.06170912
16	0x3e03bd6b	0.12865226
17	0x3e021c4f	0.12706111
18	0xbe0a7c92	-0.13524082
19	0xbd942e0f	-0.072353475
20	0xbdeebd20	-0.116571665
21	0xbe25f354	-0.16206104
22	0x3d854a66	0.06508331
23	0xbabe1b80	-0.0014504045
24	0x3cf7d1d8	0.030251428
25	0x3c897428	0.01677902
26	0x3e2eb001	0.17059328
27	0xbd1da548	-0.038487703
28	0xbd216314	-0.03940113
29	0x3df3f24a	0.11911447
30	0x3dcd42c2	0.10022499
31	0x3cf50230	0.02990827
32	0xbdadb858	-0.084824264
33	0x3dbf8652	0.093517914
34	0x3d33ff5c	0.0439447
35	0xbd9256ed	-0.07145486
36	0xbe0e4d83	-0.13896756
37	0xbb653400	-0.0034973621
38	0xbe1e095e	-0.15433261
39	0x3e019c61	0.1265731
40	0x3e1a6d11	0.15080668
41	0xbded132f	-0.115759246
42	0x3e1986cb	0.14992826
43	0xbdb42151	-0.08795417
44	0xbd8560f3	-0.06512632
45	0x3e056bf9	0.1302947
46	0xbc9a85a0	-0.018862545
47	0xbd82ec33	-0.06392708
48	0x3e14917f	0.14508627
49	0x3d8738e4	0.06602648
50	0xbd12ad7c	-0.03580998
51	0xbdeef4ab	-0.116677605
52	0x3d931c76	0.07183163
53	0xbd8a81ae	-0.06763016
54	0x3d56ad40	0.052411318
55	0xbdba7741	-0.09104777
56	0xbe25ee73	-0.16204242
57	0xbdec6a62	-0.115437284
58	0xbe0ea038	-0.13928306
59	0xbdb135c0	-0.0865283
60	0x3de0c09a	0.10974236
61	0x3e2dfc75	0.16990836
62	0xbd8f5fae	-0.07000671
63	0x3dc8f1be	0.09811734
64	0xbdf8c7b7	-0.121474676
65	0x3db0ff22	0.08642413
66	0xbe2b0922	-0.16702703
67	0x3c9986a0	0.018740952
68	0x3e1e4f5f	0.15459965
69	0xbdaf00ea	-0.08545096
70	0xbdc85aaa	-0.09782918
71	0x3db0e96e	0.08638273
72	0x3e17618f	0.1478331
73	0x3d936b6a	0.07198222
74	0x3daa649a	0.083199695
75	0x3dd79462	0.10526349
76	0x3cee5e70	0.029097766
77	0xbe17797f	-0.14792441
78	0xbe08241e	-0.13295028
79	0x3ce7e008	0.028305069
80	0xbe2e9bd6	-0.17051634
81	0xbdf208a4	-0.11818054
82	0x3d716024	0.058929577
83	0x3e3364c1	0.17518903
84	0x3d55dc9c	0.052212343
85	0x3e0755eb	0.13216369
86	0x3cfce4c0	0.030870795
87	0x3e0f9367	0.14021073
88	0x3de943c6	0.1138988
89	0x3de3e18e	0.111270055
90	0x3c939a30	0.018017858
91	0xbcc64488	-0.0242026
92	0xbe057a58	-0.13034952
93	0x3db34b2e	0.08754574
94	0xbd8d9730	-0.06913602
95	0x3e21f083	0.15814404
96	0xbdafb970	-0.08580291
97	0xbd8196eb	-0.063276134
98	0x3d141004	0.036148086
99	0xb9b62c00	-0.00034746528
100	0x3aa69180	0.0012708157
101	0xbd2a6a64	-0.04160537
102	0x3dfc777e	0.12327479
103	0x3cda0f90	0.026618749
104	0xbe26b882	-0.16281322
105	0x3bc09920	0.005877629
106	0xbd509644	-0.050924554
107	0x3cf75050	0.030189663
108	0xbde8c994	-0.11366573
109	0xbd5ade52	-0.053434677
110	0xbe0c60db	-0.13708822
111	0xbe0905ca	-0.13381115
112	0xbe3369b0	-0.17520785
113	0xbcedba40	-0.029019475
114	0x3e0aad55	0.13542683
115	0xbd8265f5	-0.06367103
116	0xbe1be9cd	-0.15225907
117	0xbda5d922	-0.080980554
118	0xbdc38a0b	-0.09547814
119	0xbc9b2a88	-0.018941179
120	0xbe28b04b	-0.164735
121	0x3dc1f91e	0.094713435
122	0x3df6b156	0.12045543
123	0xbd8049aa	-0.0626405
124	0xbdb44c8f	-0.08803665
125	0xbe0e4fe7	-0.13897668
126	0xbdd48a35	-0.103779234
127	0x3d411b28	0.04714504
128	0xbdbf005e	-0.09326242
129	0x3e2fc021	0.17163135
130	0xbde75bf0	-0.112968326
131	0xbd2d640c	-0.04233174
132	0x3df7056a	0.120615795
133	0x3d54fec0	0.05200076
134	0x3dab9722	0.08378436
135	0x3d38a1fc	0.045076355
136	0x3e2419f7	0.1602553
137	0x3ca88e70	0.020575732
138	0x3e14b273	0.14521198
139	0xbe239d26	-0.15977916
140	0x3e1accdd	0.15117212
141	0xbe040bbb	-0.128951
142	0x3dfe82de	0.12427305
143	0xbd019070	-0.031631887
144	0x3bf2b900	0.0074073076
145	0x3ddc1d22	0.10747744
146	0x3e0d4967	0.13797532
147	0xbd5289f8	-0.05140111
148	0xbe29de5c	-0.1658873
149	0xbd876548	-0.06611115
150	0xbdc2b27d	-0.095067
151	0xbdf60b8c	-0.12013921
152	0x3c0df820	0.008665115
153	0xbe31bd4b	-0.17357366
154	0xbcce41f8	-0.02517794
155	0xbd0f1fcc	-0.034942433
156	0x3df20cfa	0.11818881
157	0xbc9bd3c0	-0.019021869
158	0xba763900	-0.0009392649
159	0xbd4a97f8	-0.049461335
160	0xbe239873	-0.15976124
161	0xbc86c710	-0.016452342
162	0xbb904400	-0.0044026375
163	0x3df24af2	0.11830701
164	0xbe1c5711	-0.15267588
165	0xbe20ead3	-0.15714578
166	0xbb18b140	-0.0023299009
167	0xbd401bf0	-0.046901643
168	0x3d8536a4	0.065045625
169	0xbda7cd14	-0.081934124
170	0x3dbfda3e	0.09367798
171	0xbdcaca2a	-0.09901841
172	0x3c9e1198	0.019295499
173	0x3d8ee6fa	0.06977649
174	0x3dfe6caa	0.1242307
175	0xbcdbe240	-0.026841283
176	0xbcfc0918	-0.030766055
177	0x3c6b6330	0.01436691
178	0x3dc53cca	0.09630735
179	0xbdad86e6	-0.084729955
180	0xbe17093f	-0.14749621
181	0x3dc9f65a	0.09861441
182	0x3d894a5a	0.067036346
183	0xbd81864b	-0.063244425
184	0x3e2eb65b	0.1706175
185	0xbe147f1f	-0.14501618
186	0x3e1b390b	0.15158479
187	0x3bed57c0	0.0072431266
188	0xbd35f174	-0.04441972
189	0xbda830f8	-0.08212465
190	0xbc631ca0	-0.013861805
191	0x3e039f53	0.12853746
192	0x3c709390	0.014683619
193	0xbc9d3a08	-0.01919271
194	0xbde860f5	-0.11346618
195	0x3e30c319	0.17261924
196	0x3e239e13	0.1597827
197	0xbdad0b1a	-0.08449383
198	0x3e04c1f5	0.12964614
199	0x3e17d2cd	0.14826508
200	0xbe1bb4b2	-0.15205649
201	0x3dc0e66e	0.09418951
202	0x3e1d643b	0.15370266
203	0xbdfb0fd7	-0.122588806
204	0xbd77c616	-0.060491644
205	0x3dda2c72	0.106530085
206	0xbc5a9380	-0.013340831
207	0xbe0d3ca2	-0.13792661
208	0xbd25dc7c	-0.040493473
209	0x3d2b0660	0.041754127
210	0x3c883ec0	0.016631484
211	0x3e211529	0.15730728
212	0x3b42a300	0.0029699206
213	0xbd1924d0	-0.037388623
214	0xbda55bda	-0.0807416
215	0x3cf4e7e0	0.029895723
216	0xbdc5c9a7	-0.09657603
217	0x3d08fc5c	0.033443794
218	0x3dae19a6	0.08500986
219	0x3d8039fe	0.06261061
220	0xbd269ccc	-0.040676877
221	0xbd84d422	-0.064857736
222	0x3d2010c4	0.03907849
223	0xbdad62af	-0.08466088
224	0xbdf22473	-0.118233584
225	0x3c57a430	0.013161704
226	0x3b513400	0.0031921864
227	0xbe066fb7	-0.13128553
228	0xbc7c1230	-0.015385196
229	0xbd040f2c	-0.03224103
230	0x3e30587d	0.17221256
231	0x3da0690e	0.078325376
232	0x3da0563a	0.078289464
233	0xbdea1481	-0.11429692
234	0x3e21bab9	0.15793885
235	0x3e2f031f	0.17091034
236	0x3e2eea2f	0.17081521
237	0x3da2aec6	0.07943492
238	0x3c6aee10	0.014338985
239	0xbde554cf	-0.111978166
240	0x3dfccafe	0.12343405
241	0xba66cc00	-0.0008804202
242	0x3e02d8e3	0.12778048
243	0x3ceee648	0.029162541
244	0xbe126c4f	-0.14299129
245	0x3e204fd5	0.15655454
246	0x3e34e175	0.1766413
247	0xbd2d37ec	-0.04228966
248	0xbe1c34a6	-0.15254459
249	0x3c34e700	0.011041403
250	0xbd4401e4	-0.047853366
251	0xbc679680	-0.014135003
252	0xbcb0a480	-0.021562815
253	0x3e0283ff	0.12745665
254	0x3e172867	0.14761506
255	0x3bfbf0c0	0.0076886117

bias f4 [16]
0	0x3dc4e122	0.09613253
1	0xbd39bfe0	-0.045349002
2	0x3d6d5874	0.057945684
3	0xbe180f7a	-0.14849654
4	0xbdddc8ad	-0.108292915
5	0x3d27c858	0.040962547
6	0xbc253fa0	-0.01008597
7	0xbe284afc	-0.16434854
8	0xbca00928	-0.019535616
9	0x3c8341f8	0.016022667
10	0x3db4ed16	0.08834283
11	0xbe08b68b	-0.13350885
12	0x3d1a50e4	0.0376748
13	0xbd572996	-0.052529894
14	0xbe129647	-0.14315139
15	0x3db5aa0e	0.08870326

weight f4 [2, 16]
0	0x3e58069e	0.21096274
1	0xbce3df30	-0.027816385
2	0x3c028200	0.007965565
3	0x3df265c8	0.118358195
4	0xbd1e31e8	-0.038621813
5	0xbda369f0	-0.0797919
6	0xbd0e2b58	-0.034709305
7	0x3d1295a0	0.035787225
8	0x3e528fd2	0.20562676
9	0xbc5ae160	-0.013359398
10	0xbde5bf98	-0.11218184
11	0xbe29780e	-0.16549703
12	0x3dab6400	0.08368683
13	0x3c551060	0.013004392
14	0x3da3f480	0.08005619
15	0x3e616720	0.22011995
16	0xbcc362c0	-0.023850799
17	0xbdd74354	-0.10510889
18	0x3df029c0	0.11726713
19	0xbe5d9d4a	-0.21642032
20	0x3e46c4a8	0.19410956
21	0xbdbdd23c	-0.09268615
22	0xba7eda00	-0.00097218156
23	0x3e4b60f0	0.19861197
24	0x3dcefc94	0.10106769
25	0x3e133fea	0.1437985
26	0x3e080424	0.1328283
27	0xbe0bdae4	-0.13657719
28	0xbd62fc08	-0.055416137
29	0xbd1a87f8	-0.037727326
30	0x3d6f2a88	0.05839017
31	0xbe25838e	-0.16163465

bias f4 [2]
0	0xbe018a0a	-0.12650314
1	0xbe399f22	-0.1812711
