saved_ttt/Data_TRo/live/TRo_live_ttt_2.pt (torch, 12260 bytes, 8 tensors)

weight f4 [16, 36]
0.010855556 0.06699872 -0.07145654 -0.1367858 -0.15078658 -0.06401627 -0.0043555945 0.07963987
-0.03161873 -0.16093211 0.16021927 -0.143473 0.1467783 0.085990205 0.022087917 -0.028939053
0.0031107515 -0.050376356 0.10866274 -0.121687815 -0.15547329 -0.027023688 0.14112876 0.0024346113
0.030149415 0.15071787 -0.16177115 -0.013692513 0.07661891 0.059376195 0.002893567 -0.16258548
-0.0076274425 -0.1425417 0.011510715 0.1365992 0.13566084 -0.15096991 0.14691432 -0.03735335
-0.0017857999 -0.12864074 -0.12419896 0.052171096 0.018723711 -0.15380268 0.12210493 -0.10784229
-0.081433915 -0.096188486 -0.117026135 -0.043746017 -0.09632473 -0.13723612 0.14387281 0.025409162
0.018263444 0.14274983 -0.078063115 -0.04282868 -0.066545844 0.047922537 0.013172805 0.078961074
0.009146407 0.100112274 0.021458283 0.11733626 0.042136893 -0.09408605 0.07571404 0.14714672
-0.16579875 -0.053805172 -0.108884715 -0.07618185 -0.09873035 -0.012467861 0.010235384 -0.056755684
-0.06705954 -0.13440028 -0.05590316 0.002977848 -0.14082524 -0.004919663 -0.056996725 0.13141628
0.14106388 0.10913439 -0.14234076 -0.05426892 0.116439894 0.030440107 -0.0040394664 -0.06690711
0.1632617 -0.1459736 -0.041948758 -0.11281669 -0.06803795 0.09401162 0.07956703 -0.124160275
0.029945746 0.117315456 -0.13320842 0.12146662 -0.031743392 -0.093799375 -0.10524458 -0.018688738
0.07534568 -0.018341199 0.029975787 -0.06796835 0.12686361 -0.010380328 0.05911368 0.025319144
-0.031788364 -0.11071174 0.09326209 -0.0013110489 -0.12967704 0.079489246 0.09596355 -0.02276975
0.013570681 -0.055409238 0.1195641 0.08404477 0.1101286 -0.12515426 -0.16585216 0.14010985
0.0619819 -0.05420103 -0.08495653 -0.04998958 0.10809089 -0.022093251 0.1249346 0.10347606
-0.012495235 -0.02754052 0.09394951 -0.06568593 -0.010403559 0.14938651 0.071875855 0.11308728
0.062137708 0.15518881 0.006775737 -0.04861643 -0.0068092197 -0.06703846 0.09874125 0.054620847
-0.062592015 -0.028975487 -0.086211964 -0.025571868 -0.098652646 -0.0069217235 -0.066667125 0.0924461
-0.04615017 0.04637994 0.09842269 -0.063836776 -0.09210843 0.0544184 -0.046539053 0.09768982
0.0585621 -0.08018063 -0.007135913 -0.08246213 0.00578703 -0.06458205 -0.12615043 0.06412567
0.02530329 -0.00984323 -0.1348412 -0.112018585 0.15290923 -0.13338566 0.14206384 -0.10185115
0.034366235 -0.09017138 -0.06603961 -0.099966645 -0.01645489 -0.013090074 0.13141201 -0.007848725
-0.076406 0.033040747 -0.113163814 -0.111213684 -0.16238748 0.019341588 0.0019204468 0.09260477
-0.026896656 0.07302703 0.15107925 0.09364818 -0.14053905 -0.111435056 0.013439596 0.028916597
0.15266739 -0.03390138 -0.06643914 -0.1387819 -0.08729826 0.09250958 -0.12181221 -0.007901311
0.12775765 -0.11203699 0.015657231 -0.02190721 -0.05522637 -0.10539874 -0.11457561 -0.04680769
-0.06016682 0.16509055 0.004181266 -0.1207193 -0.1587458 -0.00369291 -0.07584284 0.093865916
0.0035334975 0.0712716 -0.044055663 0.02408795 -0.1391181 0.10711618 0.011564434 -0.14931534
0.11827023 -0.068643674 0.106593445 -0.027111053 -0.09070456 -0.005496323 0.04787463 0.07778895
00000000: 80db 313c a036 893d ce57 92bd 9411 0cbe
00000010: cc67 1abe f61a 83bd 60b9 8ebb 3a1a a33d
00000020: a482 01bd 63cb 24be 8510 243e 96ea 12be
00000030: 0d4d 163e a21b b03d b8f1 b43c 9811 edbc
00000040: c0dd 4b3b 7057 4ebd 928a de3d 7637 f9bd
00000050: 6434 1fbe c860 ddbc 0f84 103e 008e 1f3b
00000060: e8fb f63c c955 1a3e 56a7 25be 9056 60bc
00000070: 60ea 9c3d 7434 733d 00a2 3d3b cf7c 26be
00000080: a0ef f9bb 74f6 11be 7097 3c3c a9e0 0b3e
00000090: adea 0a3e db97 1abe b570 163e d4ff 18bd
000000a0: 8011 eaba 66ba 03be 065c febd 5cb1 553d
000000b0: 7862 993c 737e 1dbe 2612 fa3d 6bdc dcbd
000000c0: d3c6 a6bd 78fe c4bd 66ab efbd 062f 33bd
000000d0: e645 c5bd a087 0cbe 6553 133e e026 d03c
000000e0: 389d 953c 032d 123e 8edf 9fbd 206d 2fbd
000000f0: 3049 88bd 6c4a 443d c0d2 573c 58b6 a13d
00000100: d0da 153c aa07 cd3d 48c9 af3c fe4d f03d
00000110: bc97 2c3d 30b0 c0bd f60f 9b3d a1ad 163e
00000120: 26c7 29be d062 5cbd f3fe debd 3b05 9cbd
00000130: 2333 cabd 0046 4cbc 50b2 273c a678 68bd
00000140: 8356 89bd 3aa0 09be b6fa 64bd 0028 433b
00000150: 7e34 10be 2035 a1bb 6675 69bd fd91 063e
00000160: 0d73 103e da81 df3d c7c1 11be 1649 5ebd
00000170: 0a78 ee3d 885d f93c 805d 84bb 9806 89bd
00000180: 132e 273e 1a7a 15be 76d2 2bbd 700c e7bd
00000190: 7b57 8bbd 2a89 c03d 0af4 a23d be47 febd
000001a0: c850 f53c 1643 f03d ca67 08be 7ec3 f83d
000001b0: 5c05 02bd e319 c0bd 788a d7bd 2019 99bc
000001c0: d64e 9a3d 4840 96bc c88f f53c fe32 8bbd
000001d0: 89e8 013e 4012 2abc 3021 723d 186a cf3c
000001e0: 8434 02bd d6bc e2bd 3200 bf3d 80d7 abba
000001f0: 0fca 04be 42cb a23d 8a88 c43d a087 babc
00000200: 9057 5e3c ccf4 62bd 06de f43d aa1f ac3d
00000210: 1a8b e13d 7028 00be 26d5 29be f578 0f3e
00000220: bce0 7d3d e601 5ebd b0fd adbd e0c1 4cbd
00000230: c25e dd3d e8fc b4bc b6dd ff3d 42eb d33d
00000240: d0b8 4cbc a89c e1bc 9a68 c03d 5886 86bd
00000250: b073 2abc c7f8 183e a633 933d 4e9a e73d
00000260: 1c84 7e3d d1e9 1e3e 0007 de3b 0622 47bd
00000270: e01f dfbb 764b 89bd da38 ca3d 1cba 5f3d
00000280: 3e30 80bd 005e edbc e68f b0bd 187c d1bc
00000290: 660a cabd a0cf e2bb c688 88bd 6254 bd3d
000002a0: f607 3dbd e4f8 3d3d d691 c93d dbbc 82bd
000002b0: 58a3 bcbd d4e5 5e3d bc9f 3ebd 9a11 c83d
000002c0: d0de 6f3d be35 a4bd 60d4 e9bb e8e1 a8bd
000002d0: 20a1 bd3b 9843 84bd 942d 01be 5254 833d
000002e0: d848 cf3c 8045 21bc d013 0abe 006a e5bd
000002f0: 3d94 1c3e 4096 08be 2f79 113e 5697 d0bd
00000300: 9cc3 0c3d c6ab b8bd c63f 87bd 50bb ccbd
00000310: 68cc 86bc c077 56bc df90 063e f097 00bc
00000320: c07a 9cbd bc55 073d 6ec2 e7bd 00c4 e3bd
00000330: e748 26be 4072 9e3c 80b7 fb3a 92a7 bd3d
00000340: 6056 dcbc 328f 953d 85b4 1a3e 9eca bf3d
00000350: 78e9 0fbe 1038 e4bd c031 5c3c 80e2 ec3c
00000360: d754 1c3e 2cdc 0abd 3e11 88bd d81c 0ebe
00000370: 6ec9 b2bd aa75 bd3d ae78 f9bd 8074 01bc
00000380: e7d2 023e a673 e5bd 9843 803c c076 b3bc
00000390: 0c35 62bd 4bdb d7bd 9ea6 eabd 6cb9 3fbd
000003a0: 7c71 76bd 7f0d 293e 0003 893b ae3b f7bd
000003b0: 428e 22be c004 72bb 7e53 9bbd c63c c03d
000003c0: 4092 673b d8f6 913d b673 34bd 1854 c53c
000003d0: fa74 0ebe ba5f db3d c078 3d3c 1fe6 18be
000003e0: aa37 f23d 0e95 8cbd aa4d da3d 0018 debc
000003f0: 50c3 b9bd 801a b4bb 3018 443d d04f 9f3d

bias f4 [16]
-0.11532229 -0.040871397 0.0890715 -0.075305045 0.08754201 -0.11137273 0.04872887 -0.016650423
-0.10809275 -0.14182419 0.048069835 0.16339032 -0.11696242 -0.15507267 0.13038428 0.16637422
00000000: 182e ecbd c468 27bd 1e6b b63d 8839 9abd
00000010: 3a49 b33d 6317 e4bd ec97 473d 7866 88bc
00000020: bb5f ddbd 5c3a 11be e0e4 443d cb4f 273e
00000030: fe89 efbd 5fcb 1ebe 7583 053e 015e 2a3e

weight f4 [32, 16]
0.0984709 -0.15589654 0.017941564 0.18117884 0.16894475 -0.17201203 -0.060590714 0.12559068
-0.21096697 -0.12777784 -0.23635635 0.026497275 0.16120994 -0.009355575 -0.17182973 0.19271192
0.20149639 -0.05144897 -0.09448287 0.069262415 0.19474825 0.019014806 -0.22205776 0.13866174
0.15557596 -0.06942758 -0.060245246 -0.050014675 0.10526499 -0.1399332 0.12957934 0.07001254
0.035044312 0.024191111 -0.24182212 -0.18601924 0.02185738 -0.13426292 0.12871695 -0.103900224
0.14701116 0.075440496 -0.14114353 -0.03733328 -0.24460232 0.041241407 0.046526164 -0.12026504
0.2313557 0.077709734 0.11453709 -0.031765968 -0.18463731 -0.10381091 0.17315844 -0.1915507
0.2266126 0.04013449 -0.05444199 -0.088554144 -0.16308188 -0.08680102 -0.14110667 0.2162975
-0.15135849 -0.13491747 -0.15174955 -0.06438148 0.2482791 -0.24791956 -0.22796828 0.16993445
-0.085848 0.21705762 -0.021563917 -0.02347377 -0.060546428 -0.061715662 0.23096162 -0.23268777
-0.2345868 -0.24820897 -0.17142531 -0.024550796 -0.028876334 -0.22936359 0.07870969 -0.15297547
-0.22583756 -0.10756609 0.021543652 -0.08931193 0.13298193 -0.07169023 0.08918035 -0.11133832
-0.19314617 -0.09676778 -0.076492816 -0.19353843 0.064555556 0.12541899 0.11907002 0.1005584
0.063337356 0.19152007 -0.04244277 0.07260823 -0.10774493 0.11356208 -0.22148252 0.09012398
-0.124176145 0.24410176 0.22402444 0.02032724 -0.1431967 -0.01097852 -0.2399756 -0.22841018
-0.08975339 0.027067244 -0.17301843 -0.18675455 0.062282026 -0.10619074 -0.19231576 -0.11943331
-0.00958851 -0.19260699 0.099674374 -0.19519192 0.23845214 -0.053450614 0.12680233 -0.085009485
-0.21088359 0.22044724 -0.026700526 0.19060141 0.095624626 0.0039202273 0.014122874 -0.24980628
0.19067362 0.16736445 0.22108361 -0.09594369 0.056869656 0.12084857 0.1661112 -0.18264869
-0.05227846 0.1440168 -0.0478459 0.18744704 0.18638647 0.15786618 -0.11230224 0.20292136
-0.1695705 0.1272538 0.17666897 -0.20282176 0.1373803 0.12558758 -0.04047203 0.24345142
-0.12752047 0.24606347 0.040709645 0.005777091 0.19667464 0.053867042 -0.017259538 -0.043301523
0.07798177 0.09658992 0.1872623 -0.24833953 0.007348597 0.017435312 -0.04652801 0.010499299
-0.12179664 -0.21521074 -0.14676851 -0.24242991 -0.0390687 -0.08254984 -0.124623895 -0.06151688
0.13131812 0.1682963 -0.104100585 -0.07625857 -0.18315387 0.11013502 0.19169477 -0.04210797
0.24921238 0.21401584 -0.18337804 0.061237663 0.15679371 -0.039988637 -0.10228291 -0.17466953
0.06516644 0.22827649 -0.09619442 0.038802147 0.17310473 0.102889895 0.2174556 -0.1783221
0.023907721 -0.0806458 -0.2295058 0.035450816 -0.026138067 0.22608739 0.24097699 0.052838653
0.0071456134 0.2373189 -0.17302275 -0.0038301945 0.16087991 -0.24191144 0.03224361 0.2060394
0.14807421 0.1942639 -0.19768745 0.18062761 0.21249083 -0.13631931 -0.13895053 0.20770109
-0.14011285 -0.23281762 0.18160439 -0.2394495 0.22098586 0.17199534 -0.039914787 -0.16328174
0.065004975 0.18418059 -0.18845183 -0.01496318 0.22811127 0.068098396 0.12916613 -0.1008752
00000000: 1cab c93d 58a3 1fbe 30fa 923c f286 393e
00000010: daff 2c3e ec23 30be f82d 78bd d89a 003e
00000020: ba07 58be 32d8 02be 6607 72be d010 d93c
00000030: 3814 253e 2048 19bc 22f4 2fbe 4656 453e
00000040: 1255 4e3e 28bc 52bd 3c80 c1bd 74d9 8d3d
00000050: 166c 473e f0c4 9b3c 1c63 63be 58fd 0d3e
00000060: 4e4f 1f3e 0c30 8ebd b8c3 76bd 30dc 4cbd
00000070: 2c95 d73d a64a 0fbe 72b0 043e bc62 8f3d
00000080: a08a 0f3d 702c c63c 38a0 77be d47b 3ebe
00000090: 400e b33c 387c 09be 60ce 033e a4c9 d4bd
000000a0: 188a 163e 8c80 9a3d ee87 10be c8ea 18bd
000000b0: 0879 7abe c0ec 283d 3892 3e3d 844d f6bd
000000c0: 82e8 6c3e 4826 9f3d 6c92 ea3d 081d 02bd
000000d0: 9011 3dbe d09a d4bd 7250 313e de25 44be
000000e0: 220d 683e 1064 243d 90fe 5ebd e05b b5bd
000000f0: f0fe 26be bcc4 b1bd 447e 10be 187d 5d3e
00000100: b8fd 1abe ce27 0abe 3c64 1bbe 70da 83bd
00000110: e03c 7e3e a0de 7dbe 8470 69be 4c03 2e3e
00000120: 14d1 afbd 5a44 5e3e d0a6 b0bc 104c c0bc
00000130: 88ff 77bd 90c9 7cbd 3481 6c3e b445 6ebe
00000140: 8637 70be 7e2a 7ebe 1e8a 2fbe c01e c9bc
00000150: 108e ecbc 4ade 6abe 8c32 a13d 9aa5 1cbe
00000160: f641 67be 9c4b dcbd 507c b03c 2ce9 b6bd
00000170: 6a2c 083e 54d2 92bd 30a4 b63d 5805 e4bd
00000180: 1cc8 45be 302e c6bd 44a8 9cbd f02e 46be
00000190: b435 843d d66d 003e fcda f33d 90f1 cd3d
000001a0: 04b7 813d d61d 443e 78d8 2dbd a0b3 943d
000001b0: 60a9 dcbd 3c93 e83d 50cc 62be ec92 b83d
000001c0: 1050 febd d0f5 793e aa66 653e 5085 a63c
000001d0: 28a2 12be 40df 33bc 2abc 75be 5ce4 69be
000001e0: a0d0 b7bd 20bc dd3c be2b 31be 963c 3fbe
000001f0: 701b 7f3d 887a d9bd 6cee 44be 7499 f4bd
00000200: 2019 1dbc c43a 45be 1422 cc3d 64e0 47be
00000210: cc2c 743e 08ef 5abd 78d8 013e 7419 aebd
00000220: def1 57be ecbc 613e 10bb dabc 042d 433e
00000230: d8d6 c33d 4075 803b a063 673c 38cd 7fbe
00000240: f23f 433e 9661 2b3e be63 623e 207e c4bd
00000250: 28f0 683d 747f f73d 0e19 2a3e 4208 3bbe
00000260: f021 56bd 2479 133e 10fa 43bd 1ef2 3f3e
00000270: 18dc 3e3e aca7 213e b8fe e5bd 9eca 4f3e
00000280: e4a3 2dbe d24e 023e b6e8 343e 82b0 4fbe
00000290: 6cad 0c3e 089a 003e 00c6 25bd 544b 793e
000002a0: ba94 02be 10f8 7b3e 28bf 263d c04d bd3b
000002b0: 1465 493e b0a3 5c3d e063 8dbc f05c 31bd
000002c0: e8b4 9f3d f0d0 c53d b0c1 3f3e b84c 7ebe
000002d0: 80cc f03b 80d4 8e3c 2894 3ebd 4005 2c3c
000002e0: 8470 f9bd 3460 5cbe 7c4a 16be 8c3f 78be
000002f0: 8006 20bd e40f a9bd d03a ffbd 20f9 7bbd
00000300: 4278 063e de55 2c3e b032 d5bd 742d 9cbd
00000310: b08c 3bbe 788e e13d a24b 443e 6879 2cbd
00000320: 8831 7f3e f826 5b3e 74c7 3bbe 58d4 7a3d
00000330: 888e 203e 20cb 23bd b479 d1bd 92dc 32be
00000340: fc75 853d 50c1 693e 9401 c5bd 00ef 1e3d
00000350: 5e42 313e f0b7 d23d aeac 5e3e 129a 36be
00000360: 20da c33c a029 a5bd 9203 6bbe e034 113d
00000370: 801f d6bc 7483 673e acc2 763e 586d 583d
00000380: c025 ea3b ba03 733e e02c 31be 0004 7bbb
00000390: b4bd 243e a2b7 77be e011 043d fefb 523e
000003a0: c4a0 173e 1eed 463e 946e 4abe 72f6 383e
000003b0: 3297 593e 4a97 0bbe 0c49 0ebe 98af 543e
000003c0: be79 0fbe be67 6ebe 80f6 393e 4032 75be
000003d0: 1e4a 623e 8c1f 303e b07d 23bd 5433 27be
000003e0: 5421 853d d699 3c3e 84f9 40be 2028 75bc
000003f0: 0096 693e 2c77 8b3d 2044 043e a897 cebd

bias f4 [32]
-0.07449117 0.12190929 -0.06691754 0.23746893 0.06574577 0.14977917 -0.13160011 0.06187159
-0.0039620996 0.11978078 -0.02760458 -0.0915826 0.006805122 -0.04399854 -0.23654959 -0.21786126
0.012080461 0.091127366 -0.02285996 0.10058814 -0.09642181 -0.19675997 -0.074433625 0.12407079
0.09221935 -0.021150947 0.24789006 0.19025025 -0.23261556 -0.14979765 0.11743346 -0.11538893
00000000: d48e 98bd 94ab f93d 100c 89bd 0e2b 733e
00000010: b8a5 863d b65f 193e 2ec2 06be 106d 7d3d
00000020: 80d4 81bb a04f f53d 0023 e2bc a88f bbbd
00000030: 80fd de3b d037 34bd 0e3a 72be 0617 5fbe
00000040: 20ed 453c fca0 ba3d d044 bbbc 2801 ce3d
00000050: cc78 c5bd 727b 49be a870 98bd d418 fe3d
00000060: 80dd bc3d c044 adbc e4d6 7d3e f6d0 423e
00000070: c632 6ebe 8e64 19be f480 f03d 0851 ecbd

weight f4 [16, 32]
0.16347368 -0.08409177 -0.14028475 -0.054892898 0.00090430677 -0.14011562 0.1679524 -0.029001161
0.08146228 0.16638575 0.11753924 0.03363608 0.06465797 0.061881125 -0.11592564 0.01787351
-0.08152737 -0.077029794 -0.12895495 -0.15523753 0.01146622 0.16660132 -0.11131602 0.032960758
-0.050944746 0.12721832 0.044190124 0.13346829 -0.051581666 0.060903877 -0.100555465 -0.07531087
0.038895667 0.17660202 -0.13047752 -0.10560057 -0.17081222 0.107003406 -0.12277229 0.1314332
-0.15466213 -0.08278728 -0.058189206 -0.17186381 0.14542507 -0.0037817806 -0.009388611 -0.12052964
-0.11808011 -0.08394196 -0.09514248 0.053866223 0.1464182 0.08066769 -0.14459881 0.10554694
-0.1761356 0.09046607 0.1101708 0.0582287 0.11485751 -0.15138939 -0.11528154 0.008409694
0.082792684 -0.10500912 -0.019010708 -0.05738447 0.04718262 0.099222705 0.033611715 0.020334989
-0.02265644 0.17429642 -0.10349346 0.03428039 -0.11375013 -0.10469418 -0.13988557 0.1517529
0.06719892 0.042158604 0.0056302547 -0.09776073 0.15488665 0.058441415 0.091238394 -0.17232645
-0.08561616 0.078028664 -0.044320136 0.036355063 0.006292656 -0.020143792 0.13626747 0.0962552
0.14701216 0.0685626 -0.055997163 -0.11194723 0.062184975 -0.035398945 -0.14021046 -0.013416812
-0.08472282 -0.047746345 -0.13741419 0.02921991 -0.15543954 -0.015068591 -0.1505771 -0.03940481
-0.11354325 0.09539603 0.06852919 -0.007326305 0.12259884 0.107030556 0.06677148 -0.036894992
-0.08721062 0.07387762 0.0051146 -0.09395458 0.11449422 0.030356988 0.118137434 0.1250406
-0.027131975 0.011400327 -0.13204134 -0.11737712 0.04963325 -0.13726124 0.079450235 -0.16037883
0.046617135 -0.10195548 -0.12597615 0.13044043 -0.10422739 0.14735176 0.15961547 -0.046553254
-0.06350388 0.021440193 0.09495847 -0.12093851 0.048752904 -0.02448462 -0.17391121 -0.02985388
0.02319035 0.12506844 0.014939353 -0.095193125 -0.023929805 0.100742415 -0.003249064 -0.096343815
-0.032232434 -0.0695824 -0.04178454 -0.098906636 -0.05884189 0.08688976 -0.014282793 0.02729626
-0.044675156 0.11788 0.095301196 0.037202135 0.044895366 -0.1623992 -0.16242948 0.020755768
-0.14488046 -0.0051106215 -0.0034253448 -0.010187089 -0.0990763 0.103755936 -0.07258505 -0.16994265
0.17259286 -0.13930461 0.08199398 0.008611694 -0.17145458 0.020791173 0.018978849 -0.004622832
0.08582039 -0.008523464 -0.15862383 0.15080343 0.0812733 0.06745912 -0.055843286 -0.1079476
-0.1548087 -0.08955706 0.029515415 0.0584445 0.0007876605 0.17440005 0.0639388 -0.10591117
-0.06893652 -0.065085836 -0.11662476 0.1339546 -0.06925899 -0.1364078 0.14505492 0.1712297
-0.14191616 0.07875152 0.037807435 -0.1454907 0.017522827 0.013937816 0.13261913 0.08872922
0.017488778 0.028722018 -0.12693632 0.103302374 0.11542748 -0.15284279 0.02695325 0.101583794
0.090562716 0.039434925 -0.10679628 0.006557107 -8.364022e-05 -0.14980954 0.0018011183 -0.13727143
-0.030281156 -0.058063097 0.061558977 0.1283146 -0.100638874 0.1278585 0.09479089 -0.11615412
0.14782698 -0.018259615 0.041833848 -0.059178688 -0.15184265 -0.037976846 -0.041286126 -0.022864416
00000000: a565 273e 4e38 acbd cea6 0fbe 60d7 60bd
00000010: 000f 6d3a 787a 0fbe b7fb 2b3e d893 edbc
00000020: b2d5 a63d 0761 2a3e 6ab8 f03d fcc5 093d
00000030: 666b 843d 1077 7d3d 6c6a edbd 786b 923c
00000040: d2f7 a6bd ccc1 9dbd c40c 04be 96f6 1ebe
00000050: d0dc 3b3c 8999 2a3e a7f9 e3bd dc01 073d
00000060: 70ab 50bd 8545 023e b400 353d e9ab 083e
00000070: 4c47 53bd 5876 793d 06f0 cdbd 963c 9abd
00000080: 1051 1f3d 29d7 343e e69b 05be 1d45 d8bd
00000090: 66e9 2ebe 9a24 db3d 0a70 fbbd 6d96 063e
000000a0: c05f 1ebe 618c a9bd ce57 6ebd 11fd 2fbe
000000b0: 4fea 143e c0d7 77bb b0d2 19bc 3ed8 f6bd
000000c0: fcd3 f1bd c3e9 abbd 10da c2bd d4a2 5c3d
000000d0: a7ee 153e 1a35 a53d b611 14be fe28 d83d
000000e0: e45c 34be 4646 b93d 3aa1 e13d 3881 6e3d
000000f0: 6a3a eb3d d205 1bbe ba18 ecbd d0c8 093c
00000100: 368f a93d 060f d7bd 58bc 9bbc fa0b 6bbd
00000110: 9042 413d 4635 cb3d 70ac 093d 9095 a63c
00000120: 009a b9bc c37a 323e 61f4 d3bd 9869 0c3d
00000130: d4f5 e8bd e769 d6bd 2a3e 0fbe 1d65 1b3e
00000140: 969f 893d 80ae 2c3d 007e b83b c736 c8bd
00000150: 9b9a 1e3e 4460 6f3d 32db ba3d 5876 30be
00000160: 8657 afbd 7ecd 9f3d 0889 35bd 0ce9 143d
00000170: a032 ce3b 9804 a5bc b389 0b3e 7221 c53d
00000180: 5b8a 163e 8c6a 8c3d 485d 65bd 9744 e5bd
00000190: acb5 7e3d 7cfe 10bd 5593 0fbe 30d2 5bbc
000001a0: 2883 adbd ac91 43bd 4eb6 0cbe 985e ef3c
000001b0: 8b2b 1fbe 40e2 76bc e230 1abe f066 21bd
000001c0: 5d89 e8bd fe5e c33d 0859 8c3d 8011 f0bb
000001d0: 1a15 fb3d d632 db3d 7cbf 883d 341f 17bd
000001e0: 7b9b b2bd 264d 973d 6098 a73b 426b c0bd
000001f0: f27b ea3d 38af f83c 0af2 f13d a50a 003e
00000200: e043 debc 70c8 3a3c d835 07be 6a63 f0bd
00000210: 3c4c 4b3d 368e 0cbe ceb6 a23d 593a 24be
00000220: 9cf1 3e3d 09ce d0bd e4ff 00be 2d92 053e
00000230: 2b75 d5bd 61e3 163e 3d72 233e a0ae 3ebd
00000240: 520e 82bd 58a3 af3c 9679 c23d 9cae f7bd
00000250: 20b1 473d f893 c8bc c815 32be 2090 f4bc
00000260: b0f9 bd3c f111 003e 30c4 743c 9df4 c2bd
00000270: 7008 c4bc 0a52 ce3d 40ee 54bb e84f c5bd
00000280: 2806 04bd 3881 8ebd 4426 2bbd 908f cabd
00000290: 3204 71bd 42f3 b13d 6002 6abc 689c df3c
000002a0: 4cfd 36bd 126b f13d 462d c33d 4461 183d
000002b0: 34e4 373d fa4b 26be ea53 26be 0008 aa3c
000002c0: 8b5b 14be 0077 a7bb c07b 60bb c0e7 26bc
000002d0: 84e8 cabd fe7d d43d 78a7 94bd 7205 2ebe
000002e0: 2fbc 303e dea5 0ebe 76ec a73d 1018 0d3c
000002f0: ca91 2fbe 4052 aa3c 8879 9b3c 207b 97bb
00000300: 9ac2 af3d 00a6 0bbc 496e 22be 376c 1a3e
00000310: 9e72 a63d 0228 8a3d eebb 64bd a213 ddbd
00000320: 2c86 1ebe b169 b7bd 50ca f13c 8063 6f3d
00000330: 007b 4e3a ed95 323e 58f2 823d f5e7 d8bd
00000340: 972e 8dbd b94b 85bd f6d8 eebd 652b 093e
00000350: a8d7 8dbd 7cae 0bbe 4789 143e d756 2f3e
00000360: 7852 11be 7a48 a13d f8db 1a3d 84fb 14be
00000370: 088c 8f3c 705b 643c 4fcd 073e aab7 b53d
00000380: a044 8f3c 704a eb3c 98fb 01be 3290 d33d
00000390: 3e65 ec3d d282 1cbe 10cd dc3c 2a0b d03d
000003a0: f278 b93d 8486 213d 02b8 dabd 00dd d63b
000003b0: 0068 afb8 ac67 19be 8013 ec3a e290 0cbe
000003c0: 3010 f8bc 92d3 6dbd 4425 7c3d e764 033e
000003d0: c11b cebd 57ed 023e ba21 c23d 36e2 edbd
000003e0: f55f 173e 3095 95bc f859 2b3d 5a65 72bd
000003f0: a47c 1bbe 9c8d 1bbd a41b 29bd 284e bbbc

bias f4 [16]
0.11243732 0.09411864 -0.067361176 -0.057365865 -0.08100909 0.11156036 0.06383526 0.115188465
-0.11429601 -0.13326177 -0.124623 -0.052722923 0.086465165 0.1552106 0.10041501 0.11609243
00000000: 8a45 e63d 46c1 c03d a8f4 89bd 78f8 6abd
00000010: 18e8 a5bd c279 e43d 10bc 823d eee7 eb3d
00000020: 0714 eabd c675 08be 583a ffbd fef3 57bd
00000030: a614 b13d 87ef 1e3e 62a6 cd3d dec1 ed3d

weight f4 [2, 16]
0.18803006 0.010592401 -0.1445444 -0.020357072 0.21909764 -0.063019365 -0.17056292 -0.057962954
-0.05353698 -0.15966013 0.02320978 0.025255203 0.19706047 0.05654043 0.042406023 0.027738482
-0.18776077 0.238229 -0.16834384 -0.12955388 0.11140916 -0.10545263 0.24572024 0.16327891
-0.21661428 0.06470448 -0.09061861 0.12308502 0.1468611 -0.021612644 -0.16940731 0.020096928
00000000: f48a 403e c08b 2d3c 7203 14be e0c3 a6bc
00000010: 225b 603e 4c10 81bd 0ca8 2ebe 906a 6dbd
00000020: 9849 5bbd f27d 23be 7022 be3c 00e4 ce3c
00000030: 38ca 493e f096 673d f0b1 2d3d d03b e33c
00000040: 5c44 40be 4ef2 733e 5462 2cbe c6a9 04be
00000050: 7c2a e43d 8cf7 d7bd 169e 7b3e 9632 273e
00000060: 22d0 5dbe c883 843d 4096 b9bd 0014 fc3d
00000070: c262 163e 000d b1bc 1c79 2dbe 50a2 a43c

bias f4 [2]
0.12282592 -0.09297228
00000000: 288c fb3d 4068 bebd
