aggregated_results/Tomato/retrospective/Tomato_retrospective_ttt_3.pt (torch, 10256 bytes, 8 tensors)

network.0.weight f4 [16, 36]
00000000: df01 293f 4694 cd3e 06f0 cebd 9af3 223f
00000010: 1694 8d3e e2d6 a03d 22b8 1b3e 0a3e 0ebe
00000020: fac2 b43e 78ad 1dbf bc86 713f 1673 f3bd
00000030: f800 7a3f d4d2 92be 7cbd 193d fe20 5e3f
00000040: 195a 083e f8ad 81be 1443 d83e 367c 293e
00000050: be8e d13e 561d d33e e60c 9cbd 0432 043f
00000060: 987f 07bd 40f3 5ebd dc75 063f 6c99 80be
00000070: df3a b6be c84a fdbd 061f 573f 6879 85be
00000080: 0e9f a2bd c034 a83b 21b2 0f3e e620 a33d
00000090: 78bd a3bc 46a6 e4bd 82d9 d9be 02ac b63d
000000a0: 78ae d4be bb2d 98bd 9086 bcbd e4b3 00bf
000000b0: 2a07 f13d bc8d 00bd b2e9 ca3d 0604 ddbe
000000c0: 84d7 28be b8f5 f8be dc5c 663d df84 7dbe
000000d0: 70cc 763c 7a8d 873d 58e4 fbbc 0ed3 d3be
000000e0: 0fa4 0b3e 805c 1ebd ac36 543d 882d 8cbe
000000f0: 9eeb d9bd 6d2c 293e f3cc 50be 4898 df3c
00000100: f6ef d0bd 9cec 17bd e02c 613d 4029 9ebe
00000110: 76cc e2bd 7ce0 723d 4f00 21be 60dc a13b
00000120: 9611 03bf b08e 083c ec4f 56bd bff0 283e
00000130: c166 07bf 53b5 003e 2a37 afbe 1038 e8bd
00000140: 5085 343d f253 a3be b15c 133e a04b f9bd
00000150: 55c6 0ebf 7eff 0ebe 7c84 5f3d 6087 09bf
00000160: 9406 093d e33d 19be 94d0 11be 78d1 a83c
00000170: ca72 b6be 2051 d0be 23e6 0e3e 18f4 01be
00000180: 2243 84be b642 a4bd 2c36 50bd d60a 1dbe
00000190: 6e21 87be 76ea 96bd 980f 86bd 1c51 10be
000001a0: c066 1fbb 3e5e edbd ccaf 2ebd 8fe3 0bbe
000001b0: 24e2 b3bd e8f5 f2be 5cf3 0cbe 013b 0ebf
000001c0: 0083 1e3d 0258 873d 5fa9 d9be 15b4 ebbe
000001d0: 42b1 bfbe 4ef1 51bf 1454 a93d 06ae c23e
000001e0: ded3 ef3e 1ab0 2bbf d003 b1bd 0286 f83e
000001f0: 531d f8bd 3994 d0be a8ae a2be bc65 9c3e
00000200: bcfb dcbe 439f 10bf 7a66 8a3d 80a1 c2bc
00000210: 6b47 0cbf 261f d9bd acc3 c13d f631 fcbe
00000220: 5049 cd3c f69c e1be 3829 493f 7d35 b5be
00000230: 0add 993d c0b4 a9bd 2779 183e d8fa fbbd
00000240: 5c1a d0be ac77 703d 634f 78be 4a43 7b3e
00000250: bc40 debe 09af 063e 25d3 79be a87a 02bf
00000260: 50b3 3cbd a45d 983e baba 14be 22f2 cfbe
00000270: d180 e5be b0bb adbe 487d 89bd f862 f3be
00000280: 2cc4 033d e436 043d ce91 ac3d 72c3 06bf
00000290: 1056 18bc fb4f 80bd 5cac 3ebd 7a57 98be
000002a0: 17d9 68be c676 b83d 148b bdbe ab01 fabd
000002b0: ccd3 9cbe 689c a1bc 9271 ee3d ab4a 5dbe
000002c0: d675 abbd a894 dc3e 60c8 8f3c a046 9c3b
000002d0: bc76 1bbd 47cc 05bf 106f 56bd b7d7 eabe
000002e0: a69c d5bd 6376 a1bd 3ea8 b7be 4bc2 ccbd
000002f0: 905b 94bd 92de f9be 524e d93d 831f f7bd
00000300: ce84 c7be ec84 353d 8532 223e 46d2 c8be
00000310: 13c0 80bd fb7f 92bd f8a7 91be 00dd 8c3b
00000320: 44ca 1fbd ac7b 20be ac2c 08bd ca0f d4be
00000330: 82c6 a5be d080 94bd da5e 9d3d a4f3 81be
00000340: 5e3a 9b3d 0d81 1c3e 7cfc 21bd 40e6 2d3b
00000350: dcef 6b3d 5047 28bc c463 1dbd 1eac bcbd
00000360: c86c 8b3c ea60 b63d 46cb 77bd 7678 9cbd
00000370: 005a fcbd c815 c63c 03cd 1ebe eeaf 1fbe
00000380: 48a8 a53c f397 d4bd 683c a33c 1b06 ebbd
00000390: f0af 733d ab93 d9bd e2e0 c53d 58db edbd
000003a0: 38ec efbd 9c78 41bd f46f 10bd 760e 69bd
000003b0: 2609 bcbd 430c 81bd 8bb4 273e c38b 16be
000003c0: 98ce bf3c 0e33 0cbe ff38 1a3e 73d5 babd
000003d0: 9292 d43d e852 bd3c 7a84 8a3d f02d 53bd
000003e0: e150 283e 7c78 0abd c611 4ebd 6249 11be
000003f0: 36ec f3be f5fa 003e 8c24 5c3e 5432 0cbe
0.6601848 0.40152186 -0.101043746 0.63652956 0.27652043 0.07853486 0.1520696 -0.13890854
0.35305005 -0.6159282 0.94346213 -0.11887185 0.9765773 -0.28676474 0.037534222 0.8676909
0.1331562 -0.2532804 0.42238677 0.16551289 0.40929216 0.4123332 -0.07619648 0.5163882
-0.033080667 -0.0544312 0.5252359 -0.25117052 -0.3559179 -0.12367779 0.84031713 -0.26069188
-0.079404935 0.0051332414 0.14032795 0.07965259 -0.019987807 -0.11164527 -0.42548758 0.08919527
-0.4153936 -0.074305974 -0.09205353 -0.5027449 0.117689446 -0.03138517 0.09907855 -0.43167132
-0.16488463 -0.4862497 0.0562409 -0.24757718 0.01506339 0.066187814 -0.030748531 -0.4137196
0.13636802 -0.038662434 0.05180995 -0.27378488 -0.106406435 0.16520853 -0.20390682 0.027294293
-0.10202019 -0.037090883 0.054974437 -0.30890846 -0.11074154 0.059296116 -0.15722774 0.004939601
-0.5119871 0.008334801 -0.052322313 0.16498087 -0.52891165 0.1256917 -0.34221774 -0.11338818
0.04407245 -0.31899983 0.14390828 -0.121726274 -0.5577138 -0.1396465 0.054569706 -0.5372219
0.03345354 -0.14965014 -0.14239722 0.020607695 -0.35634452 -0.40686893 0.13954978 -0.1269077
-0.25832468 -0.080205366 -0.050832912 -0.15336165 -0.26392692 -0.073689386 -0.06545943 -0.14093441
-0.0024322718 -0.11590241 -0.04264812 -0.13661025 -0.08783367 -0.47453237 -0.13764709 -0.5555878
0.03869915 0.06608583 -0.42512032 -0.4603583 -0.37439924 -0.82008827 0.0826799 0.38023394
0.4684133 -0.67065585 -0.08643305 0.4853974 -0.12114968 -0.40738085 -0.31773877 0.30546367
-0.43160808 -0.56493014 0.06757827 -0.02375865 -0.54796475 -0.10601644 0.094611496 -0.49256867
0.025059372 -0.44065064 0.7857852 -0.3539237 0.07512863 -0.082864285 0.14889966 -0.12303704
-0.4064511 0.058707878 -0.24249034 0.24537387 -0.43408763 0.13152708 -0.24396951 -0.5096841
-0.046069443 0.29758942 -0.14524356 -0.4061442 -0.44824842 -0.33932257 -0.067133486 -0.47536445
0.032169506 0.03227891 0.084262475 -0.52641976 -0.009297863 -0.06265255 -0.046551093 -0.2975424
-0.22739063 0.09007029 -0.3702017 -0.122073494 -0.30630338 -0.0197279 0.116427556 -0.21610515
-0.08372085 0.43082166 0.017551601 0.0047691613 -0.03795503 -0.5226483 -0.05235201 -0.45867702
-0.10430269 -0.078839086 -0.35870546 -0.09997996 -0.07244027 -0.4880262 0.106106415 -0.12066557
-0.3896851 0.044316217 0.15839584 -0.39222926 -0.06286635 -0.071533166 -0.28448462 0.004298806
-0.039011255 -0.15672177 -0.033245727 -0.41418296 -0.32378012 -0.072511315 0.07684107 -0.25381196
0.07579492 0.15283604 -0.03954743 0.0026534945 0.057601795 -0.0102709085 -0.038425222 -0.09212516
0.017019644 0.08905204 -0.06049659 -0.076401636 -0.12321854 0.024180308 -0.15507893 -0.15594456
0.020221844 -0.103805445 0.019926265 -0.11475774 0.05949396 -0.106238686 0.096620336 -0.11614102
-0.11714977 -0.047234163 -0.035263017 -0.056898557 -0.091814324 -0.06301167 0.16377465 -0.14701752
0.023413941 -0.13691351 0.15060805 -0.091227435 0.103795186 0.023110822 0.06763549 -0.05155748
0.16437103 -0.03380631 -0.05030992 -0.1418815 -0.47641152 0.12595733 0.21498317 -0.13691074

network.0.bias f4 [16]
00000000: 73e0 7c3f 0e9b b2be 3a7a 8dbe 52d5 acbe
00000010: 1723 cabe 9070 d6be 4008 eabd fae2 86be
00000020: 96fd 9cbe 803b debe a437 bdbe fe13 10bf
00000030: bc9d bdbe bcd0 a5be 204f 0cbc 2c2b 90be
0.9877998 -0.34883922 -0.27632314 -0.337565 -0.39479896 -0.41882753 -0.11427355 -0.26345044
-0.3066222 -0.4340477 -0.36956513 -0.56280506 -0.37034404 -0.32385814 -0.008563787 -0.28157938

network.2.weight f4 [32, 16]
00000000: 85e9 193f 1cc0 d93d e8a8 413e 316d 03bf
00000010: fc2c 75be 757b c83e 8ca0 1fbe 1c77 45be
00000020: 3ece 02be d6c0 0dbf af3d c23e 22e0 213f
00000030: fe97 ad3e 2ade 51be 4edc 60be b2d6 0dbe
00000040: 88b2 3e3f 8ea3 2d3d 60ff 563d 4c9c 003f
00000050: 222e 05bf f97d 853e 50d4 5dbe 370d adbe
00000060: b228 af3d 04c9 62be 7841 723e 011a 9d3e
00000070: f2c2 6a3e eb02 8fbe 7811 52be 64b6 10bf
00000080: 96a7 583f 4062 25bd 5cbe 2bbe acd0 623e
00000090: 2053 51bd 9eab a0be 6021 663d d6de 30be
000000a0: b468 e7bd 1dd0 8f3e 7283 3abe f0d2 e9be
000000b0: 82c4 153e c09e b9bd 9083 373f b4c9 7bbe
000000c0: cad3 4e3f d46d 653e fcf6 57be 3363 00bf
000000d0: c04e 4c3b 9504 cf3e 808f a33b cf9e af3e
000000e0: e455 7a3e 41b1 a2be 52ec e83e ee56 703e
000000f0: 22cc 673e a9ab b7be e433 2abe 7cc8 fbbd
00000100: 2ec2 7d3e 2a56 eebd 02e6 b1be 3221 003e
00000110: 9cb3 a7bd 75bc f6be 80f3 ddbb 2866 fc3c
00000120: 2e70 553e 8c0b 7d3e dfff f1be 7bde 15bf
00000130: 9f21 bebe 3663 c73e 74d6 783f efea e1be
00000140: bf46 e1be 826e e0bd cb94 0bbf 573a 01bf
00000150: f256 51be 94f4 713e b04b 15bd f95b 04bf
00000160: 8662 ec3e 408c 41be c073 8a3c 9487 87bd
00000170: 4070 473c 84d3 cdbd 6bf5 a6be 1931 f9be
00000180: f57f 593e ac02 863d 9586 dfbe 1fc5 ac3e
00000190: 5e6f 8fbe 5c01 adbe 7442 38be 846b 8bbd
000001a0: f38e b73e 9e45 163f 7c7f 7dbe 85ec babe
000001b0: 504a 35be eead 023e 8a16 163f 328a 67be
000001c0: 4495 783f f8f4 983d 44fa be3d d056 e53c
000001d0: bcf0 1ebe f5f5 8b3e 549e 853d ef46 27bd
000001e0: a17c 1a3e e88d adbe 0227 d33e 0576 e43e
000001f0: 207b 1e3f 20c2 a6be 9403 773e 1709 823e
00000200: c6e5 0dbe c7cc 693e fede 0c3e e986 cbbe
00000210: 486a 81be 3c67 183e 8667 31be b2ae 61be
00000220: f4a3 65bd 98de 0dbd 60e8 d93d a6a5 1e3e
00000230: ca1c 3abe 5071 86be 0cf3 05be 30f9 8abd
00000240: c6b7 3a3d b60d 64be 8cb6 393e 4999 a4be
00000250: fb9e f6be 181e 92bd a6a6 1a3e ca79 0dbe
00000260: 2002 033d 74b0 5fbe 207b 81bc e66a 0d3e
00000270: 3c83 a53d be41 533e e0ad 30bc fd9a ecbe
00000280: f86d a0bd 945c 423e 507f 32bd 5044 ac3c
00000290: d233 00be f4c2 563e f0f3 323e 7490 333e
000002a0: 6cbb acbd 5042 113e 28fa ff3d 003b e8bc
000002b0: d4ff 85bd 7062 0cbd 807b aebd f2c9 203e
000002c0: 1e31 b43e 84de f6bd 1f32 11bf 85ab c93e
000002d0: 25cd b6be 3126 babe d887 c13d a632 bbbe
000002e0: 2c8c b43e a9aa ea3e 9abb 8cbe 4cb5 1abf
000002f0: 1a8c 02bf 5645 173e 60a3 263f 6d3b 86be
00000300: 8988 ca3e b791 92bd 73bd acbe 8eba 103f
00000310: 76e7 74be b417 1abf f07a 1b3d 6f4f 83be
00000320: 1143 833e eeb8 cb3e 0573 b0be eeb6 20bf
00000330: ead1 50be 9f90 cd3e 5ca9 853f 1248 32be
00000340: c862 40bd 00db 89ba 049f 8dbd 20c3 73be
00000350: 7cd3 2cbe 6892 18bd 1ed8 313e a09e 3f3e
00000360: 92d3 10be 7484 54be ce3b 033e 641d fbbd
00000370: 0002 9cbc 60b4 50be f4c4 303e a070 86bd
00000380: 50d1 a53c d4a7 0ebe 9e93 253e 052d 5e3f
00000390: 7668 46be a09d 043d f238 753e e64f 2c3e
000003a0: b87b 2a3d a886 ed3e dacf 183f 1a5d 1e3f
000003b0: 3454 373e c697 1f3f 384d b43d 00a4 013b
000003c0: ab9f 673e df88 4c3e 389c 613d 46f8 cebe
000003d0: f8ee 0fbe 30bc 88bd 98d0 c13d 6afc 0ebe
000003e0: 94d2 863e 706d 7d3e beb7 47be be06 52be
000003f0: 066d 793e fc39 b83d 9005 06bd 02b1 25be
0.6012195 0.10632345 0.18912089 -0.5133849 -0.23942941 0.3915669 -0.15588588 -0.19283718
-0.12773988 -0.5537237 0.37937686 0.63232625 0.33905023 -0.20494905 -0.2195904 -0.13851431
0.7449117 0.042392306 0.05248964 0.5023849 -0.5202352 0.26072672 -0.21663022 -0.33799145
0.08552684 -0.22146994 0.23657787 0.30683902 0.22925928 -0.27931914 -0.20514476 -0.56528306
0.84630716 -0.0403769 -0.16771835 0.22149915 -0.051104665 -0.31380934 0.056184173 -0.17272505
-0.112992674 0.28088465 -0.18214205 -0.45668745 0.14625743 -0.09063482 0.71685123 -0.24588662
0.80791914 0.22405177 -0.21090311 -0.50151366 0.0031174868 0.40433183 0.004991472 0.3430085
0.24446827 -0.3177586 0.45492798 0.23470661 0.22636464 -0.35873154 -0.16621357 -0.12294099
0.24781105 -0.11637528 -0.34745795 0.12512663 -0.08188555 -0.48190656 -0.006773412 0.03081043
0.20843574 0.24711436 -0.47265527 -0.58542603 -0.37135026 0.3894288 0.9720223 -0.44124553
-0.43999287 -0.10958578 -0.54523915 -0.50479645 -0.20443323 0.23628455 -0.036449134 -0.5170284
0.46168917 -0.18901157 0.016900897 -0.06617656 0.012172759 -0.10050109 -0.32609114 -0.4867027
0.21240218 0.06543478 -0.43657365 0.3374414 -0.28014654 -0.337901 -0.179941 -0.06807616
0.3585125 0.5869998 -0.24755663 -0.36508575 -0.17704129 0.12761661 0.5862814 -0.22611311
0.9710276 0.07468599 0.09325078 0.027995497 -0.1552152 0.27336088 0.06524339 -0.040839132
0.15086605 -0.33897328 0.41240698 0.44621292 0.61906624 -0.3256998 0.24122459 0.2539756
-0.13857183 0.22832023 0.1375694 -0.39751366 -0.252764 0.14883131 -0.17324647 -0.22039297
-0.05606456 -0.03463611 0.10640025 0.15492877 -0.18175045 -0.26258326 -0.13080996 -0.0678581
0.045585416 -0.22270855 0.18136042 -0.32148197 -0.48168167 -0.07134646 0.15102634 -0.1381599
0.03198445 -0.21844655 -0.01580578 0.1381031 0.080816716 0.20630547 -0.0107836425 -0.46211997
-0.07833475 0.18980628 -0.043578446 0.021028668 -0.12519768 0.20972806 0.17475867 0.17535573
-0.084341854 0.14185452 0.124988854 -0.028348446 -0.06542936 -0.034273565 -0.085196495 0.15702036
0.35193723 -0.1205416 -0.56717104 0.39388672 -0.35703388 -0.36357263 0.09449738 -0.3656208
0.35263193 0.45833328 -0.2748688 -0.6043289 -0.5099503 0.14772543 0.6509304 -0.26217213
0.39557293 -0.07156699 -0.33738288 0.5653466 -0.2391642 -0.6019242 0.03795904 -0.2564654
0.25637105 0.39789528 -0.34462753 -0.6277913 -0.20392576 0.401494 1.0442309 -0.17410305
-0.046969205 -0.0010517538 -0.069150954 -0.23804903 -0.1687755 -0.037249 0.17367598 0.18712854
-0.14143208 -0.20753652 0.12815782 -0.12261465 -0.019043922 -0.20381308 0.17262632 -0.0656445
0.02024141 -0.13931209 0.16169593 0.86787444 -0.19375786 0.032376885 0.23947504 0.16827354
0.041621894 0.46391797 0.59692156 0.6186081 0.17903215 0.6234096 0.08803791 0.001978159
0.22619502 0.19974087 0.055080622 -0.40423793 -0.14056003 -0.06676519 0.09463614 -0.13963476
0.26332533 0.24748778 -0.19503686 -0.20510384 0.24357995 0.08995435 -0.03272015 -0.16180804

network.2.bias f4 [32]
00000000: b33e 7dbe 60c0 793f 18ef 893d 022b f43e
00000010: 8ac1 7dbe fbc7 2ebf 8197 853e 408a 193f
00000020: 2e30 6dbe 14cb 7dbe f4ea edbd 4c83 c83e
00000030: 87f6 953e 8403 8bbd d168 b43e 54f0 75be
00000040: 7e36 55be f0f1 3abd 0033 39be 4a29 57be
00000050: 541f acbd 8444 b33d 3bdf 933f 3056 24be
00000060: 4a53 39be f850 0e3e 368b 48bf 8f70 e9be
00000070: 9c21 b93e 387d 36be f83b e23d bc40 11be
-0.24730949 0.97559166 0.06735057 0.47689062 -0.2478086 -0.68273896 0.2609215 0.5997658
-0.2316291 -0.247845 -0.116170794 0.39162672 0.29289648 -0.0678778 0.3523622 -0.24017459
-0.20821568 -0.045640886 -0.18085861 -0.21011844 -0.08404413 0.08753303 1.15525 -0.16048503
-0.18098179 0.13898075 -0.7833742 -0.45593688 0.36158454 -0.17821205 0.110465944 -0.1418485

network.4.weight f4 [16, 32]
00000000: ee79 d03d 64c5 b93d 4355 70be 202d f8bd
00000010: 84ac a9be 0a08 5dbf 60fa bbbc f0d8 7c3d
00000020: c750 873e 9b5b 03bf f425 0d3d b667 06be
00000030: 60c9 0dbd 4bfa 0fbe b88e 0d3f 2320 633e
00000040: 6e59 19be 879e 1cbe facb 01bf b24d e93e
00000050: 1294 b43d 5883 d43d 50c9 d23d f8cc fabe
00000060: 1850 acbc ea72 583f 7073 cbbe d2ba d03e
00000070: 4cc4 80bd 9a72 d6be 1c37 f6bd 21e3 b0bd
00000080: 89fa 293e c873 e1bc fb99 06be 0693 e53d
00000090: 5ab5 1ebe c4d8 c9bd 643a 083d 9b8b 2abe
000000a0: c6a8 fc3d 90f7 113d b57e 2d3e 22db 06be
000000b0: a03a 6b3d 088d a1bc a21b fa3d 007c 52bc
000000c0: 90dc f63c 0ece b63d 4c99 b5bd 5019 72bd
000000d0: fc49 c3bd 4e27 edbd 9434 3bbd ddc6 173e
000000e0: 367a ca3d a373 143e 60f2 f7bb e680 bebd
000000f0: 562d 2dbe 0a96 5bbd 0634 a63d a36a a7bd
00000100: f8f6 d0bd 40e1 0d3d 51b0 20be 60ae 053c
00000110: b8d5 a23c 1b97 033e c661 1ebe a8f3 00bd
00000120: f09d 2cbd aed4 cf3d 8e78 f43d 15ce 173e
00000130: 65de 1cbe 3017 c3bc 30da 0cbd 7a0a dd3d
00000140: 6098 083d c4a6 0bbd 9e5d e9bd 6bb5 b7bd
00000150: 86a0 bf3d 80f2 b1ba 0273 883d 9cd9 17be
00000160: fa78 f3bd d381 193e 3d74 1f3e dba2 d2bd
00000170: 396d 153e 68c6 c93c 6922 0b3e f098 333d
00000180: 406e 6f3c 8edf 66bf 9c1f f43e e8c1 67bf
00000190: e83d 003f 6060 3b3c e8cf 563f 5954 2cbf
000001a0: 5c96 043f 9771 01bf 587a 87bc aaa6 593f
000001b0: aea1 1b3f 5001 653c be94 d2be de08 c53e
000001c0: 382a 763d 7616 8bbd 24b4 0c3f 82c3 ab3e
000001d0: c08c dbbb 56ff 6c3f f25b 2bbf 1119 e0be
000001e0: 1c29 07be d0a4 08be 0515 61be 6e5d 8dbe
000001f0: 0e7d 50bf a76b 7cbe bb51 5e3f 044c 203d
00000200: f4e2 113d 32c2 75bf 3aea 683e 7781 57bf
00000210: 7474 053f 9432 1f3e a409 593f e409 0cbf
00000220: f4cd ce3e 3e69 91be 30e3 833d da41 2e3f
00000230: 21db 493f ea80 f2bd 7a34 12bf c5eb 003f
00000240: a610 e93d 28ef ecbd ec7c c23e 5e80 dc3e
00000250: 9ab6 d73d a303 213f 9411 25bf 878a c8be
00000260: 00b0 0fbb a0de 3cbc 279e e6be a6c6 90be
00000270: 2a6b 50bf c05c 0abf 1052 203f 4697 1cbe
00000280: 4371 d4be f318 e2be 980d 533d 46ed 7cbe
00000290: 4e58 773f 70d8 323e ce76 6a3f 201a c4bd
000002a0: 59e0 543e 220b 1bbe 402c 923b d2f1 953f
000002b0: 2f64 743f 5010 7e3c 0e45 4dbf 6022 c73e
000002c0: 4792 21be f597 153e 720a 6b3f b0e4 b03e
000002d0: 1675 ae3d 486a 633f 0f93 4fbf 7fad 5cbe
000002e0: 4308 1fbe 5a4a 54be 48fa df3e 3978 0fbf
000002f0: fbc9 2cbe 00c5 993e 64c9 293f b6f0 bb3d
00000300: 361b bcbe a6ba 153f e06f 0f3c b97a 953e
00000310: 6e8c 763e dbf9 0dbf 03a5 d33e 0985 023f
00000320: d951 883e c0ac fabe 9a2e fbbd 3b3c aa3e
00000330: 6fbb f43e 607a 123d d8d8 3abd 05c9 a23e
00000340: 8077 593b fa8c 5bbd a034 ce3d 94c1 ab3e
00000350: b8eb 333d c7cf ae3e fc77 afbe b6ee 80be
00000360: 545f 0fbe 3776 3f3f 5015 37bd 4f3d 043f
00000370: 9632 e23e 54a5 be3d 6239 4abe bee7 dfbd
00000380: 896e 0b3f 921a 96be 9aae d7be 9ec2 0cbf
00000390: b252 b8be 7a1d 25be 50cc d6be 9ed5 88be
000003a0: e326 a7bd 0b99 1abe 34ce 213d 7841 9ebe
000003b0: 2716 f2be 290b 1a3e 7048 ce3e eae5 983d
000003c0: 7047 8b3d 88d7 a5bc a6c9 bbbe 5cfe 07be
000003d0: 3001 eabc 022c a0be 0eca 0d3f fe08 9a3d
000003e0: 0a9c e43d a4e1 2bbd eaac 02bf 84fd 37bd
000003f0: bcca 97be 9cad a6be 6d10 203e 2040 d2bb
0.10179506 0.090708524 -0.23470025 -0.12117982 -0.3313943 -0.8634039 -0.022946537 0.061730325
0.26428816 -0.51311654 0.034460023 -0.131255 -0.034615874 -0.14060323 0.55295897 0.22180228
-0.14975521 -0.15294848 -0.5070187 0.4556709 0.08817305 0.10376614 0.102923036 -0.48984504
-0.021034285 0.84550345 -0.3973651 0.40767533 -0.06287441 -0.4188431 -0.1202223 -0.086370714
0.16599478 -0.02752103 -0.13144676 0.11209683 -0.15498868 -0.09855798 0.03325881 -0.16654818
0.123368785 0.035636485 0.16942866 -0.1316953 0.057428956 -0.01972057 0.12212302 -0.012846947
0.03013447 0.089260206 -0.0886713 -0.05910617 -0.09535596 -0.115797624 -0.04570444 0.14821954
0.09886591 0.14497237 -0.007566735 -0.09301929 -0.16911826 -0.053609885 0.081153914 -0.08174636
-0.102033556 0.034638643 -0.1569226 0.00815925 0.0198773 0.12850611 -0.15466985 -0.03148237
-0.04214281 0.10147987 0.119370565 0.14824708 -0.15319212 -0.023814768 -0.034387767 0.10793014
0.03334844 -0.034094587 -0.11394809 -0.089701496 0.09356789 -0.0013576299 0.06662561 -0.14829105
-0.11888309 0.1499093 0.15571685 -0.102849685 0.14592446 0.02463074 0.13587345 0.043847024
0.014613688 -0.9018487 0.47680366 -0.9053025 0.5009446 0.011436552 0.8391099 -0.67316204
0.5179193 -0.5056395 -0.01653783 0.85019934 0.6079358 0.013977364 -0.41129106 0.38483328
0.060098857 -0.067913935 0.5496237 0.33547598 -0.0067001283 0.9257711 -0.6693717 -0.43769124
-0.13199276 -0.13344121 -0.21980675 -0.27610344 -0.8144082 -0.24650441 0.8684346 0.039134994
0.03561683 -0.95999444 0.227456 -0.8418192 0.5213082 0.15546638 0.84780335 -0.5470259
0.40391505 -0.28400606 0.06439817 0.6806923 0.7884999 -0.11840995 -0.5711132 0.50359756
0.113801286 -0.11569053 0.37985933 0.43066686 0.10532875 0.62896174 -0.6447995 -0.39168188
-0.0021924973 -0.011527687 -0.45042536 -0.28276557 -0.8141352 -0.54047775 0.6262522 -0.15292081
-0.41492662 -0.4415966 0.051526636 -0.24699888 0.9661912 0.17465377 0.9158753 -0.095752954
0.20788707 -0.15140966 0.0044608414 1.1714423 0.9546537 0.015506819 -0.80183494 0.38893414
-0.15778457 0.14608748 0.91812813 0.34549475 0.08518426 0.8883405 -0.8108377 -0.21550559
-0.15530495 -0.20731488 0.43745637 -0.5604282 -0.16873924 0.30033112 0.6632292 0.09176771
-0.3673951 0.5848793 0.0087547 0.29195192 0.24077007 -0.55459374 0.4133683 0.50984246
0.26624945 -0.48959923 -0.12264748 0.33249077 0.4779925 0.035761237 -0.045616955 0.3179399
0.00331828 -0.053601243 0.10068631 0.33546126 0.04392597 0.34142897 -0.34271228 -0.25182122
-0.14001209 0.74789757 -0.04469806 0.5165605 0.4417922 0.093088776 -0.19748452 -0.10932873
0.5446554 -0.29317147 -0.42125398 -0.5498446 -0.36000592 -0.16124526 -0.41952753 -0.26725477
-0.08161714 -0.15097444 0.03950329 -0.30909324 -0.47282526 0.1504332 0.4028964 0.074657276
0.06800735 -0.020244375 -0.36677283 -0.13280624 -0.02856502 -0.31283575 0.55386436 0.075212464
0.111625746 -0.041963235 -0.51045096 -0.044919506 -0.29646862 -0.32554328 0.15631266 -0.0064163357

network.4.bias f4 [16]
00000000: 6a20 863d 5041 13bd 65a8 bfbd 62a3 463e
00000010: 3ab8 1e3e cf84 953d 3b01 b1bd f201 1ebe
00000020: ed69 8cbd c016 3a3c 56bb 32be 1c44 a33d
00000030: 2925 eabe 5b7f 073d ac9d 72bd 8df1 87bc
0.06549151 -0.03595096 -0.093582906 0.19398263 0.15499964 0.07300722 -0.08642813 -0.1543043
-0.06856141 0.011357963 -0.17454275 0.07971975 -0.45731476 0.03308044 -0.0592324 -0.016594673

network.6.weight f4 [2, 16]
00000000: 9f29 843e 70f8 9e3c f26a 6ebe 179b 733f
00000010: 92dd 4a3f 5fbc ec3e 0e43 9fbe a19c 92be
00000020: 300f d23c 143e 82bd 1019 debc 0c2b b9be
00000030: ecf0 43be 1e26 7a3e d6c3 0bbe f40b 8bbe
00000040: 0065 543d 926e 073e f027 d8bd 685b 46bf
00000050: 876b 80bf da9c ecbe f981 913e bc4e e53e
00000060: 66cc 283e a6d6 60be 6070 823c d0e1 e03e
00000070: b06f ab3e 6c3b 33be 5010 f6bc 3f3e 7a3e
0.25813004 0.019405574 -0.23282984 0.95158523 0.7924434 0.46237466 -0.31105846 -0.28635123
0.025642008 -0.06359497 -0.02711156 -0.36165655 -0.19134873 0.24428603 -0.13648924 -0.27157557
0.051854134 0.13225773 -0.105544925 -0.77483225 -1.0032815 -0.46213418 0.28419474 0.44786632
0.16484222 -0.21956882 0.015922725 0.4392228 0.33483648 -0.17503136 -0.030037075 0.24437808

network.6.bias f4 [2]
00000000: 9440 1c3e 2241 50be
0.1525901 -0.20337346
