aggregated_results/Tomato/retrospective/Tomato_retrospective_mc_3.pt (torch, 4470 bytes, 6 tensors)

network.0.weight f4 [16, 5]
00000000: 74ca d43e 2cf5 9b3e 145d d3be 1a35 de3e
00000010: b2a3 dfbe 50b7 983d 78d8 843e a614 e4be
00000020: 540a 243e 2e60 41be 5016 123e 15cb ccc0
00000030: 3423 0ebd ae61 d03e 4681 b2be 9ab0 853f
00000040: e94c 1240 badd 98be b687 963e b979 083e
00000050: d1bd 5740 0518 b240 5da4 64be 6e8b bdbe
00000060: 86b5 883e a4cd 17c0 44ae 00c1 3439 26be
00000070: 8cf5 be3e 74ed 3d3f dd4b 02c0 ea29 6440
00000080: d398 853e 887f 8e3e 4048 f2bb 72e2 e9bd
00000090: 76f6 cfc0 8a30 8ebe b02f c9bd b261 ecbe
000000a0: 0a8d 233f 626c f9be b0bc c5be 882f e63d
000000b0: 3d84 afbe 4e46 e8bd 3490 8040 18a5 e8bc
000000c0: 1c7d acbd 109f 1b3e 5459 ecbe 012f b140
000000d0: f4b0 71be 3ae5 9dbe 1fa7 60bf 76d4 33be
000000e0: 2b0d d3be 583a a63d fca8 2ebe 0e15 26be
000000f0: 0ede 943e f496 d6be 521d b7be 5e99 b0be
00000100: 409d 593b 7217 5c3f d10c 353f 637a 2d3f
00000110: d8d5 8d3d 64dd aa3e 6235 8c3f f2df ff3f
00000120: 3c45 1bbe 682a 48bd edb5 2f3e c848 c2be
00000130: a551 7f40 6840 eb3d 278f 9abe d951 d63e
0.4156071 0.3046049 -0.4128195 0.43399888 -0.43679577 0.07456839 0.25946403 -0.44547004
0.16019565 -0.18884346 0.14266324 -6.3997903 -0.03470154 0.40699524 -0.34864253 1.044452
2.2859442 -0.29856664 0.29400414 0.13327684 3.3709605 5.565432 -0.22328325 -0.3702044
0.2670099 -2.3719263 -8.042545 -0.16232759 0.37296712 0.7419045 -2.0358803 3.5650582
0.26093158 0.27831674 -0.007393867 -0.11420144 -6.4988356 -0.27771407 -0.09823549 -0.46168286
0.63887084 -0.48715502 -0.3862052 0.112395346 -0.34280577 -0.113415346 4.017603 -0.028399035
-0.084223 0.15197396 -0.46161902 5.536988 -0.23602659 -0.30838948 -0.87755007 -0.17561516
-0.41220984 0.08116597 -0.1705665 -0.16218969 0.29075664 -0.41912043 -0.35764557 -0.3449201
0.00332053 0.85973275 0.7072268 0.6776487 0.06925553 0.33372033 1.0953791 1.9990218
-0.1516313 -0.048868567 0.17159243 -0.37946153 3.9893582 0.11486894 -0.30187342 0.4185932

network.0.bias f4 [16]
00000000: 6060 e23d d652 67be fe8a 0abf f401 76be
00000010: b906 98be 2245 9b3f 2ef3 ca3e 1241 b9bd
00000020: af80 56be 3aae 28bf f5d4 07bf f898 9ebe
00000030: 3fac a3be eea0 c33e 4019 063f 6df0 083f
0.11053538 -0.22590193 -0.54118335 -0.24024183 -0.2969263 1.2130473 0.39638656 -0.09045614
-0.20947526 -0.6589085 -0.5305932 -0.3097608 -0.3196735 0.38208717 0.5238228 0.5349186

network.2.weight f4 [16, 16]
00000000: 802b 92bd b0b0 2a3e 6869 73be 480a 913d
00000010: bc87 fdbd 3c99 4abe 7cfd 1d3e 98be 39bd
00000020: 9488 fdbd 4817 f23d 8cd0 b7bd b42e a53d
00000030: 5810 0bbe 04da 58be 8c20 dd3d 6ea9 573e
00000040: 4ca3 cd3d 9caf 59be cd82 0040 d09b 82bd
00000050: 06d5 e2bf 93c4 b63f 5f8b 0ec0 023b 0040
00000060: 2c17 71bd 3f1a 80bf 82b4 79c0 5c0b 45be
00000070: 067a 0ebe 3cb6 e7be 6857 373e 10d0 403e
00000080: 40e7 363c b4ab 46be 6e56 a5be fc6a 61be
00000090: 44f6 b6bd 1cc3 17be d171 91be b068 a4be
000000a0: e4a2 b0bd b411 2cbe 4b96 99be f8c3 18bd
000000b0: 6436 29be 3628 68be 423c 22be d05d 5cbd
000000c0: 9284 3c3e 3ecd 163e d1c8 53be b239 173e
000000d0: bebc 15bf af73 183f 7839 653e c4a2 96be
000000e0: 3e61 153e ec35 0d3d fe2e 363e 7e77 793e
000000f0: 1867 b3bd f027 613e 4ead 30bf 90bd 053d
00000100: ac5c 5e3e 581b 9c3d d3f6 c33f eaf7 4fbe
00000110: ff39 e8bf 25f4 b13f 6b40 3ec0 902c ca3f
00000120: 4310 b73e 4878 b6be 11d1 1ac0 0a12 3d3e
00000130: 1291 00be af2d d03e 79b3 883f 2e44 a03f
00000140: 60cf f6bc 863d 1d3e 67d2 613f 0c9e 3f3e
00000150: 9915 98be ae69 953f 1406 0dc0 b0dd 2e3f
00000160: b84b a5bc 1692 19bf b325 99bf 9244 4d3e
00000170: b802 c9bd abd7 dfbe 48da 29bd 4667 8f3e
00000180: 1c8b d3bd 549a 573e 05be 783f 00d1 97bc
00000190: bd28 10bf c572 fa3e 0313 d0bf 62e3 933f
000001a0: 4e49 14bf 0a21 9d3d e3c6 e4bf acd3 a33d
000001b0: 101e 0c3e 2c0c 10bf 8c40 a43d 2428 a33f
000001c0: 1eed 7b3e 8090 3b3c 263d 0640 be48 063e
000001d0: bdbb b2bf 42e5 9c3f f182 1cc0 7532 f13f
000001e0: 10ca 053e 86e4 96bf 83c8 5cc0 947e 22be
000001f0: 1ad3 283e 60bb 1dbf 6dc6 e13e ec86 133f
00000200: 70ae b43d c8af 8a3d aeed a93e cca7 83bd
00000210: f246 52be 40ae 24bf 52e6 17c0 1df1 693e
00000220: 7fcc 2d3e d492 e2be 2d61 1ec0 703f 843d
00000230: a275 68be 00bf f3ba 1379 8f3f 305c cf3f
00000240: c07c 913c 5c76 61be daea 11bf 3cb4 43be
00000250: cded 1cbe 8031 0b3b 4d4d 6bbe fd12 f9be
00000260: 0d52 283e 44ca 64be 7ac7 c9be 1038 1e3d
00000270: 1202 6dbe e6c1 46be 6c30 cd3d b885 973d
00000280: c09d 5cbe 8814 30bd a2f2 d63f e0e2 873d
00000290: 152a cebf 4bf8 e53e 8ee4 42c0 cae8 c83f
000002a0: 9408 673e e2a1 7abf db24 58c0 e661 2b3e
000002b0: 0c72 08be 0c6d 7b3e 046c 403f bec9 b73f
000002c0: e288 56be 8045 293b 86f5 133e e8f5 cc3e
000002d0: 9de3 573f c373 c93e 9d1b 03c0 f320 e0be
000002e0: 3ead 09be e4e3 c9bf 2666 0e3f ecc3 a8bd
000002f0: 6843 b0bd e672 49bf de3f 2d3e 383e fc3f
00000300: 087f afbd 844a 7c3e e104 3a3e e479 46be
00000310: 7329 1fbe d911 66be 709a 07be 68e4 cd3d
00000320: d8a4 adbc 74b4 71bd d205 25bf 400d 413e
00000330: c0ce 8fbc 6238 3b3e c0e2 c93d 2276 173e
00000340: a427 4e3e bcc0 353e a62e 10be e0eb 1a3d
00000350: bcda 5bbe 2013 7fbc a06f 2dbe aab0 213e
00000360: ec03 7bbe 3e67 113e 903e 13bd 4a76 7b3e
00000370: 4459 5dbe ee95 1fbe 50e1 7abe 4e12 61be
00000380: 58f9 333e 60c4 42bc 5464 de3f b8b6 6fbe
00000390: e282 3ebf 42d1 483f 876c 1ec0 2871 cd3f
000003a0: 3ab2 f8bd 812d b3be ecdd 42c0 b831 4ebe
000003b0: d667 2dbe 5673 23bf 6070 433c 0cce 9f3e
000003c0: 18a0 f03d 50ff 0dbe 2f6b 413e 4ca9 f53f
000003d0: 2f96 5640 78fc 00c0 37a5 6f3e 808b 983d
000003e0: bce9 38bd f6e9 95be d67d 9d3f 68d4 053e
000003f0: 4924 21be a010 0abf f6f6 e13f 4ed1 d93f
-0.07137203 0.16668963 -0.23770678 0.07082039 -0.12379405 -0.19785017 0.15428728 -0.04534778
-0.12379566 0.11820847 -0.08975324 0.080655485 -0.13580453 -0.21176916 0.107972234 0.21060726
0.10040912 -0.21258396 2.0079834 -0.06377375 -1.772126 1.427874 -2.2272565 2.0036016
-0.05885999 -1.000801 -3.9016423 -0.19242615 -0.13913736 -0.4525622 0.17904437 0.1882937
0.011163533 -0.19401437 -0.32292503 -0.22013468 -0.0893369 -0.14820522 -0.28407148 -0.3211112
-0.08624819 -0.16803628 -0.29997477 -0.037296265 -0.16524655 -0.2267159 -0.15843299 -0.053800404
0.18409947 0.14726731 -0.20682074 0.14768103 -0.5849112 0.5955152 0.22385204 -0.29421055
0.14587876 0.034475252 0.17791364 0.24361989 -0.08759898 0.21987891 -0.6901444 0.032651484
0.21715039 0.07622403 1.53097 -0.20309415 -1.8142699 1.3902632 -2.9726818 1.5794849
0.35754594 -0.35638642 -2.4190104 0.18463913 -0.1255534 0.40659854 1.0679771 1.2520807
-0.030128181 0.153555 0.88211673 0.18712634 -0.29703978 1.1672876 -2.203496 0.6830702
-0.020177707 -0.59988534 -1.196463 0.20045689 -0.09814972 -0.4371923 -0.041467935 0.2800848
-0.103292674 0.21054965 0.97164947 -0.018532276 -0.5631216 0.48915687 -1.6255802 1.1553767
-0.57924354 0.07672317 -1.7873195 0.079993576 0.13683343 -0.5626857 0.08020124 1.2746625
0.24602172 0.011448026 2.0974822 0.13113686 -1.3963543 1.2257464 -2.445492 1.8843523
0.13065362 -1.178849 -3.4497383 -0.15868598 0.16486779 -0.61614037 0.440967 0.5762775
0.08822334 0.06771809 0.33189148 -0.06428489 -0.20534876 -0.64328384 -2.3734326 0.22845884
0.1697254 -0.44252646 -2.4746811 0.06457412 -0.22701123 -0.0018596351 1.1208824 1.6200008
0.01775968 -0.22017807 -0.5699898 -0.19111723 -0.15325089 0.002123922 -0.22978707 -0.486473
0.1643755 -0.22342783 -0.3941 0.038627684 -0.23145321 -0.19409904 0.10019001 0.07398552
-0.21544552 -0.04298833 1.6792796 0.0663507 -1.6106592 0.44915995 -3.0451999 1.5696042
0.22561866 -0.97903264 -3.3772495 0.16736564 -0.13324755 0.24553317 0.7516482 1.4358442
-0.20950654 0.0025828779 0.14449129 0.40031362 0.84331685 0.39346132 -2.0485604 -0.43775138
-0.13444993 -1.5772672 0.55624616 -0.08240494 -0.08606607 -0.78690946 0.16918895 1.9706488
-0.08569151 0.246378 0.18165924 -0.19382435 -0.15543155 -0.22467746 -0.13242507 0.10053331
-0.021196768 -0.059009984 -0.64462006 0.1885271 -0.01755464 0.18283227 0.09857702 0.14791158
0.20132309 0.17749304 -0.14080295 0.037822604 -0.2147016 -0.015568525 -0.16937113 0.15790048
-0.24513215 0.1419954 -0.035948336 0.24556842 -0.21616083 -0.15584537 -0.24500012 -0.21979639
0.17575586 -0.01188764 1.7374368 -0.23409545 -0.7441846 0.784443 -2.475374 1.6050158
-0.12143369 -0.34995654 -3.044795 -0.20136154 -0.16934142 -0.63847864 0.011928648 0.3121189
0.117492855 -0.13866925 0.18888544 1.919229 3.3529165 -2.0154095 0.23402868 0.074484825
-0.04514478 -0.2928006 1.2304027 0.13069308 -0.15736498 -0.5393162 1.7653491 1.7017

network.2.bias f4 [16]
00000000: ca61 5dbe afe6 88bd 5dd5 27bc 3fda 833e
00000010: 57e4 463f 8412 f73d e4ed 81bc 4ab3 5a3e
00000020: 9eb1 3c3f 062d 87be 4a91 a9bd 08d0 173f
00000030: c213 c6bd 568a 5cbe a89e 733d b27c 5a3d
-0.21619335 -0.066846244 -0.010243741 0.25752446 0.7769217 0.120640785 -0.015860505 0.21357456
0.7370852 -0.26401538 -0.08279665 0.59301805 -0.09671737 -0.21537146 0.05947748 0.053341575

network.4.weight f4 [2, 16]
00000000: f292 5fbe a6e0 24c0 66f9 323e 8ecc b83e
00000010: e2ce 55c0 2caf 29c0 c48c fdbf 587a 4cc0
00000020: 5c49 14c0 143d 593e 4651 58c0 257d bdbf
00000030: 061d 1bbf 20cf 72bc d038 42c0 c2ce 15c0
00000040: 0a32 793e aa53 5040 1c15 e4bd 0e7e 013f
00000050: 988c 2240 d19a c33f 0c48 5c40 00ae 4040
00000060: ef2b 0f3f 9840 b3be a101 0040 682b d03f
00000070: d003 3c3c d438 cbbd 4af8 4940 0d80 0040
-0.21833399 -2.5762115 0.1747795 0.36093563 -3.3407521 -2.6513166 -1.9808583 -3.1949673
-2.3169775 0.21214706 -3.3799605 -1.4803816 -0.6059116 -0.01481989 -3.0347176 -2.3407445
0.24335495 3.2551064 -0.11136839 0.5058297 2.5398312 1.5281621 3.4418974 3.01062
0.5592641 -0.3501022 2.0000994 1.6263247 0.011475518 -0.099229485 3.1557794 2.0078156

network.4.bias f4 [2]
00000000: c1ed a5be 8cb1 2ebe
-0.32407954 -0.17059916
