saved_mc/Data_TarotMaster/live_mc_2.pt (torch, 6108 bytes, 6 tensors)

weight f4 [16, 5]
00000000: 74ca d43e 2cf5 9b3e 145d d3be 1a35 de3e
00000010: b2a3 dfbe 50b7 983d 78d8 843e a614 e4be
00000020: 540a 243e 2e60 41be 5016 123e 15cb ccc0
00000030: 3423 0ebd ae61 d03e 4681 b2be b052 473f
00000040: 5fb1 0440 badd 98be b687 963e c792 7fbe
00000050: 40be 5740 9716 b240 0053 133f 6e8b bdbe
00000060: 2a14 823f 8e46 18c0 05d4 ffc0 de8f edbe
00000070: 8cf5 be3e ec9e 1b3f ce35 02c0 f2b8 3040
00000080: f47d 2b3d 887f 8e3e 40dd f0bb 72e2 e9bd
00000090: 76f6 cfc0 8a30 8ebe b02f c9bd b261 ecbe
000000a0: 0a8d 233f 626c f9be b0bc c5be 882f e63d
000000b0: 3d84 afbe 4e46 e8bd 3490 8040 18a5 e8bc
000000c0: 1c7d acbd 109f 1b3e bb79 a1bf 7c2e b140
000000d0: eeb1 71be 3ae5 9dbe 0cd0 5abf 76d4 33be
000000e0: 2b0d d3be 583a a63d fca8 2ebe 0e15 26be
000000f0: 0ede 943e f496 d6be 521d b7be 5e99 b0be
00000100: 409d 593b 13c4 adbe 1e57 f9be c00f 22be
00000110: d8d5 8d3d c0b3 d63d 8666 bf3f d798 cc3f
00000120: 448a 5cbf 682a 48bd fe12 d1be 84fc 96bf
00000130: f24b 7f40 6eb2 f2be 278f 9abe 768d eabe
0.4156071 0.3046049 -0.4128195 0.43399888 -0.43679577 0.07456839 0.25946403 -0.44547004
0.16019565 -0.18884346 0.14266324 -6.3997903 -0.03470154 0.40699524 -0.34864253 0.77860546
2.0733259 -0.29856664 0.29400414 -0.24958335 3.370987 5.5652575 0.5754852 -0.3702044
1.0162404 -2.3793063 -7.9946313 -0.46398824 0.37296712 0.6078937 -2.034534 2.7612882
0.041868165 0.27831674 -0.007350594 -0.11420144 -6.4988356 -0.27771407 -0.09823549 -0.46168286
0.63887084 -0.48715502 -0.3862052 0.112395346 -0.34280577 -0.113415346 4.017603 -0.028399035
-0.084223 0.15197396 -1.2615274 5.5369244 -0.23603031 -0.30838948 -0.85473704 -0.17561516
-0.41220984 0.08116597 -0.1705665 -0.16218969 0.29075664 -0.41912043 -0.35764557 -0.3449201
0.00332053 -0.33938655 -0.48699278 -0.1582632 0.06925553 0.10483503 1.4953163 1.5984143
-0.86148477 -0.048868567 -0.40834802 -1.1795812 3.9890103 -0.47401756 -0.30187342 -0.4581105

bias f4 [16]
00000000: 6060 e23d d652 67be fe8a 0abf 9d83 1fbf
00000010: bc86 003f bb1c 9f3e 249f c53e 1241 b9bd
00000020: af80 56be 3aae 28bf 34d5 07bf f898 9ebe
00000030: 3fac a3be d873 27bf b0b2 21bd 2ce9 99be
0.11053538 -0.22590193 -0.54118335 -0.623102 0.5020559 0.31076607 0.38597977 -0.09045614
-0.20947526 -0.6589085 -0.530597 -0.3097608 -0.3196735 -0.6541114 -0.03947705 -0.3006071

weight f4 [16, 16]
00000000: 802b 92bd b0b0 2a3e 6869 73be 480a 913d
00000010: bc87 fdbd 3c99 4abe 7cfd 1d3e 98be 39bd
00000020: 9488 fdbd 4817 f23d 8cd0 b7bd b42e a53d
00000030: 5810 0bbe 04da 58be 8c20 dd3d 6ea9 573e
00000040: 4ca3 cd3d 9caf 59be cd82 0040 628e 83bd
00000050: 967b b3bf 2f14 b93f 26e5 03c0 023b 0040
00000060: 2c17 71bd 3f1a 80bf 93b4 79c0 5c0b 45be
00000070: 067a 0ebe 8008 59bd 60aa 363f 5ab2 703e
00000080: 40e7 363c b4ab 46be 6e56 a5be fc6a 61be
00000090: 44f6 b6bd 1cc3 17be d171 91be b068 a4be
000000a0: e4a2 b0bd b411 2cbe 4b96 99be f8c3 18bd
000000b0: 6436 29be 3628 68be 423c 22be d05d 5cbd
000000c0: 9284 3c3e 3ecd 163e d1c8 53be b239 173e
000000d0: 4cc7 15bf acd4 4cbe 18fa 2ebe c4a2 96be
000000e0: 3e61 153e ec35 0d3d c07b 363e 7e77 793e
000000f0: 1867 b3bd 4024 23be 8c33 98be 761b d13e
00000100: ac5c 5e3e 581b 9c3d d3f6 c33f c27c f5be
00000110: b005 0ac0 5d34 b33f 4a8c 00c0 902c ca3f
00000120: 4310 b73e 4878 b6be 1fd1 1ac0 0a12 3d3e
00000130: 1291 00be 0093 fd3b d0a6 233e c285 a43f
00000140: 60cf f6bc 863d 1d3e 67d2 613f a861 59bd
00000150: 92db 2bbf 16dc c43e 8f5a f6bf b0dd 2e3f
00000160: b84b a5bc 1692 19bf b325 99bf 9244 4d3e
00000170: b802 c9bd b0a1 1bbd fa40 ddbd 296b ad3e
00000180: 1c8b d3bd 549a 573e 05be 783f 6248 87be
00000190: e24d 82be f190 ff3e 6762 bbbf 62e3 933f
000001a0: 4e49 14bf 0a21 9d3d 00c7 e4bf acd3 a33d
000001b0: 101e 0c3e ee00 27be a1c2 cd3e 804f a73f
000001c0: 1eed 7b3e 8090 3b3c 263d 0640 58c5 1abe
000001d0: 0e63 e2bf 0003 9e3f ac6d 11c0 7532 f13f
000001e0: 10ca 053e 86e4 96bf 93c8 5cc0 947e 22be
000001f0: 1ad3 283e 1ecb 5dbe bab8 953e 3828 1b3f
00000200: 70ae b43d c8af 8a3d aeed a93e 2000 94be
00000210: 6040 78bf 0a31 343e 2104 a4bf 1df1 693e
00000220: 7fcc 2d3e d492 e2be f5f9 37c0 703f 843d
00000230: a275 68be 60c5 43bc 005e ecbb e4fc d83f
00000240: c07c 913c 5c76 61be daea 11bf 3cb4 43be
00000250: cded 1cbe 8031 0b3b 4d4d 6bbe fd12 f9be
00000260: 0d52 283e 44ca 64be 7ac7 c9be 1038 1e3d
00000270: 1202 6dbe e6c1 46be 6c30 cd3d b885 973d
00000280: c09d 5cbe 8814 30bd a2f2 d63f 2dce 863d
00000290: b096 9ebf 7457 a23f d235 04c0 cae8 c83f
000002a0: 9408 673e e2a1 7abf e724 58c0 e661 2b3e
000002b0: 0c72 08be cc5c 1dbe bba5 043f 571e bf3f
000002c0: e288 56be 8045 293b 86f5 133e 1b03 6e3e
000002d0: 28e6 573f c5f6 c5be ded3 e8bf f320 e0be
000002e0: 3ead 09be e4e3 c9bf 8861 0e3f ecc3 a8bd
000002f0: 6843 b0bd eaba cb3e 0f8e 113f 3c20 fc3f
00000300: 087f afbd 844a 7c3e e104 3a3e e479 46be
00000310: 7329 1fbe d911 66be 709a 07be 68e4 cd3d
00000320: d8a4 adbc 74b4 71bd d205 25bf 400d 413e
00000330: c0ce 8fbc 6238 3b3e c0e2 c93d 2276 173e
00000340: a427 4e3e bcc0 353e a62e 10be e0eb 1a3d
00000350: bcda 5bbe 2013 7fbc a06f 2dbe aab0 213e
00000360: ec03 7bbe 3e67 113e 903e 13bd 4a76 7b3e
00000370: 4459 5dbe ee95 1fbe 50e1 7abe 4e12 61be
00000380: 58f9 333e 60c4 42bc 5464 de3f da43 03bf
00000390: 12ca 8fbf 2c4f 4b3f dcfc 11c0 2871 cd3f
000003a0: 3ab2 f8bd 812d b3be f9dd 42c0 b831 4ebe
000003b0: d667 2dbe 18a6 74be 48dc 02be 95b2 b13e
000003c0: 18a0 f03d 50ff 0dbe 2f6b 413e 04bc d83f
000003d0: ae96 5640 ba04 00c0 105f 753d 808b 983d
000003e0: bce9 38bd f6e9 95be 027c 9d3f 68d4 053e
000003f0: 4924 21be 0bea 803e 97fa e13f 41cd d93f
-0.07137203 0.16668963 -0.23770678 0.07082039 -0.12379405 -0.19785017 0.15428728 -0.04534778
-0.12379566 0.11820847 -0.08975324 0.080655485 -0.13580453 -0.21176916 0.107972234 0.21060726
0.10040912 -0.21258396 2.0079834 -0.06423642 -1.402209 1.4459285 -2.060861 2.0036016
-0.05885999 -1.000801 -3.9016464 -0.19242615 -0.13913736 -0.05298662 0.7135372 0.23505536
0.011163533 -0.19401437 -0.32292503 -0.22013468 -0.0893369 -0.14820522 -0.28407148 -0.3211112
-0.08624819 -0.16803628 -0.29997477 -0.037296265 -0.16524655 -0.2267159 -0.15843299 -0.053800404
0.18409947 0.14726731 -0.20682074 0.14768103 -0.5850723 -0.20003003 -0.1708759 -0.29421055
0.14587876 0.034475252 0.17820644 0.24361989 -0.08759898 -0.15931797 -0.29726827 0.40841264
0.21715039 0.07622403 1.53097 -0.47946745 -2.1565971 1.4000355 -2.0085626 1.5794849
0.35754594 -0.35638642 -2.4190137 0.18463913 -0.1255534 0.007738471 0.15981603 1.285332
-0.030128181 0.153555 0.88211673 -0.053071648 -0.6713191 0.38449162 -1.9246386 0.6830702
-0.020177707 -0.59988534 -1.196463 0.20045689 -0.09814972 -0.037995994 -0.10803409 0.3387082
-0.103292674 0.21054965 0.97164947 -0.2642241 -0.25450045 0.4991527 -1.4639405 1.1553767
-0.57924354 0.07672317 -1.787323 0.079993576 0.13683343 -0.16308948 0.40187553 1.3071136
0.24602172 0.011448026 2.0974822 -0.15114343 -1.7686479 1.2344666 -2.2723188 1.8843523
0.13065362 -1.178849 -3.449742 -0.15868598 0.16486779 -0.21659514 0.29242498 0.60608244
0.08822334 0.06771809 0.33189148 -0.28906345 -0.9697323 0.17596832 -1.281376 0.22845884
0.1697254 -0.44252646 -2.8746312 0.06457412 -0.22701123 -0.011948913 -0.007213354 1.6952176
0.01775968 -0.22017807 -0.5699898 -0.19111723 -0.15325089 0.002123922 -0.22978707 -0.486473
0.1643755 -0.22342783 -0.3941 0.038627684 -0.23145321 -0.19409904 0.10019001 0.07398552
-0.21544552 -0.04298833 1.6792796 0.06582294 -1.2389736 1.2682939 -2.065785 1.5696042
0.22561866 -0.97903264 -3.3772523 0.16736564 -0.13324755 -0.1536743 0.51815385 1.4931134
-0.20950654 0.0025828779 0.14449129 0.23243372 0.84335566 -0.38664833 -1.8189657 -0.43775138
-0.13444993 -1.5772672 0.5561757 -0.08240494 -0.08606607 0.39791042 0.5685739 1.9697337
-0.08569151 0.246378 0.18165924 -0.19382435 -0.15543155 -0.22467746 -0.13242507 0.10053331
-0.021196768 -0.059009984 -0.64462006 0.1885271 -0.01755464 0.18283227 0.09857702 0.14791158
0.20132309 0.17749304 -0.14080295 0.037822604 -0.2147016 -0.015568525 -0.16937113 0.15790048
-0.24513215 0.1419954 -0.035948336 0.24556842 -0.21616083 -0.15584537 -0.24500012 -0.21979639
0.17575586 -0.01188764 1.7374368 -0.5127541 -1.1233542 0.7941768 -2.2810583 1.6050158
-0.12143369 -0.34995654 -3.0447981 -0.20136154 -0.16934142 -0.23891485 -0.12779343 0.3470656
0.117492855 -0.13866925 0.18888544 1.6932378 3.3529468 -2.0002885 0.05990511 0.074484825
-0.04514478 -0.2928006 1.2303469 0.13069308 -0.15736498 0.2517856 1.7654599 1.7015764

bias f4 [16]
00000000: ca61 5dbe 8f57 39be 5dd5 27bc d0fd 13be
00000010: d533 a83e 1672 45bf 381d f5be 9c9a 97be
00000020: f889 bfbd 062d 87be c080 29be 0c55 b73d
00000030: c213 c6bd 568a 5cbe a289 07be c83a 86bc
-0.21619335 -0.18099807 -0.010243741 -0.1445229 0.32852045 -0.77127206 -0.47873855 -0.29610145
-0.09352487 -0.26401538 -0.1655302 0.08951768 -0.09671737 -0.21537146 -0.13236097 -0.016385451

weight f4 [2, 16]
00000000: f292 5fbe 968b 3dc0 66f9 323e bad8 443f
00000010: 3127 40c0 450d fdbf 6afb 03c0 0035 51c0
00000020: 6add cbbf 143d 593e c937 58c0 4948 2ebf
00000030: 061d 1bbf 20cf 72bc 9934 46c0 10cf 15c0
00000040: 0a32 793e a28c 5140 1c15 e4bd a8e9 e23d
00000050: 5384 5640 727d 483f 2b4e 5e40 621b 4240
00000060: f259 183f 9840 b3be 970d 3440 def8 ed3f
00000070: d003 3c3c d438 cbbd 79da 1840 cb2f 1940
-0.21833399 -2.9616446 0.1747795 0.768932 -3.002392 -1.9769675 -2.06222 -3.2688599
-1.5926945 0.21214706 -3.3784049 -0.6807905 -0.6059116 -0.01481989 -3.0969603 -2.340763
0.24335495 3.2742085 -0.11136839 0.11079723 3.3518264 0.78316414 3.473521 3.0329213
0.59512246 -0.3501022 2.8133295 1.8591573 0.011475518 -0.099229485 2.3883345 2.393542

bias f4 [2]
00000000: 3067 7fbe 787d 2cbe
-0.24941707 -0.16844738
