checkpoints_all/Mob_live_ttt_1.pt (torch, 12260 bytes, 8 tensors)

weight f4 [16, 36]
0.16261442 -0.03142762 -0.06319724 -0.11261921 0.08704339 0.050393164 -0.07171595 0.0072859377
0.0025509596 0.11832143 -0.13448714 0.14339991 -0.0015165657 -0.16030464 0.161009 0.13268326
0.13742404 -0.00473924 0.036118746 0.031407118 -0.1557431 -0.15179871 -0.045372844 -0.030796707
0.14034553 0.06592393 -0.014161885 0.11703135 0.007387936 0.0061081797 -0.003439784 -0.10758301
0.103712216 0.04051484 -0.06386946 0.043771163 0.009102359 0.024115741 0.01992251 -0.06662677
-0.07262103 0.140593 0.057952628 0.11220272 0.15517531 0.16647466 -0.004131958 -0.10046868
0.11832501 -0.006722629 0.11520065 -0.07106553 -0.111844584 0.099178895 -0.037532285 -0.06325768
0.018292367 0.13085313 -0.019232035 0.06921975 0.10720052 0.019030705 -0.1359965 0.13771938
0.07240872 -0.14524958 0.036377847 -0.07014841 0.1206833 -0.017695174 0.12166329 0.03158045
-0.14680713 -0.045498714 0.1617314 0.15719582 -0.13336647 0.123569116 0.12286545 0.08553846
-0.07494243 0.074626386 0.105667844 -0.099713266 -0.035821214 -0.1110962 -0.0049815625 -0.11719199
0.111745074 -0.14888313 0.16070224 0.09336059 -0.0056933016 -0.027531847 -0.06665616 0.011350974
0.16252704 0.15243126 -0.110432684 0.14836802 0.16277356 0.06392492 -0.15026149 0.015776709
-0.1171543 -0.13117427 0.09885849 0.074276075 0.055426463 0.13587065 -0.07881647 0.040874377
0.11594562 -0.079693615 0.11786018 0.05406715 -0.071714506 -0.08602534 0.099322274 -0.1517851
0.10258351 -0.052440092 -0.09905839 -0.05490713 -0.15814881 0.04366903 -0.037716463 -0.015721485
-0.10423148 0.14208885 -0.13150564 -0.13862711 0.060754895 0.090413764 0.09255095 0.119890764
0.14080955 -0.12251967 0.121632084 -0.13388698 0.052094996 -0.09103086 -0.045569524 -0.13097814
0.07916987 0.053552166 0.12612076 0.024798706 0.029251412 -0.045023583 0.12630676 0.06717025
0.14267306 0.07728028 0.0066460967 -0.12214516 0.056906387 -0.1632806 -0.07343046 -0.02141589
-0.14546315 -0.0816689 0.0038808584 -0.04737489 -0.032941923 -0.14383289 0.16325976 0.022406518
-0.108604595 -0.043124378 -0.08524375 -0.12395855 -0.011095881 -0.14294504 -0.092648074 0.12301166
0.09552251 0.15552865 -0.12253523 0.113635615 -0.08488979 0.077711746 -0.08853668 0.14467959
0.07411526 0.0009396076 -0.06932597 -0.10682583 -0.008345187 -0.082475364 0.010885 0.14363547
0.104258105 0.086416915 -0.06814959 -0.07554029 -0.0720527 -0.16128382 -0.07589804 -0.037644997
-0.11184178 -0.1406411 0.117529705 -0.08807254 -0.08664447 -0.13036144 0.071684495 0.1659125
-0.07518588 -0.11572214 -0.026092932 -0.033612117 -0.13387287 -0.08928679 -0.056174085 -0.050572537
-0.089966655 0.13074635 -0.013296723 -0.045346044 -0.0998895 -0.017488733 0.0441128 0.14037438
-0.16491878 0.07714598 0.029870987 -0.08437338 -0.08434039 -0.15634698 0.05712825 -0.0038312525
0.0017564297 0.101591066 -0.02740638 0.11777063 0.00083087385 0.15323968 0.13931312 0.020221189
-0.061957024 0.08125192 0.07895948 0.017461404 0.0754108 -0.009783804 0.059603572 -0.15096878
0.15919705 -0.10831257 0.115717486 -0.11461674 -0.06322914 0.0614115 -0.02625896 -0.09989475
00000000: 6584 263e 40ba 00bd 8e6d 81bd e6a4 e6bd
00000010: ce43 b23d 1069 4e3d d0df 92bd e0be ee3b
00000020: 002e 273b 8252 f23d ffb6 09be 6dd7 123e
00000030: 80c7 c6ba e626 24be 8bdf 243e 1fde 073e
00000040: e3b8 0c3e a04b 9bbb 40f1 133d c0a4 003d
00000050: 1f7b 1fbe 1f71 1bbe e0d8 39bd 6049 fcbc
00000060: bdb6 0f3e 2003 873d 4007 68bc 22ae ef3d
00000070: 8016 f23b 2027 c83b 006e 61bb 7b54 dcbd
00000080: 1267 d43d e4f2 253d fecd 82bd 6449 333d
00000090: 1022 153c 608e c53c 8834 a33c 9e73 88bd
000000a0: 56ba 94bd 9df7 0f3e bc5f 6d3d 8aca e53d
000000b0: 47e6 1e3e 5578 2a3e 6065 87bb 86c2 cdbd
000000c0: 6254 f23d 8049 dcbb 52ee eb3d ce8a 91bd
000000d0: c60e e5bd 4e1e cb3d 74bb 19bd 3e8d 81bd
000000e0: e0d9 953c 5dfe 053e 808c 9dbc 16c3 8d3d
000000f0: f28b db3d 48e6 9b3c ab42 0bbe 4f06 0d3e
00000100: 064b 943d 4ebc 14be f000 153d f8a9 8fbd
00000110: ce28 f73d 78f5 90bc 9a2a f93d 805a 013d
00000120: 9c54 16be dc5c 3abd eb9c 253e f1f7 203e
00000130: 3891 08be ce11 fd3d e2a0 fb3d ca2e af3d
00000140: 6b7b 99bd b8d5 983d 6268 d83d 7836 ccbd
00000150: 44b9 12bd 6886 e3bd 603c a3bb 5b02 f0bd
00000160: 9ada e43d d274 18be 218f 243e d633 bf3d
00000170: e08e babb 788a e1bc 0683 88bd 70f9 393c
00000180: 7d6d 263e f116 1c3e 882a e2bd c9ed 173e
00000190: 1dae 263e 12eb 823d 26de 19be 283e 813c
000001a0: 98ee efbd 8c52 06be 5276 ca3d 0e1e 983d
000001b0: dc06 633d ad21 0b3e 886a a1bd e46b 273d
000001c0: e674 ed3d 6836 a3bd ae60 f13d 8475 5d3d
000001d0: 0edf 92bd 0e2e b0bd 7a69 cb3d 8e6d 1bbe
000001e0: 4e17 d23d 6ccb 56bd 20df cabd 4ce6 60bd
000001f0: c3f1 21be 4cde 323d 947c 1abd 58ca 80bc
00000200: 5077 d5bd bd7f 113e 6aa9 06be 44f4 0dbe
00000210: 20da 783d da2a b93d 5a8b bd3d 4a89 f53d
00000220: 6130 103e 98eb fabd 3e1a f93d ab19 09be
00000230: 9061 553d 636e babd 1ca7 3abd 221f 06be
00000240: d023 a23d 8459 5b3d cd25 013e a826 cb3c
00000250: a8a0 ef3c a66a 38bd 8f56 013e 8e90 893d
00000260: e318 123e 2045 9e3d 80c7 d93b 3e27 fabd
00000270: ac16 693d 0833 27be b662 96bd 6070 afbc
00000280: 4bf4 14be 0642 a7bd 0056 7e3b 2c0c 42bd
00000290: 1cee 06bd ee48 13be 912d 273e e08d b73c
000002a0: 166c debd 30a3 30bd 4694 aebd fbdd fdbd
000002b0: 80cb 35bc 2f60 12be 46be bdbd 8aed fb3d
000002c0: 4ea1 c33d e742 1f3e c0f3 fabd cab9 e83d
000002d0: b3da adbd 5627 9f3d b852 b5bd e326 143e
000002e0: bec9 973d 0050 763a c6fa 8dbd 80c7 dabd
000002f0: 40ba 08bc d8e8 a8bd 0057 323c 2d15 133e
00000300: 4685 d53d 5afb b03d 0392 8bbd deb4 9abd
00000310: 5e90 93bd 9627 25be 6e70 9bbd a431 1abd
00000320: 4e0d e5bd 3804 10be 6ab3 f03d 605f b4bd
00000330: a872 b1bd 787d 05be 52cf 923d f7e4 293e
00000340: 0efb 99bd bbff ecbd d8c0 d5bc dcac 09bd
00000350: f815 09be fedb b6bd cc16 66bd 2625 4fbd
00000360: 7040 b8bd 5fe2 053e 80da 59bc c6bc 39bd
00000370: de92 ccbd 8844 8fbc a0af 343d 4dbe 0f3e
00000380: 78e0 28be b6fe 9d3d 00b4 f43c f3cb acbd
00000390: a8ba acbd 6c19 20be 50ff 693d c015 7bbb
000003a0: 0038 e63a fa0e d03d 5883 e0bc ba31 f13d
000003b0: 00cf 593a ddea 1c3e 19a8 0e3e e8a6 a53c
000003c0: a6c6 7dbd 6867 a63d 82b5 a13d 380b 8f3c
000003d0: fa70 9a3d 404c 20bc e022 743d 8f97 1abe
000003e0: 8d04 233e fbd2 ddbd 4afd ec3d 2ebc eabd
000003f0: 487e 81bd a08a 7b3d 081d d7bc 9e95 ccbd

bias f4 [16]
0.082774356 0.10818519 0.037996292 0.011654034 0.1459694 -0.0041453093 0.12149419 -0.07236497
0.0721273 -0.08092539 -0.062197708 0.057335258 -0.13327 -0.03985201 -0.16445771 0.057277665
00000000: 9a85 a93d 3290 dd3d 00a2 1b3d 90f0 3e3c
00000010: 0179 153e 60d5 87bb f2d1 f83d 1634 94bd
00000020: 7ab7 933d 36bc a5bd 06c3 7ebd 60d8 6a3d
00000030: ee77 08be dc3b 23bd 9a67 28be fc9b 6a3d

weight f4 [32, 16]
-0.08264291 0.16424221 0.12768912 -0.20530272 -0.111539036 0.21790087 0.16502878 -0.17368606
0.094742596 0.099212736 0.18972272 0.08108768 -0.14554146 0.036536336 -0.11913335 0.19096187
-0.17001939 0.16514847 0.09849408 0.021462202 0.14242923 0.24132618 -0.14907587 0.04466024
-0.073945284 0.13127303 0.10526344 0.053228647 -0.15701976 0.2265282 -0.22406507 -0.048450142
-0.1741204 0.0005275309 -0.14110407 -0.11681342 -0.11864257 0.116478056 0.18335715 0.00048205256
-0.10338768 -0.13920024 -0.011934757 -0.1147967 0.16073957 -0.22750637 0.11249989 0.18497363
-0.038093477 0.13312066 0.15918538 0.2045863 0.23572072 0.1164619 -0.16060671 0.04482603
0.12256211 -0.23194033 0.05826941 0.09493634 -0.14958355 0.13046849 -0.036692172 0.017568916
0.06991449 0.14175564 -0.02378121 -0.1178076 0.17171907 0.14514247 -0.02293399 -0.040999055
0.019015461 0.1679013 0.035580814 0.071768194 -0.00839448 -0.06490782 -0.0073472857 -0.23898059
0.028026044 0.20173717 -0.08630675 -0.22009036 0.049388766 -0.18269739 0.037646055 0.071777344
0.0048527718 -0.118748665 0.18901396 -0.22127351 -0.049566597 0.17186534 -0.06448454 -0.070830524
0.21924299 0.17225778 0.023705542 -0.1354472 -0.15004802 0.20721033 -0.22272483 0.075894326
-0.097845584 0.19480464 -0.122671306 0.21461776 -0.03724286 0.20312086 -0.08225697 0.21413079
0.04474899 0.17458233 0.11130163 0.03709051 0.08610952 -0.01774767 -0.19064847 0.14828116
0.20798719 -0.12607095 0.10794085 0.09336734 -0.15925592 -0.010193437 0.15759858 -0.06259048
-0.08135235 -0.041471004 0.1282304 0.079740435 -0.0124976635 0.16801366 -0.21583018 -0.24975103
0.14740968 0.11268914 0.19510967 0.14539298 0.03764108 -0.22935143 0.13870898 -0.018345654
-0.022532493 -0.028743953 0.15695286 -0.13636783 0.06046307 -0.02190581 0.04291925 0.09118521
-0.008385867 0.15527281 -0.22635588 -0.15290555 -0.013482481 0.088014394 -0.12302208 -0.13918453
0.22476521 -0.004949689 -0.23877731 -0.03320408 -0.23573261 -0.16542995 0.16714436 0.23791847
-0.20070925 -0.15403232 0.14272833 0.07981995 0.04185021 -0.11456725 -0.15133992 -0.17352197
0.053242207 0.20993993 0.22796443 0.05494827 0.16216454 -0.09121379 -0.14511892 0.06558648
-0.02762729 0.024650216 -0.17595384 -0.044895172 -0.03736469 0.018665105 -0.11548105 0.00396505
0.19479498 -0.045772463 -0.10923228 -0.15489492 -0.18940869 0.058368564 0.20592302 0.24952766
-0.122787684 0.1664716 0.021419823 0.12174019 0.04283449 0.22230333 0.24317452 -0.1756903
-0.0076200664 -0.12623993 -0.098908275 -0.069167286 0.22302353 -0.14839888 -0.017846316 0.08133489
-0.22625557 -0.037145257 -0.20476452 0.1569868 -0.19372833 0.24043077 0.23611742 0.041477293
0.18437627 0.017157078 -0.24157208 0.041309655 0.18330994 -0.24823728 -0.12604195 -0.070052624
-0.12986374 0.2414177 -0.04182446 -0.04177755 -0.13025236 -0.090972126 0.083716184 -0.018678606
0.21359879 -0.17491058 -0.22633874 0.070964664 -0.24554905 -0.102740526 -0.03338507 0.17945635
0.19708547 0.13184017 -0.15877855 -0.121631205 0.11174014 -0.24694586 0.1657446 -0.054878652
00000000: b040 a9bd 1c2f 283e f0c0 023e e03a 52be
00000010: 946e e4bd 6821 5f3e 4efd 283e c2da 31be
00000020: 6808 c23d 0c30 cb3d ac46 423e 4c11 a63d
00000030: d208 15be 20a7 153d 30fc f3bd 828b 433e
00000040: 9019 2ebe ae1c 293e 44b7 c93d 80d1 af3c
00000050: f8d8 113e 361e 773e 58a7 18be a8ed 363d
00000060: a070 97bd 706c 063e 5c94 d73d 4806 5a3d
00000070: cac9 20be 02f7 673e 5071 65be a873 46bd
00000080: 9e4c 32be 004a 0a3a 967d 10be e03b efbd
00000090: e0fa f2bd 0c8c ee3d fac1 3b3e 00bc fc39
000000a0: ecbc d3bd 828a 0ebe 008a 43bc 881a ebbd
000000b0: ea98 243e 6ef7 68be 5866 e63d ba69 3d3e
000000c0: e807 1cbd c850 083e 7e01 233e 127f 513e
000000d0: c660 713e 9483 ee3d 1676 24be 809b 373d
000000e0: d801 fb3d c481 6dbe e8ab 6e3d fc6d c23d
000000f0: 6e2c 19be 8899 053e 884a 16bd b0ec 8f3c
00000100: 542f 8f3d 6428 113e d0d0 c2bc 1c45 f1bd
00000110: 20d7 2f3e 3aa0 143e 10e0 bbbc a0ee 27bd
00000120: 50c6 9b3c 52ee 2b3e 30bd 113d 34fb 923d
00000130: 0089 09bc 64ee 84bd 80c1 f0bb 54b7 74be
00000140: e096 e53c 3094 4e3e 98c1 b0bd 5e5f 61be
00000150: e04b 4a3d 0615 3bbe c032 1a3d 0000 933d
00000160: 0004 9f3b 8032 f3bd e08c 413e 8695 62be
00000170: 5806 4bbd 78fd 2f3e 7810 84bd 980f 91bd
00000180: 3c81 603e 5864 303e 2032 c23c acb2 0abe
00000190: 30a6 19be f22e 543e fa11 64be 7c6e 9b3d
000001a0: 4463 c8bd de7a 473e 183b fbbd c2c4 5b3e
000001b0: f88b 18bd eafe 4f3e 5876 a8bd 1a45 5b3e
000001c0: b84a 373d b6c5 323e 1cf2 e33d 38ec 173d
000001d0: 305a b03d 9063 91bc 5a39 43be 04d7 173e
000001e0: 98fa 543e be18 01be 1810 dd3d 6037 bf3d
000001f0: fc13 23be 6002 27bc 8661 213e 702f 80bd
00000200: 109c a6bd 80dd 29bd d44e 033e f44e a33d
00000210: 00c3 4cbc c60b 2c3e 9602 5dbe bcbe 7fbe
00000220: 90f2 163e 90c9 e63d d4ca 473e e6e1 143e
00000230: 882d 1a3d 1adb 6abe ba09 0e3e a049 96bc
00000240: 1096 b8bc 7078 ebbc 40b8 203e 02a4 0bbe
00000250: 20a8 773d d073 b3bc 18cc 2f3d 50bf ba3d
00000260: e064 09bc d6ff 1e3e d6c9 67be 4693 1cbe
00000270: a0e5 5cbc e440 b43d 00f3 fbbd 6486 0ebe
00000280: da28 663e 0031 a2bb 0a82 74be 0001 08bd
00000290: e463 71be 7866 29be e427 2b3e e6a0 733e
000002a0: ba86 4dbe a6ba 1dbe 6027 123e a478 a33d
000002b0: 206b 2b3d 3ca2 eabd daf8 1abe beaf 31be
000002c0: 8014 5a3d 7efa 563e 826f 693e 7011 613d
000002d0: 760e 263e 4cce babd 0e9a 14be 3452 863d
000002e0: a052 e2bc 40ef c93c 3e2d 34be 00e4 37bd
000002f0: b80b 19bd 90e7 983c 5481 ecbd 40ed 813b
00000300: 5678 473e e87b 3bbd 2cb5 dfbd c69c 1ebe
00000310: 5af4 41be e013 6f3d 7cdd 523e 2e84 7f3e
00000320: 1c78 fbbd 8877 2a3e a078 af3c ec52 f93d
00000330: 3873 2f3d 7ca3 633e be02 793e 28e8 33be
00000340: c0b1 f9bb 0a45 01be 6c90 cabd 94a7 8dbd
00000350: 4860 643e e0f5 17be 7032 92bc e892 a63d
00000360: 8aaf 67be a025 18bd caad 51be 26c1 203e
00000370: b860 46be 7c33 763e c4c8 713e 18e4 293d
00000380: 22cd 3c3e 008d 8c3c ac5e 77be 5034 293d
00000390: 9ab5 3b3e ea31 7ebe 2411 01be c077 8fbd
000003a0: 00fb 04be 3436 773e 2050 2bbd f01e 2bbd
000003b0: e060 05be 984f babd 6473 ab3d e003 99bc
000003c0: a4b9 5a3e c21b 33be 58c5 67be ec55 913d
000003d0: 3671 7bbe a069 d2bd c8be 08bd 68c3 373e
000003e0: c6d0 493e 1c01 073e d896 22be c819 f9bd
000003f0: 04d8 e43d 60df 7cbe f4b8 293e 70c8 60bd

bias f4 [32]
0.036496848 0.07134223 0.18263999 0.006507784 0.22664425 0.22947639 -0.097438395 0.24450475
-0.1550887 -0.23145238 -0.08890152 -0.15493268 0.028647631 0.18658671 0.24238002 -0.24568552
0.20169762 -0.09574407 -0.22946629 0.19793627 -0.20712978 0.14405438 -0.028837353 0.21159324
-0.17579848 -0.24924576 -0.1570591 -0.03701189 -0.12558174 -0.02877152 -0.21156779 0.067729235
00000000: b87d 153d e01b 923d fa05 3b3e 403f d53b
00000010: 6e15 683e dcfb 6a3e c88d c7bd 745f 7a3e
00000020: 92cf 1ebe da01 6dbe 0012 b6bd aca6 1ebe
00000030: 70ae ea3c 9610 3f3e 7832 783e fc94 7bbe
00000040: d289 4e3e 7815 c4bd 36f9 6abe ceaf 4a3e
00000050: d419 54be fe82 133e 503c ecbc e6ab 583e
00000060: 8404 34be 483a 7fbe 1ad4 20be c899 17bd
00000070: 8098 00be 40b2 ebbc 3aa5 58be a0b5 8a3d

weight f4 [16, 32]
-0.17281795 0.03259702 0.10827105 -0.08019529 0.09335594 -0.13109872 -0.01561828 0.029257283
-0.10001279 -0.1232283 -0.039591745 0.051407754 0.16065733 0.022631675 -0.025692493 0.13357072
-0.062025554 0.1016898 -0.062353417 -0.01794973 0.038477108 -0.14785923 -0.046938613 0.1271512
0.031146944 -0.06861119 -0.13178356 0.17578675 -0.038035586 -0.079220034 0.1432801 0.07686968
-0.15038583 0.041130245 -0.080534704 -0.11094338 -0.06345444 0.07966919 -0.025244325 0.103808746
-0.0731844 0.0016427934 0.15498842 0.019086853 0.0041719526 -0.06620166 -0.12725109 -0.0075356215
-0.025448754 -0.12150407 0.13930087 -0.020504251 0.05172725 0.0062995255 0.08383958 0.14042814
0.123142734 -0.0009903014 0.00036084652 -0.11898382 0.11813654 0.06680693 -0.03178133 0.13081004
0.11840133 0.05857061 0.035183936 0.083626285 0.09817989 0.041740716 0.019637614 0.16440831
0.14484935 0.0009847432 -0.03804271 -0.0951087 0.12845604 -0.08085531 -0.08913477 -0.016122207
-0.11880309 0.07712962 0.16651492 -0.14728165 -0.031083032 0.0074763 0.05985613 0.12069918
0.029702887 0.11422543 0.15195273 -0.05573377 -0.056558162 -0.066117406 -0.03619671 0.044922978
0.08365761 0.15905048 0.08542518 0.00060480833 -0.07674924 -0.05247563 -0.0660349 0.15507267
-0.16894284 -0.1137983 -0.16099574 0.09440629 0.14775826 0.024991795 0.068527505 0.13774057
0.076014265 -0.057143435 0.12593399 0.07947485 0.12509544 0.07989712 -0.14475062 0.10051952
-0.052988343 0.13404559 -0.16584907 -0.051998883 0.007466927 0.0021511614 0.07888715 -0.15267827
0.048624396 -0.055115245 -0.114462286 -0.17566489 0.16343816 -0.12756261 -0.11993754 0.05887276
-0.09282346 -0.0992305 -0.10657914 -0.17324796 -0.15063024 -0.00026515126 -0.04196547 0.09789203
-0.16705486 -0.1229401 0.10035138 0.14209415 0.024447724 0.05588101 0.1282234 -0.16547439
-0.07110521 0.072260335 0.16279621 0.14465876 -0.06263903 0.029012695 -0.10732168 0.038921818
-0.10604625 -0.11224218 0.16428994 -0.1632071 0.16874553 -0.15186241 -0.17177372 0.10779919
-0.02851002 -0.020905867 -0.13554269 -0.16444445 0.023779362 0.04519175 0.07287072 -0.1013783
-0.16522063 0.11546941 0.033384204 -0.17017736 0.13914637 0.02299206 0.04902917 0.029207215
-0.077832036 -0.10730944 -0.09929268 -0.0938872 -0.07080076 -0.1378371 -0.10715912 -0.034462422
0.14342909 0.061251238 0.042751282 0.052137524 0.1269782 0.17345347 -0.012126476 0.16835286
0.013631433 -0.07447477 0.13710229 -0.124870196 -0.06619087 0.17287321 -0.08696785 0.05196254
-0.1287114 0.08936678 -0.12607957 -0.10417204 -0.0011205226 0.024751708 0.062577695 -0.09445663
-0.03214635 -0.012545869 -0.14834468 -0.03946148 0.0014701635 -0.0037564486 0.08788745 0.13224049
-0.058738247 -0.04625781 -0.15726738 -0.121869996 0.11434509 0.09914474 0.13254566 0.04493937
-0.053936645 -0.15461329 -0.12385266 0.02155763 -0.09365299 0.1653427 0.0065594465 -0.12757036
-0.048872262 0.030975595 -0.11291827 -0.14916877 0.018051207 -0.01777172 0.04003866 0.016659558
-0.11581081 -0.036730856 -0.011641443 -0.05775155 0.095064625 -0.015556514 -0.072841555 -0.031474486
00000000: 30f7 30be 7484 053d 36bd dd3d 6e3d a4bd
00000010: 6631 bf3d be3e 06be d0e3 7fbc f8ac ef3c
00000020: 81d3 ccbd 1e5f fcbd f42a 22bd f090 523d
00000030: 5b83 243e 1066 b93c 1079 d2bc c3c6 083e
00000040: 820e 7ebd be42 d03d 4c66 7fbd 500b 93bc
00000050: 2c9a 1d3d 6968 17be b442 40bd ed33 023e
00000060: e027 ff3c 0684 8cbd 45f2 06be 7101 343e
00000070: 34cb 1bbd 1d3e a2bd 05b8 123e da6d 9d3d
00000080: befe 19be 3078 283d 61ef a4bd 4836 e3bd
00000090: 67f4 81bd 9a29 a33d 30cd cebc ae99 d43d
000000a0: b4e1 95bd 0053 d73a 49b5 1e3e 085c 9c3c
000000b0: e0b4 883b bc94 87bd 1c4e 02be 60ed f6bb
000000c0: e879 d0bc 20d7 f8bd e3a4 0e3e 88f8 a7bc
000000d0: f4df 533d 406c ce3b 16b4 ab3d 65cc 0f3e
000000e0: 4232 fc3d 00cd 81ba 0030 bd39 caad f3bd
000000f0: 92f1 f13d 12d2 883d 242d 02bd 11f3 053e
00000100: 667c f23d bce7 6f3d 081d 103d 4244 ab3d
00000110: 8a12 c93d 50f8 2a3d 10df a03c a75a 283e
00000120: 6353 143e 8012 813a acd2 1bbd 5ac8 c2bd
00000130: fb89 033e 7897 a5bd 4a8c b6bd b812 84bc
00000140: 094f f3bd 22f6 9d3d e382 2a3e 00d1 16be
00000150: d8a1 febc c0fb f43b b42b 753d 2231 f73d
00000160: 7853 f33c 06ef e93d 7f99 1b3e 1849 64bd
00000170: 88a9 67bd 9068 87bd 0043 14bd 2801 383d
00000180: ae54 ab3d 21de 223e 66f3 ae3d 008c 1e3a
00000190: b52e 9dbd b0f0 56bd 4e3d 87bd 5fcb 1e3e
000001a0: 5aff 2cbe 150f e9bd 11dc 24be 1658 c13d
000001b0: f14d 173e 98bb cc3c 2658 8c3d dd0b 0d3e
000001c0: 5ead 9b3d 3c0f 6abd d7f4 003e b6c3 a23d
000001d0: 0519 003e 1aa1 a33d 8239 14be 2edd cd3d
000001e0: 4e0a 59bd 3f43 093e 57d4 29be c8fc 54bd
000001f0: 20ad f43b 80fa 0c3b 968f a13d b157 1cbe
00000200: 602a 473d 86c0 61bd 346b eabd 7fe1 33be
00000210: 555c 273e c69f 02be d0a1 f5bd 9024 713d
00000220: 3a1a bebd 5c39 cbbd 2a46 dabd ea67 31be
00000230: d03e 1abe 0004 8bb9 fce3 2bbd 9e7b c83d
00000240: 6e10 2bbe 05c8 fbbd 0685 cd3d 2181 113e
00000250: 9846 c83c 7ce3 643d ff4c 033e 1e72 29be
00000260: 9c9f 91bd 3afd 933d 0db4 263e 6d21 143e
00000270: e448 80bd 08ac ed3c 78cb dbbd 7c6c 1f3d
00000280: c72e d9bd 3adf e5bd 9f3b 283e c31f 27be
00000290: a1cb 2c3e d281 1bbe 73e5 2fbe d2c5 dc3d
000002a0: d88d e9bc c842 abbc b4cb 0abe 2064 28be
000002b0: f0cc c23c fc1a 393d 3e3d 953d 6d9f cfbd
000002c0: 992f 29be 3a7b ec3d e0bd 083d f942 2ebe
000002d0: 637c 0e3e d859 bc3c d0d2 483d f843 ef3c
000002e0: 6766 9fbd 0dc5 dbbd f659 cbbd ef47 c0bd
000002f0: fdff 90bd 2b25 0dbe 3e76 dbbd 7828 0dbd
00000300: 13df 123e 94e2 7a3d f81b 2f3d 288e 553d
00000310: 9306 023e c99d 313e 20ae 46bc b164 2c3e
00000320: 6056 5f3c 3a86 98bd 8b64 0c3e f2bb ffbd
00000330: 148f 87bd ad05 313e 331c b2bd acd6 543d
00000340: eccc 03be ee05 b73d 011b 01be 2758 d5bd
00000350: 80de 92ba 18c4 ca3c bc28 803d 7a72 c1bd
00000360: e4ab 03bd 308d 4dbc abe7 17be 5ca2 21bd
00000370: 80b2 c03a c02e 76bb 56fe b33d 0d6a 073e
00000380: 8497 70bd d478 3dbd b30a 21be fa96 f9bd
00000390: c22d ea3d 660c cb3d 0dba 073e 5812 383d
000003a0: acec 5cbd f252 1ebe 77a6 fdbd a099 b03c
000003b0: 24cd bfbd 994f 293e a0f0 d63b cea1 02be
000003c0: 482e 48bd 88c0 fd3c b241 e7bd b3bf 18be
000003d0: 20e0 933c 0096 91bc 94ff 233d a079 883c
000003e0: 382e edbd 1873 16bd c0bb 3ebc e48c 6cbd
000003f0: 3eb1 c23d c0e0 7ebc f42d 95bd 64eb 00bd

bias f4 [16]
-0.12372024 -0.084284425 0.09624474 -0.14680347 -0.10115819 0.1370518 -0.12096651 -0.13573878
0.14211373 0.08855583 0.14988579 -0.107896015 0.16155495 -0.17632258 -0.113198765 -0.039538383
00000000: 0a61 fdbd 509d acbd f61b c53d a653 16be
00000010: 062c cfbd 4f57 0c3e 4abd f7bd 1bff 0abe
00000020: 4386 113e c25c b53d a97b 193e 96f8 dcbd
00000030: a96e 253e e88d 34be c1d4 e7bd 00f3 21bd

weight f4 [2, 16]
0.16360098 0.12465769 0.1406846 -0.14883375 -0.22933188 -0.024387479 -0.14701027 -0.07825154
0.23989046 0.21328971 -0.10626057 -0.10193345 0.055869192 -0.07794863 -0.11942294 -0.02774337
-0.1059109 0.24733421 -0.07061416 0.06047517 0.1967566 -0.09612128 0.007202506 -0.1797145
-0.059218615 -0.20611975 0.17866379 0.07080445 -0.16407919 0.11759031 -0.06345886 -0.057560354
00000000: 0487 273e 884c ff3d a00f 103e e067 18be
00000010: fad5 6abe 40c8 c7bc dc89 16be 5842 a0bd
00000020: d8a5 753e 9e68 5a3e 249f d9bd 7cc2 d0bd
00000030: 18d7 643d 88a3 9fbd 0494 f4bd 1046 e3bc
00000040: d0e7 d8bd 2e45 7d3e 289e 90bd d0b4 773d
00000050: 907a 493e 3cdb c4bd 0003 ec3b 1407 38be
00000060: 388f 72bd 0e11 53be a4f3 363e ec01 913d
00000070: 6004 28be 30d3 f03d b8f6 81bd 68c4 6bbd

bias f4 [2]
0.16057247 -0.009629041
00000000: 1c6d 243e 20c3 1dbc
