checkpoints_all/morf_live_ttt_1.pt (torch, 12260 bytes, 8 tensors)

weight f4 [16, 36]
-0.026080117 0.14903302 -0.03463763 0.041947946 0.028662026 0.07083513 -0.15589921 -0.14939913
0.05267127 0.06840491 -0.06582441 0.15880717 -0.05355239 -0.14905402 0.03674124 0.07258056
0.16573195 0.12360437 0.08691706 -0.10934504 -0.044584833 0.004994288 0.076458514 0.07209474
0.09448202 -0.054450095 -0.1403309 -0.0041324943 -0.07591264 -0.06871629 -0.05763819 -0.1607672
-0.019579113 -0.10914169 -0.093874715 0.09617774 -0.04563453 0.008770466 -0.010872304 0.15848438
0.014058948 -0.13528824 -0.119062304 0.09385122 -0.15468727 -0.14919892 0.029780567 -0.038033888
0.0006567985 -0.04636818 0.11133404 0.10684572 0.06995182 0.13517465 0.15551905 0.051414862
-0.057369456 0.044800654 -0.053555652 -0.036803737 -0.048451245 0.16051216 -0.09928914 0.1652752
-0.044913992 -0.16140088 0.05277492 0.07661019 0.09014858 -0.09970504 0.08358325 0.04075159
-0.089377105 0.061803356 -0.07644018 0.03448659 0.13454051 -0.009017423 -0.08494862 -0.1476213
0.07712893 -0.08987268 -0.16240996 -0.026222154 -0.03009957 -0.098002136 -0.03646891 -0.07801449
-0.0766507 0.12629898 0.15550919 0.085075095 0.11425896 -0.035103723 -0.07648786 -0.09374617
0.0050287396 -0.05843725 -0.16277264 -0.052535377 -0.051361583 -0.025136694 -0.046677694 -0.053727746
-0.14083567 0.10988803 0.16092418 -0.06992283 0.053638414 0.16122366 0.13354065 -0.082947314
-0.1623536 -0.14458254 -0.16146469 -0.121717334 0.020063743 -0.119404495 -0.04808291 -0.10656744
0.09936927 0.10251026 0.07907091 0.13390748 -0.008376375 -0.07786524 -0.048328996 -0.11930017
0.10881792 0.023305953 0.1533946 0.03346248 -0.08843607 0.1229576 -0.005997613 -0.14886388
0.061721638 0.10155921 0.05484289 -0.12357591 -0.05563321 0.00832127 0.046897948 0.07587059
0.0027227253 -0.04263775 0.06980379 -0.13774382 0.02743046 0.14479758 -0.035229683 -0.14343862
-0.005242303 -0.012380019 -0.005423948 -0.1352996 0.14617239 0.12202187 -0.027191445 -0.03780192
0.06914927 0.11640759 -0.1658768 0.039482698 0.14305972 0.13784118 -0.15819055 0.02575159
-0.08768898 0.07791513 0.15367348 0.11964832 0.09230606 0.13726927 -0.12638223 -0.15979186
-0.02040571 0.09632109 0.11945881 -0.11005801 -0.031092182 -0.006123379 0.050374046 0.01630421
-0.035072014 -0.079001784 -0.073573336 0.027477488 -0.14635208 0.07066262 -0.14531872 -0.15657602
0.03221853 -0.12431073 -0.12605953 0.048272237 -0.09750919 -0.10138714 -0.03839825 0.089786604
0.14111073 0.05700952 0.14600058 0.049766526 -0.1362606 -0.060616933 0.06361616 0.118984714
0.08396734 0.05084534 -0.11711489 0.0668267 0.07015483 0.011984631 0.07187922 -0.15531641
0.0028893799 -0.14346938 -0.11498736 -0.00059844553 0.060453475 0.14349903 0.105357185 0.14853029
-0.073994696 -0.0035814643 -0.027445331 0.030311778 -0.064182006 0.017809153 -0.09273946 0.05105941
-0.052496195 0.0060060024 -0.13082746 -0.087062225 -0.1651974 -0.04629787 0.047877625 0.015249297
0.06548089 -0.06134832 -0.034563184 0.13515027 -0.0655635 -0.078353725 0.15609582 0.010050103
-0.1511983 -0.099573314 -0.05621686 0.038667798 0.13751562 0.1476884 -0.03365457 -0.0393288
00000000: f8a5 d5bc 1d9c 183e 30e0 0dbd 9cd1 2b3d
00000010: a0cc ea3c 0212 913d 0ba4 1fbe 16fc 18be
00000020: d4bd 573d e017 8c3d f3ce 86bd 599e 223e
00000030: c059 5bbd 9ea1 18be fc7d 163d 1ea5 943d
00000040: a3b5 293e 4a24 fd3d 9201 b23d 4bf0 dfbd
00000050: 969e 36bd 20a7 a33b 4896 9c3d 68a6 933d
00000060: ca7f c13d 1007 5fbd e7b2 0fbe e069 87bb
00000070: 1678 9bbd 20bb 8cbd 0616 6cbd 28a0 24be
00000080: 6064 a0bc ae85 dfbd 6341 c0bd d6f8 c43d
00000090: 46eb 3abd 00b2 0f3c c021 32bc bb49 223e
000000a0: 8057 663c 0089 0abe f0d6 f3bd 1235 c03d
000000b0: 5766 1ebe 9ac7 18be 60f6 f33c 6cc9 1bbd
000000c0: 002d 2c3a 90ec 3dbd 1a03 e43d eed1 da3d
000000d0: e642 8f3d 396b 0a3e 6340 1f3e 6498 523d
000000e0: 3cfc 6abd e480 373d 2c5d 5bbd 84bf 16bd
000000f0: d074 46bd 4d5d 243e 1b58 cbbd e73d 293e
00000100: bcf7 37bd 4646 25be 842a 583d cee5 9c3d
00000110: d29f b83d 2832 ccbd b22d ab3d 24eb 263d
00000120: 580b b7bd 8425 7d3d ab8c 9cbd d041 0d3d
00000130: fdc4 093e d0bd 13bc 8bf9 adbd 0a2a 17be
00000140: c6f5 9d3d 2b0f b8bd cc4e 26be d8cf d6bc
00000150: 6093 f6bc 58b5 c8bd 6c60 15bd 10c6 9fbd
00000160: 0bfb 9cbd 8554 013e cd3d 1f3e da3b ae3d
00000170: 9a00 ea3d ecc8 0fbd aba5 9cbd fefd bfbd
00000180: 20c8 a43b e65b 6fbd dfad 26be 562f 57bd
00000190: 8660 52bd 78eb cdbc 1c31 3fbd a011 5cbd
000001a0: 3a37 10be fa0c e13d 4fc9 243e b333 8fbd
000001b0: f4b3 5b3d d117 253e e1be 083e 48e0 a9bd
000001c0: 0640 26be 720d 14be 0057 25be f046 f9bd
000001d0: b85c a43c 588a f4bd 96f2 44bd 0840 dabd
000001e0: 1e82 cb3d e6f0 d13d eeef a13d 0b1f 093e
000001f0: 103d 09bc d077 9fbd a0f4 45bd a653 f4bd
00000200: eedb de3d 20ec be3c 7913 1d3e f40f 093d
00000210: f81d b5bd 32d1 fb3d a087 c4bb c66f 18be
00000220: d4cf 7c3d 46fe cf3d f0a2 603d 5e15 fdbd
00000230: a6df 63bd f055 083c 1018 403d 0a62 9b3d
00000240: c06f 323b eca4 2ebd 4af5 8e3d b70c 0dbe
00000250: d8b5 e03c d145 143e 004d 10bd 93e1 12be
00000260: a0c7 abbb 90d5 4abc 60bb b1bb fa8b 0abe
00000270: 37ae 153e 9ae6 f93d 98c0 debc 30d6 1abd
00000280: 229e 8d3d 1a67 ee3d 9cdb 29be 9cb8 213d
00000290: 3f7e 123e 3d26 0d3e b4fc 21be 00f5 d23c
000002a0: 4896 b3bd f891 9f3d 955c 1d3e 2e0a f53d
000002b0: f60a bd3d 5190 0c3e 586a 01be 7aa0 23be
000002c0: e029 a7bc fe43 c53d d2a6 f43d 1866 e1bd
000002d0: 08b5 febc a0a6 c8bb 0455 4e3d 6890 853c
000002e0: aca7 0fbd b0cb a1bd 9ead 96bd 7818 e13c
000002f0: 52dd 15be 90b7 903d 6ece 14be 7755 20be
00000300: 94f7 033d a096 febd c015 01be 1cb9 453d
00000310: e6b2 c7bd 10a4 cfbd 7c47 1dbd 0ae2 b73d
00000320: 557f 103e d082 693d 2d81 153e fcd7 4b3d
00000330: e687 0bbe 7649 78bd 3049 823d 42ae f33d
00000340: 12f7 ab3d 3443 503d eed9 efbd 70dc 883d
00000350: 56ad 8f3d 305b 443c 6a35 933d 440b 1fbe
00000360: c05b 3d3b a3e9 12be 7e7e ebbd 00e1 1cba
00000370: 109e 773d 69f1 123e 82c5 d73d 5318 183e
00000380: 888a 97bd 00b7 6abb 08d5 e0bc 6850 f83c
00000390: db71 83bd 80e4 913c 30ee bdbd ac23 513d
000003a0: 4006 57bd 00ce c43b a2f7 05be ae4d b2bd
000003b0: 8229 29be d6a2 3dbd 541b 443d 30d8 793c
000003c0: d81a 863d 6048 7bbd 2092 0dbd d564 0a3e
000003d0: 2846 86bd eb77 a0bd 95d7 1f3e 30a9 243c
000003e0: bad3 1abe 18ed cbbd a643 66bd 2062 1e3d
000003f0: e5d0 0c3e a13b 173e 60d9 09bd 3c17 21bd

bias f4 [16]
0.086371616 0.13921352 0.09238087 0.13921995 0.033944964 -0.13232827 0.024178073 -0.025622427
-0.07500617 -0.024267629 -0.045247436 0.08774869 0.04403533 -0.038147137 0.02643907 0.088141814
00000000: 9ae3 b03d fd8d 0e3e 2e32 bd3d ad8f 0e3e
00000010: e009 0b3d 1081 07be 1811 c63c 20e6 d1bc
00000020: d69c 99bd e8cc c6bc 6055 39bd 96b5 b33d
00000030: 645e 343d 2c40 1cbd c096 d83c b283 b43d

weight f4 [32, 16]
0.10077968 0.1943301 -0.18329659 0.15961403 0.058251947 -0.13298005 0.16233537 -0.08797172
-0.15031469 0.08023816 0.22605246 -0.09661791 -0.18997878 0.17924592 -0.06211105 0.16712853
0.23699751 -0.08265439 -0.10959798 -0.096512705 0.14185736 -0.12882406 0.15282553 0.22125068
0.16441473 0.059535533 0.0686709 0.047445327 0.0923875 0.041252643 -0.12282908 0.048526973
0.037106156 0.069918156 -0.089568675 0.10273051 0.22710311 0.23365024 0.20470169 -0.23147365
0.092542976 0.21028551 -0.15119335 -0.1164929 -0.110571474 -0.0038998723 -0.23281607 0.1085166
0.11288038 -0.065510094 0.23357663 0.079838425 0.23707601 -0.027211756 0.060339183 -0.13588232
-0.24643683 0.015995175 0.17308426 0.17535174 -0.08038083 0.12408924 0.15197638 0.051362276
-0.065476805 0.03044352 0.1286898 0.03433144 0.13867965 -0.23920614 -0.1883057 -0.11982137
-0.2167832 0.0064266026 -0.24484137 0.0018925369 -0.007359296 -0.18155771 0.025658727 -0.07417524
-0.07775387 0.21649706 0.014021933 0.12126306 -0.095528156 -0.064802885 0.036111385 -0.13119957
-0.016000062 -0.04418969 -0.1419082 -0.10257009 0.15220207 -0.24995458 -0.15424955 -0.05125779
-0.09060627 0.18614882 -0.21584126 -0.11876544 0.17828053 0.109559804 0.057861537 0.03999248
-0.19409353 -0.039042473 -0.04919672 -0.19467184 -0.16689828 0.22842318 0.13258412 0.106012076
-0.17457712 0.1614145 -0.1809507 0.17593938 -0.114168674 -0.17878214 0.03245291 -0.08946115
0.06680611 0.13039139 0.008796781 -0.16222233 0.15877068 0.17342588 -0.22960734 -0.14313698
-0.05638483 0.11754382 -0.14044747 -0.13282394 -0.15865484 0.11105409 -0.17552319 0.21171847
0.047652155 0.19938514 0.093942195 -0.019734979 0.24487871 0.13985232 -0.21929312 0.018660992
0.20989752 -0.061306715 -0.13117248 -0.1901069 -0.23355398 -0.14174086 0.0064939857 0.0962742
-0.0045190454 0.07886943 -0.10089201 0.24998471 0.17983526 -0.1454584 -0.0676702 0.044940114
0.05390182 0.2224235 -0.107782274 -0.21819028 0.18708703 -0.02326572 0.10707161 0.00036290288
-0.24486607 0.18535906 -0.092848 -0.09688398 0.19839042 -0.21207407 -0.17288631 -0.024710596
-0.18852285 0.24412909 -0.11522505 -0.056335777 -0.20263827 -0.04551679 0.12962833 -0.21652696
-0.13352954 -0.013439953 -0.23190272 -0.1351459 0.24654037 -0.24977142 0.06413895 -0.018040687
0.12025812 0.067834675 0.057020307 0.0717828 0.1610249 0.1552558 0.09210268 0.08643934
0.1306411 -0.109092265 0.21482629 0.12464744 0.07823685 0.040673584 0.193571 0.014821291
-0.12245417 0.033297956 -0.17212334 -0.09163618 -0.21565887 0.058997214 -0.19004798 -0.24479985
0.20464942 0.00310269 -0.031682193 0.136812 -0.1047259 -0.20121327 0.08106664 -0.22285566
0.179214 -0.0022982657 0.074424386 0.1254924 -0.16613305 0.069220155 0.1726054 -0.103559375
0.13491544 -0.012479216 0.19417527 0.033225924 0.22865352 0.23723704 -0.09821394 -0.23138559
0.1681377 -0.20786262 -0.032448232 0.092276305 -0.20245785 -0.13007802 0.0068375766 -0.030415744
-0.111536235 0.18382761 0.16962266 -0.14682204 -0.008228451 -0.051401168 0.009115636 0.11233714
00000000: 9465 ce3d 78fe 463e 1ab2 3bbe dc71 233e
00000010: 9899 6e3d ec2b 08be 3e3b 263e 842a b4bd
00000020: 18ec 19be e853 a43d 4c7a 673e 9cdf c5bd
00000030: cc89 42be 3e8c 373e 2868 7ebd be23 2b3e
00000040: 7aaf 723e b446 a9bd e874 e0bd 74a8 c5bd
00000050: 0e43 113e 74ea 03be 4c7e 1c3e 8a8f 623e
00000060: 565c 283e 88db 733d 54a3 8c3d 0856 423d
00000070: a835 bd3d 88f8 283d d08d fbbd 38c4 463d
00000080: a0fc 173d 4031 8f3d c86f b7bd 6064 d23d
00000090: b88d 683e 0242 6f3e 529d 513e 6e07 6dbe
000000a0: 2c87 bd3d 1655 573e 6ed2 1abe d493 eebd
000000b0: 4c73 e2bd 0095 7fbb 5667 6ebe f43d de3d
000000c0: d42d e73d 282a 86bd b62e 6f3e 5482 a33d
000000d0: 0ec4 723e 30eb debc 3826 773d bc24 0bbe
000000e0: f059 7cbe 5008 833c 003d 313e 688f 333e
000000f0: b49e a4bd 8022 fe3d b29f 1b3e 4061 523d
00000100: b418 86bd b064 f93c 42c7 033e 209f 0c3d
00000110: 0a02 0e3e 74f2 74be 36d3 40be e864 f5bd
00000120: 6afc 5dbe 4096 d23b b2b7 7abe 000f f83a
00000130: 4026 f1bb 44ea 39be 4032 d23c 30e9 97bd
00000140: 6c3d 9fbd 68b1 5d3e 40bc 653c c458 f83d
00000150: 44a4 c3bd 60b7 84bd 88e9 133d 2e59 06be
00000160: 9012 83bc 4000 35bd 6250 11be 4410 d2bd
00000170: dcda 1b3e 18f4 7fbe 98f3 1dbe b0f3 51bd
00000180: c88f b9bd cc9d 3e3e 7e05 5dbe 4c3b f3bd
00000190: 2c8f 363e e460 e03d 3800 6d3d 28cf 233d
000001a0: 74c0 46be 00eb 1fbd 8082 49bd 0e58 47be
000001b0: 62e7 2abe c4e7 693e 22c4 073e dc1c d93d
000001c0: 58c4 32be d849 253e 244b 39be 7429 343e
000001d0: 44d1 e9bd aa12 37be 58ed 043d 6837 b7bd
000001e0: a4d1 883d 5285 053e 6020 103c 9c1d 26be
000001f0: c894 223e 8e96 313e 301e 6bbe 8092 12be
00000200: c8f3 66bd d0ba f03d 76d1 0fbe 0003 08be
00000210: 6a76 22be 5470 e33d 5abc 33be bacc 583e
00000220: e82e 433d 9e2b 4c3e c464 c03d 40ab a1bc
00000230: 7cc1 7a3e 7235 0f3e 608e 60be f0de 983c
00000240: 60ef 563e c01c 7bbd 1452 06be 62ab 42be
00000250: c628 6fbe 8424 11be 80cb d43b 682b c53d
00000260: 8014 94bb 4c86 a13d 78a0 cebd fefb 7f3e
00000270: bc26 383e 0cf3 14be ac96 8abd 2013 383d
00000280: 28c8 5c3d fcc2 633e f4bc dcbd 466d 5fbe
00000290: be93 3f3e c097 bebc 5c48 db3d 0044 be39
000002a0: 2cbe 7abe c4ce 3d3e 1827 bebd 1c6b c6bd
000002b0: dc26 4b3e f229 59be 1c09 31be e06d cabc
000002c0: 220c 41be fafc 793e 1cfb ebbd 58c0 66bd
000002d0: 6880 4fbe d06f 3abd 4abd 043e 3eb9 5dbe
000002e0: f8bb 08be 4033 5cbc e877 6dbe b063 0abe
000002f0: 1475 7c3e 14c4 7fbe 485b 833d 10ca 93bc
00000300: e449 f63d e8ec 8a3d 208e 693d dc02 933d
00000310: b6e3 243e 60fb 1e3e 54a0 bc3d 1c07 b13d
00000320: c8c6 053e c46b dfbd 6cfb 5b3e 2847 ff3d
00000330: a43a a03d 5899 263d 7a37 463e 00d5 723c
00000340: 40c9 fabd 7063 083d 1a41 30be c0ab bbbd
00000350: aed5 5cbe 10a7 713d f09b 42be d0ac 7abe
00000360: 9e8f 513e 8056 4b3b 30c5 01bd 7218 0c3e
00000370: 887a d6bd da0a 4ebe 4406 a63d 4634 64be
00000380: e083 373e 809e 16bb d06b 983d 1481 003e
00000390: c81e 2abe 4cc3 8d3d 78bf 303e f016 d4bd
000003a0: 4627 0a3e a075 4cbc e2d5 463e e817 083d
000003b0: 2624 6a3e 44ee 723e 6424 c9bd 58f0 6cbe
000003c0: 4a2c 2c3e f0d9 54be 70e8 04bd 5cfb bc3d
000003d0: 1c51 4fbe 2c33 05be c00d e03b 702a f9bc
000003e0: 1c6d e4bd 4e3d 3c3e 90b1 2d3e 8458 16be
000003f0: a0d0 06bc 088a 52bd c059 153c 0411 e63d

bias f4 [32]
-0.1426453 -0.18704343 -0.0141786635 -0.17406234 0.21815795 0.18554068 0.17643294 0.1606915
0.09640604 -0.12728691 -0.13523215 0.1679143 -0.076051265 -0.11143461 0.22865704 -0.047907025
-0.062173843 -0.22947013 0.018757105 -0.22312021 -0.22551805 -0.090310454 -0.2219407 -0.20964569
0.117179066 -0.040154845 0.013659835 -0.15663686 -0.07217899 -0.09124616 -0.1277751 -0.042374045
00000000: 9c11 12be 5088 3fbe a04d 68bc 663d 32be
00000010: cc64 5f3e 60fe 3d3e d6aa 343e 508c 243e
00000020: 8870 c53d 8057 02be 4c7a 0abe baf1 2b3e
00000030: c4c0 9bbd d437 e4bd 1225 6a3e 283a 44bd
00000040: 00aa 7ebd 38fa 6abe 80a8 993c a079 64be
00000050: 34ee 66be b0f4 b8bd 6c44 63be 5cad 56be
00000060: 94fb ef3d 6879 24bd 80cd 5f3c 6a65 20be
00000070: 94d2 93bd 44df babd 7ad7 02be 6890 2dbd

weight f4 [16, 32]
0.13750403 -0.02810356 -0.14303304 -0.11328394 -0.027227983 -0.09504957 -0.14791276 -0.13297528
0.040940106 0.07149494 -0.14435034 -0.09721387 -0.08725112 -0.13165972 0.116836265 0.02599293
-0.004518062 0.05243671 -0.021343559 0.13656463 0.12126796 -0.05856905 -0.17593206 0.08828415
-0.1344243 -0.14154778 -0.035708725 0.17312394 0.06056057 0.05220169 0.16063295 0.09781979
-0.13800214 0.15790977 0.019857258 -0.034867704 0.12946282 0.016467467 -0.100154795 0.101215824
-0.022457004 -0.045195386 -0.12277575 0.03799191 0.16754048 -0.07355331 -0.13988304 0.1764154
-0.11742516 -0.15501425 0.1628982 0.1525126 0.08427931 -0.015474334 0.119754866 -0.16512555
0.05450207 0.1539178 -0.03010805 -0.15968248 0.023218453 0.09999056 -0.10973128 -0.16853283
0.061901346 -0.038232267 0.052406535 0.058780253 0.076609775 -0.09322343 0.07575248 -0.065966055
-0.07189807 -0.06845527 0.06362474 0.10614531 0.14440678 0.07217167 0.17003848 0.06921457
-0.07437384 0.0009146482 0.030548185 0.16797827 0.11205818 0.0026588738 -0.0939057 0.034283698
-0.014951915 -0.11431964 -0.11572029 0.14377461 0.0008455515 -0.09093098 0.023890898 0.10182364
0.036537394 -0.114568636 0.17298408 0.004485935 -0.1302927 0.17549087 0.060229704 0.04518597
-0.15078422 -0.11225963 0.048929334 0.09762134 -0.1760679 -0.06463952 0.14691322 -0.1090973
-0.07295409 0.010388881 0.165285 -0.05158879 0.10801412 0.1424383 -0.039314583 -0.17184338
0.1215186 0.15609638 0.11167033 -0.03774354 -0.07513607 0.116840854 0.0644736 -0.049822196
0.14209987 -0.015991718 -0.030073985 -0.10114664 0.092037365 -0.060216866 0.08756755 -0.124547265
0.13522153 -0.1470076 -0.086965635 0.16857578 -0.04198405 -0.1005942 -0.09613555 0.15464671
0.0033549666 -0.12953539 -0.073111124 -0.030539498 -0.07106146 -0.14336054 0.023978814 0.011387363
-0.08170795 -0.03643079 -0.018306687 -0.15022169 -0.028759763 -0.1431528 0.015183806 0.0035826564
-0.03079027 0.026054591 0.16092657 0.13072808 -0.17331758 0.0038223118 0.08067311 -0.09561398
0.1696976 0.01929243 0.1529014 -0.008642882 -0.018978849 0.009736687 0.14278267 0.1026686
-0.16919905 0.12795304 0.10894613 0.026361406 0.1419218 0.17437612 0.065425605 0.05883786
-0.119674414 -0.13714154 -0.1462499 -0.045599103 -0.018593252 -0.16323628 0.0124705285 -0.009688258
-0.029043183 0.16125076 -0.11414506 0.15918551 0.16542311 -0.04633212 -0.035447583 -0.13419434
0.019784763 -0.08501668 -0.04114224 0.09933622 -0.08211475 -0.058336213 0.16253482 0.036260307
0.11467941 -0.13694896 -0.171282 0.09873171 -0.16164982 0.1039118 -0.13997191 -0.13077676
0.10282685 0.15913223 -0.17372866 0.16436304 -0.16932097 0.13663311 -0.030125976 -0.015792146
0.09813847 -0.11961977 -0.029535875 0.08453621 0.06070018 -0.09564188 -0.16597171 0.15950857
-0.050605804 0.034690022 0.13279657 -0.07161405 0.13847493 0.105500355 0.13321252 0.16494288
-0.118197694 -0.03485942 0.039442897 0.026678845 0.07942803 0.10221638 0.046070322 0.034922525
-0.11031514 0.15229891 0.15089364 -0.090134576 0.11352594 0.0027466416 0.038080767 0.046267167
00000000: dbcd 0c3e 7039 e6bc 4177 12be 6901 e8bd
00000010: 380d dfbc 59a9 c2bd 7176 17be ac2a 08be
00000020: d0b0 273d f06b 923d 93d0 13be 1118 c7bd
00000030: b7b0 b2bd ced1 06be da47 ef3d 20ef d43c
00000040: 400c 94bb e0c7 563d b0d8 aebc 99d7 0b3e
00000050: 565b f83d 1ae6 6fbd 8927 34be 52ce b43d
00000060: 86a6 09be e7f1 10be 5043 12bd 6747 313e
00000070: 5c0e 783d 70d1 553d f77c 243e be55 c83d
00000080: 6f50 0dbe 19b3 213e b0ab a23c 70d1 0ebd
00000090: e791 043e c8e6 863c f51d cdbd 3e4a cf3d
000000a0: c0f7 b7bc cc1e 39bd da71 fbbd 689d 1b3d
000000b0: bb8f 2b3e 1ea3 96bd 803d 0fbe 3da6 343e
000000c0: 9a7c f0bd 0ebc 1ebe c9ce 263e 432c 1c3e
000000d0: a29a ac3d 1088 7dbc 0a42 f53d ac16 29be
000000e0: 903d 5f3d a19c 1d3e 28a5 f6bc ce83 23be
000000f0: a034 be3c dac7 cc3d cbba e0bd df93 2cbe
00000100: 448c 7d3d 7099 1cbd 3ca8 563d 90c3 703d
00000110: 96e5 9c3d edeb bebd 1e24 9b3d 3619 87bd
00000120: 4c3f 93bd 4732 8cbd b04d 823d b662 d93d
00000130: 5fdf 133e bece 933d 911e 2e3e 5ec0 8d3d
00000140: 5051 98bd 00c5 6f3a 3040 fa3c 7f02 2c3e
00000150: c27e e53d 8040 2e3b a251 c0bd 106d 0c3d
00000160: e0f8 74bc 6a20 eabd c2fe ecbd a739 133e
00000170: 00a8 5d3a 063a babd d8b6 c33c ea88 d03d
00000180: 3ca8 153d f6a2 eabd bd22 313e c0fe 923b
00000190: 736b 05be e1b3 333e 6cb3 763d ec14 393d
000001a0: 2e67 1abe 60e8 e5bd 206a 483d b2ed c73d
000001b0: 254b 34be ba61 84bd 6b70 163e 686e dfbd
000001c0: f468 95bd 2036 2a3c 7940 293e c44e 53bd
000001d0: 8236 dd3d 59db 113e 5408 21bd b6f7 2fbe
000001e0: bede f83d bbd7 1f3e 6ab3 e43d f898 1abd
000001f0: f1e0 99bd 424a ef3d bc0a 843d 5c12 4cbd
00000200: a182 113e 1001 83bc b85d f6bc f825 cfbd
00000210: 167e bc3d f6a5 76bd 9e56 b33d a312 ffbd
00000220: 8377 0a3e 2989 16be 0a1b b2bd 219f 2c3e
00000230: 78f7 2bbd 5504 cebd b7e2 c4bd b55b 1e3e
00000240: 00df 5b3b eda4 04be 49bb 95bd f82d fabc
00000250: ac88 91bd 1bcd 12be 386f c43c 1092 3a3c
00000260: 7f56 a7bd 7438 15bd e8f7 95bc b7d3 19be
00000270: 9899 ebbc a696 12be 80c5 783c 00cb 6a3b
00000280: e03b fcbc 7070 d53c efc9 243e 95dd 053e
00000290: 2a7a 31be c07f 7a3b f237 a53d 43d1 c3bd
000002a0: 35c5 2d3e 280b 9e3c 2f92 1c3e e09a 0dbc
000002b0: 8879 9bbc a086 1f3c 9f35 123e ea43 d23d
000002c0: 8442 2dbe 1f06 033e 261f df3d e0f3 d73c
000002d0: f353 113e a78f 323e dcfd 853d f8ff 703d
000002e0: dc17 f5bd d56e 0cbe 89c2 15be 20c6 3abd
000002f0: e050 98bc 6927 27be 3051 4c3c 80bb 1ebc
00000300: f8eb edbc eb1e 253e e3c4 e9bd 8701 233e
00000310: ad64 293e c0c6 3dbd 7c31 11bd 3e6a 09be
00000320: a813 a23c 3a1d aebd c484 28bd ca70 cb3d
00000330: c72b a8bd f4f1 6ebd 876f 263e b085 143d
00000340: 0add ea3d 593c 0cbe 8c64 2fbe da33 ca3d
00000350: 8887 25be b6cf d43d cc54 0fbe 58ea 05be
00000360: e296 d23d 8ff3 223e ede5 31be c94e 283e
00000370: 7a62 2dbe 8de9 0b3e c0ca f6bc 885e 81bc
00000380: d2fc c83d 36fb f4bd 38f5 f1bc 5221 ad3d
00000390: c0a0 783d e4df c3bd 7df4 29be 3756 233e
000003a0: 0848 4fbd 2017 0e3d d3fb 073e 63aa 92bd
000003b0: 5fcc 0d3e 9210 d83d dd68 083e c9e6 283e
000003c0: a211 f2bd c0c8 0ebd e08e 213d 988d da3c
000003d0: 2aab a23d d256 d13d 3cb4 3c3d ec0a 0f3d
000003e0: e7ec e1bd 3ff4 1b3e dd83 1a3e 7a98 b8bd
000003f0: 4a80 e83d 0001 343b 94fa 1b3d a482 3d3d

bias f4 [16]
0.1187485 -0.16552958 -0.10326755 -0.17258291 0.14066999 -0.05485326 0.12463166 -0.14068462
-0.13187122 -0.14893821 0.15157984 -0.08913072 -0.16330513 0.05626221 -0.03836234 0.059699774
00000000: 6a32 f33d 9680 29be f07d d3bd 93b9 30be
00000010: cb0b 103e d0ad 60bd e23e ff3d a10f 10be
00000020: 4009 07be 4283 18be bf37 1b3e 2b8a b6bd
00000030: 7639 27be 3473 663d d421 1dbd c087 743d

weight f4 [2, 16]
0.07608318 0.13291389 0.026680022 0.15862155 -0.17669901 -0.17396268 -0.16053158 -0.09057605
-0.029267132 -0.017905891 -0.044443905 -0.013021886 -0.1457912 -0.010550529 -0.10644564 -0.110339165
-0.0498178 -0.08911428 -0.22507992 0.14445621 0.17840877 -0.16011506 0.08875656 0.016061723
0.025342286 -0.05696097 0.155714 -0.16766906 0.10541707 0.11297482 0.12594393 0.06408727
00000000: 80d1 9b3d 941a 083e 1090 da3c b06d 223e
00000010: 96f0 34be 4623 32be 6462 24be f07f b9bd
00000020: a0c1 efbc 60af 92bc d00a 36bd c059 55bc
00000030: 4a4a 15be 20dc 2cbc 2c00 dabd 80f9 e1bd
00000040: c00d 4cbd 8c81 b6bd 5a7b 66be 54ec 133e
00000050: cab0 363e 34f5 23be 00c6 b53d e093 833c
00000060: a09a cf3c e84f 69bd 7e73 1f3e 70b1 2bbe
00000070: e8e4 d73d 585f e73d 72f7 003e 3040 833d

bias f4 [2]
0.06850499 0.21977323
00000000: 584c 8c3d 3c0c 613e
