checkpoints_all/Something_live_mc_2.pt (torch, 6108 bytes, 6 tensors)

weight f4 [16, 5]
0.4156071 0.3046049 -0.4128195 0.43399888 -0.43679577 0.07456839 0.25946403 -0.44547004
0.16019565 -0.18884346 0.14266324 -6.3997903 -0.03470154 0.40699524 -0.34864253 1.044452
2.2859442 -0.29856664 0.29400414 0.13327684 2.9709888 5.965234 0.176697 -0.3702044
0.62182283 -2.3720174 -7.2434306 -0.4548872 0.37296712 0.40167472 -2.4358585 1.5662622
0.39119887 0.27831674 0.2724338 -0.11420144 -6.4988356 -0.27771407 -0.09823549 -0.46168286
0.63887084 -0.48715502 -0.3862052 0.112395346 -0.34280577 -0.113415346 4.017603 -0.028399035
-0.084223 0.15197396 -0.06153971 5.936866 0.36303723 -0.30838948 -0.85473704 -0.17561516
-0.41220984 0.08116597 -0.1705665 -0.16218969 0.29075664 -0.41912043 -0.35764557 -0.3449201
0.00332053 0.06059718 -0.08713865 0.24173176 0.06925553 0.10483503 1.0953205 1.9983612
-0.4642736 -0.048868567 -0.014900789 0.020415306 5.1889005 -0.47401765 -0.30187342 -0.4084038
00000000: 74ca d43e 2cf5 9b3e 145d d3be 1a35 de3e
00000010: b2a3 dfbe 50b7 983d 78d8 843e a614 e4be
00000020: 540a 243e 2e60 41be 5016 123e 15cb ccc0
00000030: 3423 0ebd ae61 d03e 4681 b2be 9ab0 853f
00000040: e94c 1240 badd 98be b687 963e b979 083e
00000050: ae24 3e40 32e3 be40 0ff0 343e 6e8b bdbe
00000060: c82f 1f3f 22cf 17c0 2fca e7c0 fae6 e8be
00000070: 8cf5 be3e 4fa8 cd3e 1be5 1bc0 487b c83f
00000080: 384b c83e 887f 8e3e 717c 8b3e 72e2 e9bd
00000090: 76f6 cfc0 8a30 8ebe b02f c9bd b261 ecbe
000000a0: 0a8d 233f 626c f9be b0bc c5be 882f e63d
000000b0: 3d84 afbe 4e46 e8bd 3490 8040 18a5 e8bc
000000c0: 1c7d acbd 109f 1b3e 1011 7cbd cefa bd40
000000d0: 04e0 b93e 3ae5 9dbe 0cd0 5abf 76d4 33be
000000e0: 2b0d d3be 583a a63d fca8 2ebe 0e15 26be
000000f0: 0ede 943e f496 d6be 521d b7be 5e99 b0be
00000100: 409d 593b c034 783d c075 b2bd 8888 773e
00000110: d8d5 8d3d c0b3 d63d 7633 8c3f 4dca ff3f
00000120: 45b5 edbe 682a 48bd 7022 74bc 003e a73c
00000130: 790b a640 71b2 f2be 278f 9abe 4e1a d1be

bias f4 [16]
0.11053538 -0.22590193 -0.54118335 -0.24024183 0.10305396 0.099523425 1.0250295 -0.09045614
-0.20947526 -0.6589085 0.0026864782 -0.3097608 -0.3196735 -0.25411636 0.3585568 -0.6431397
00000000: 6060 e23d d652 67be fe8a 0abf f401 76be
00000010: f40d d33d f0d2 cb3d 2b34 833f 1241 b9bd
00000020: af80 56be 3aae 28bf a00f 303b f898 9ebe
00000030: 3fac a3be 8a1b 82be c294 b73e cea4 24bf

weight f4 [16, 16]
-0.07137203 0.16668963 -0.23770678 0.07082039 -0.12379405 -0.19785017 -0.24569604 -0.04534778
-0.12379566 0.11820847 -0.48957795 0.080655485 -0.13580453 -0.21176916 0.107972234 0.21060726
0.10040912 -0.21258396 2.0079834 -0.06377375 -1.7855561 1.0279155 -2.6272526 2.0036016
-0.05885999 -1.000801 -3.9016464 -0.19242615 -0.13913736 -0.05298662 0.35556325 0.18526
0.011163533 -0.19401437 -0.32292503 -0.22013468 -0.0893369 -0.14820522 -0.28407148 -0.3211112
-0.08624819 -0.16803628 -0.29997477 -0.037296265 -0.16524655 -0.2267159 -0.15843299 -0.053800404
0.18409947 0.14726731 -0.20682074 0.14768103 -0.18508375 -0.20003003 -0.1708759 -0.29421055
0.14587876 0.034475252 -0.22176519 0.24361989 -0.08759898 0.23922023 0.10270038 0.0084551275
0.21715039 0.07622403 1.53097 -0.20309415 -1.8253969 0.9914001 -2.5728815 1.5794849
0.35754594 -0.35638642 -2.4190137 0.18463913 -0.1255534 0.007738471 0.46447176 1.2531226
-0.030128181 0.153555 0.88211673 0.18712634 -0.30220914 0.36744547 -2.2036352 0.6830702
-0.020177707 -0.59988534 -1.196463 0.20045689 -0.09814972 -0.037995994 0.22919886 0.27235433
-0.103292674 0.21054965 0.97164947 -0.018532276 -0.5745798 0.48917782 -1.6255978 1.1553767
-0.57924354 0.07672317 -1.787323 0.079993576 0.13683343 -0.16308948 0.2730109 1.272022
0.24602172 0.011448026 2.0974822 0.13113686 -1.4089997 1.2258005 -2.4454765 1.8843523
0.13065362 -1.178849 -3.449742 -0.15868598 0.16486779 -0.21659514 0.6236364 0.57303995
0.08822334 0.06771809 0.33189148 -0.06428489 -0.6053338 0.15610677 -1.5737928 0.22845884
0.1697254 -0.44252646 -2.8746312 0.06457412 -0.22701123 -0.011948913 0.3213485 1.6194704
0.01775968 -0.22017807 -0.5699898 -0.19111723 -0.15325089 0.002123922 -0.22978707 -0.486473
0.1643755 -0.22342783 -0.3941 0.038627684 -0.23145321 -0.19409904 0.10019001 0.07398552
-0.21544552 -0.04298833 1.6792796 0.0663507 -1.6200298 1.2478244 -2.2453816 1.5696042
0.22561866 -0.97903264 -3.3772523 0.16736564 -0.13324755 -0.1536743 0.1655321 1.4371645
-0.20950654 0.0025828779 0.14449129 0.40031362 0.4433599 -0.40627646 -2.0440636 -0.43775138
-0.13444993 -1.5772672 0.956166 -0.08240494 -0.08606607 -0.0015484393 0.16858521 1.969752
-0.08569151 0.246378 0.18165924 -0.19382435 -0.15543155 -0.22467746 -0.13242507 0.10053331
-0.021196768 -0.059009984 -0.64462006 0.1885271 -0.01755464 0.18283227 0.09857702 0.14791158
0.20132309 0.17749304 -0.14080295 0.037822604 -0.2147016 -0.015568525 -0.16937113 0.15790048
-0.24513215 0.1419954 -0.035948336 0.24556842 -0.21616083 -0.15584537 -0.24500012 -0.21979639
0.17575586 -0.01188764 1.7374368 -0.23409545 -0.7547153 0.7844896 -2.475369 1.6050158
-0.12143369 -0.34995654 -3.0447981 -0.20136154 -0.16934142 -0.23891485 0.21340457 0.30952692
0.117492855 -0.13866925 0.18888544 1.919229 2.9529493 -2.0154486 -0.5659668 0.074484825
-0.04514478 -0.2928006 0.83037287 0.13069308 -0.15736498 -0.14791283 1.3654662 1.701668
00000000: 802b 92bd b0b0 2a3e 6869 73be 480a 913d
00000010: bc87 fdbd 3c99 4abe be97 7bbe 98be 39bd
00000020: 9488 fdbd 4817 f23d f6a9 fabe b42e a53d
00000030: 5810 0bbe 04da 58be 8c20 dd3d 6ea9 573e
00000040: 4ca3 cd3d 9caf 59be cd82 0040 d09b 82bd
00000050: 1a8d e4bf bc92 833f e824 28c0 023b 0040
00000060: 2c17 71bd 3f1a 80bf 93b4 79c0 5c0b 45be
00000070: 067a 0ebe 8008 59bd 630c b63e ccb4 3d3e
00000080: 40e7 363c b4ab 46be 6e56 a5be fc6a 61be
00000090: 44f6 b6bd 1cc3 17be d171 91be b068 a4be
000000a0: e4a2 b0bd b411 2cbe 4b96 99be f8c3 18bd
000000b0: 6436 29be 3628 68be 423c 22be d05d 5cbd
000000c0: 9284 3c3e 3ecd 163e d1c8 53be b239 173e
000000d0: 9886 3dbe acd4 4cbe 18fa 2ebe c4a2 96be
000000e0: 3e61 153e ec35 0d3d 6a16 63be 7e77 793e
000000f0: 1867 b3bd 26f6 743e 9454 d23d 6087 0a3c
00000100: ac5c 5e3e 581b 9c3d d3f6 c33f eaf7 4fbe
00000110: 9ba6 e9bf 66cc 7d3f 17aa 24c0 902c ca3f
00000120: 4310 b73e 4878 b6be 1fd1 1ac0 0a12 3d3e
00000130: 1291 00be 0093 fd3b 3ecf ed3e 5266 a03f
00000140: 60cf f6bc 863d 1d3e 67d2 613f 0c9e 3f3e
00000150: 28bb 9abe d021 bc3e 5c08 0dc0 b0dd 2e3f
00000160: b84b a5bc 1692 19bf b325 99bf 9244 4d3e
00000170: b802 c9bd b0a1 1bbd 1bb3 6a3e 0772 8b3e
00000180: 1c8b d3bd 549a 573e 05be 783f 00d1 97bc
00000190: a917 13bf 8475 fa3e 9713 d0bf 62e3 933f
000001a0: 4e49 14bf 0a21 9d3d 00c7 e4bf acd3 a33d
000001b0: 101e 0c3e ee00 27be 16c8 8b3e 9ed1 a23f
000001c0: 1eed 7b3e 8090 3b3c 263d 0640 be48 063e
000001d0: 1a5a b4bf 08e7 9c3f b082 1cc0 7532 f13f
000001e0: 10ca 053e 86e4 96bf 93c8 5cc0 947e 22be
000001f0: 1ad3 283e 1ecb 5dbe a3a6 1f3f bfb2 123f
00000200: 70ae b43d c8af 8a3d aeed a93e cca7 83bd
00000210: 28f7 1abf 74da 1f3e 0b72 c9bf 1df1 693e
00000220: 7fcc 2d3e d492 e2be f5f9 37c0 703f 843d
00000230: a275 68be 60c5 43bc ca87 a43e ce4a cf3f
00000240: c07c 913c 5c76 61be daea 11bf 3cb4 43be
00000250: cded 1cbe 8031 0b3b 4d4d 6bbe fd12 f9be
00000260: 0d52 283e 44ca 64be 7ac7 c9be 1038 1e3d
00000270: 1202 6dbe e6c1 46be 6c30 cd3d b885 973d
00000280: c09d 5cbe 8814 30bd a2f2 d63f e0e2 873d
00000290: 235d cfbf b6b8 9f3f 55b4 0fc0 cae8 c83f
000002a0: 9408 673e e2a1 7abf e724 58c0 e661 2b3e
000002b0: 0c72 08be cc5c 1dbe 3f81 293e 02f5 b73f
000002c0: e288 56be 8045 293b 86f5 133e e8f5 cc3e
000002d0: 1200 e33e 7803 d0be f0d1 02c0 f320 e0be
000002e0: 3ead 09be e4e3 c9bf 4cc7 743f ecc3 a8bd
000002f0: 6843 b0bd 00f5 caba 9aa1 2c3e d520 fc3f
00000300: 087f afbd 844a 7c3e e104 3a3e e479 46be
00000310: 7329 1fbe d911 66be 709a 07be 68e4 cd3d
00000320: d8a4 adbc 74b4 71bd d205 25bf 400d 413e
00000330: c0ce 8fbc 6238 3b3e c0e2 c93d 2276 173e
00000340: a427 4e3e bcc0 353e a62e 10be e0eb 1a3d
00000350: bcda 5bbe 2013 7fbc a06f 2dbe aab0 213e
00000360: ec03 7bbe 3e67 113e 903e 13bd 4a76 7b3e
00000370: 4459 5dbe ee95 1fbe 50e1 7abe 4e12 61be
00000380: 58f9 333e 60c4 42bc 5464 de3f b8b6 6fbe
00000390: 0635 41bf 4fd4 483f 726c 1ec0 2871 cd3f
000003a0: 3ab2 f8bd 812d b3be f9dd 42c0 b831 4ebe
000003b0: d667 2dbe 18a6 74be ba86 5a3e 507a 9e3e
000003c0: 18a0 f03d 50ff 0dbe 2f6b 413e 4ca9 f53f
000003d0: 1ffd 3c40 1cfd 00c0 33e3 10bf 808b 983d
000003e0: bce9 38bd f6e9 95be 5193 543f 68d4 053e
000003f0: 4924 21be 7676 17be 99c7 ae3f 42d0 d93f

bias f4 [16]
-0.22417971 -0.50920194 -0.010243741 0.25522134 0.34743106 -0.5052124 -0.25360683 -0.055781886
0.20152211 -0.26401538 -0.31201494 0.051770553 -0.09671737 -0.21537146 0.09280224 0.2856181
00000000: 5e8f 65be 0f5b 02bf 5dd5 27bc 5fac 823e
00000010: 7ce2 b13e 9a55 01bf c1d8 81be 8c7b 64bd
00000020: d05b 4e3e 062d 87be 6cc0 9fbe 5c0d 543d
00000030: c213 c6bd 568a 5cbe 1a0f be3d 893c 923e

weight f4 [2, 16]
0.18162051 -2.9645407 0.1747795 0.36902097 -4.14049 -1.8463327 -2.7791307 -3.1842563
-2.3168125 0.21214706 -3.7797027 -1.4797157 -0.6059116 -0.01481989 -3.0319467 -1.9407278
-0.15658358 3.6563742 -0.11136839 0.11079723 3.735354 1.5288901 3.4398565 3.0118008
0.5578229 -0.3501022 2.79609 2.4234724 0.011475518 -0.099229485 2.356851 2.007793
00000000: bafa 393e 09bb 3dc0 66f9 323e 51f0 bc3e
00000010: e57e 84c0 a154 ecbf 47dd 31c0 dbca 4bc0
00000020: a846 14c0 143d 593e a6e6 71c0 5367 bdbf
00000030: 061d 1bbf 20cf 72bc 6a0b 42c0 c569 f8bf
00000040: 7257 20be 0902 6a40 1c15 e4bd a8e9 e23d
00000050: 0a10 6f40 acb2 c33f 9c26 5c40 58c1 4040
00000060: 7bcd 0e3f 9840 b3be 23f3 3240 2c1a 1b40
00000070: d003 3c3c d438 cbbd a6d6 1640 ae7f 0040

bias f4 [2]
-0.4895273 0.06939278
00000000: 52a3 fabe cd1d 8e3d
