aggregated_results/Tomato/Tomato_live_ttt_1.pt (torch, 12260 bytes, 8 tensors)

weight f4 [16, 36]
0	0x3b4d9440	0.0031368881
1	0x3c07fc30	0.008299872
2	0xbdf16dd0	-0.11788523
3	0xbe040582	-0.12892726
4	0xbd8d0486	-0.068856284
5	0x3bca9b20	0.006183043
6	0x3d7dd314	0.061968878
7	0x3cfa1ec8	0.030532256
8	0xbde228ae	-0.11042915
9	0xbb1a93c0	-0.00235866
10	0xbe1642fe	-0.14673993
11	0x3bc1eba0	0.0059179813
12	0x3d0d7d90	0.034543574
13	0xbda4108b	-0.08010968
14	0xbe243d06	-0.16038904
15	0xbd1bacd0	-0.038006604
16	0x3df95c2e	0.12175785
17	0x3cb938c0	0.022610068
18	0x3d094790	0.033515513
19	0xbd481e9c	-0.048857316
20	0x3dc15d5a	0.094416335
21	0xbc78b450	-0.015179709
22	0xbd5314d6	-0.051533543
23	0xbe20d92c	-0.15707844
24	0x3c9bab08	0.019002452
25	0xbd6ea56c	-0.058263227
26	0x3e053813	0.13009672
27	0x3dab6352	0.08368553
28	0xbdf27cdb	-0.118402205
29	0x3e08237d	0.13294788
30	0x3e0562b5	0.13025935
31	0x3ddd40aa	0.10803349
32	0x3de237b2	0.11045779
33	0x3cc2c1e8	0.023774102
34	0x3d3084e0	0.04309547
35	0x3dff1096	0.124543354
36	0x3e0bb7a9	0.1364428
37	0xbd2e77dc	-0.042594776
38	0x3d584124	0.052796498
39	0x3d34c51c	0.04413329
40	0xbe16d3fe	-0.14729306
41	0xbdc0975b	-0.09403869
42	0xbd5d990c	-0.054101035
43	0xbde9215b	-0.11383315
44	0x3df25a92	0.11833681
45	0xbd20367c	-0.03911446
46	0x3e245529	0.16048111
47	0xbd407ac6	-0.046992086
48	0xbd6f1530	-0.058369815
49	0xbe036980	-0.12833214
50	0xbe17e076	-0.14831719
51	0xbd21b700	-0.039481163
52	0xbe19e73c	-0.15029615
53	0x3d97da8a	0.0741473
54	0x3e027cc1	0.12742902
55	0x3dd2267e	0.10261248
56	0xbd3a4fbc	-0.045486197
57	0x3db810ea	0.08987601
58	0xbddda7e8	-0.10823041
59	0xbd9595f6	-0.073039934
60	0xbd126cfc	-0.035748467
61	0xbd9f295e	-0.07771562
62	0x3dd36cb6	0.10323469
63	0x3dcbc3a2	0.099494234
64	0x3d8b2696	0.06794469
65	0xbdc33086	-0.095307395
66	0xbe23eb44	-0.16007715
67	0x3e27d339	0.16389169
68	0xbe1710da	-0.14752522
69	0xbdab7a66	-0.08372955
70	0x3e016183	0.12634854
71	0xbd9589f3	-0.07301702
72	0x3d67d1c4	0.056596532
73	0x3d160554	0.036626175
74	0xba5a0700	-0.0008317083
75	0xbdf1ab3b	-0.11800238
76	0xbd45ad70	-0.048261106
77	0x3dc20802	0.094741836
78	0xbde3feb3	-0.111325644
79	0x3e18b165	0.1491142
80	0xbe19fc86	-0.15037736
81	0xbdaf69db	-0.08565112
82	0xbd2f29f0	-0.042764604
83	0xbdd76d5b	-0.10518905
84	0xbe0d10a8	-0.13775885
85	0x3e1ebbbf	0.15501307
86	0xbd97a588	-0.074046195
87	0x3e0fe843	0.14053445
88	0xbe25b2ba	-0.1618146
89	0x3daa7026	0.08322172
90	0xbe07a707	-0.1324731
91	0x3e042401	0.1290436
92	0x3d558b04	0.05213453
93	0xbda93cfb	-0.08263584
94	0xbdbb7c4b	-0.091545664
95	0xbe26fd7c	-0.16307634
96	0x3def379a	0.11680527
97	0xbe08fcae	-0.1337764
98	0x3bb01700	0.0053738356
99	0x3e1221b3	0.14270668
100	0xbe07b303	-0.13251881
101	0x3de2cb0a	0.11073883
102	0x3c513080	0.012767911
103	0xbce50640	-0.027957082
104	0xbb06d000	-0.0020570755
105	0xbdb7da66	-0.08977203
106	0xbdbf1f0b	-0.09332093
107	0x3db57036	0.08859293
108	0xbc91e420	-0.017808974
109	0xbe107b74	-0.14109594
110	0x3d45e320	0.048312306
111	0x3c37c370	0.0112160295
112	0xbe09ef78	-0.13470256
113	0xbde4f4fe	-0.11179541
114	0xbdb09543	-0.086222194
115	0xbcf05198	-0.029335782
116	0xbc5f3270	-0.013622865
117	0xbd88d1c6	-0.06680636
118	0xbc98bbc0	-0.018644214
119	0xbdd09a20	-0.10185647
120	0xbdf0c503	-0.11756327
121	0xbdf77b2b	-0.12084039
122	0x3da9a822	0.08284022
123	0xbe1bc513	-0.15211897
124	0xbd4fa7a6	-0.05069699
125	0xbdf58046	-0.11987357
126	0xbdc3878b	-0.09547337
127	0xbd38b020	-0.04508984
128	0xbd93606e	-0.07196127
129	0x3e23c41d	0.1599278
130	0xbdbbacb6	-0.09163801
131	0xbde7d1a8	-0.11319286
132	0xbd204220	-0.03912556
133	0xbe0c93c8	-0.13728249
134	0x3e16df01	0.14733507
135	0xbda92a8e	-0.0826007
136	0x3da165f8	0.07880777
137	0xbe232a4c	-0.15934104
138	0xbe29aedb	-0.16570608
139	0xbe274d40	-0.16338062
140	0x3d8215fa	0.06351848
141	0x3e29bad9	0.16575183
142	0xbdafc460	-0.085823774
143	0xbe0dd6e4	-0.13851506
144	0x3e07930f	0.13239692
145	0xbdd5ad98	-0.10433501
146	0xbcae7008	-0.021293655
147	0x3e08c6d9	0.13357104
148	0x3e17f905	0.14841087
149	0xbd97cac8	-0.07411724
150	0x3d84ef5a	0.06490965
151	0x3e219e29	0.1578299
152	0x3e0188b3	0.12649803
153	0x3df089ca	0.11745031
154	0xbd9b0863	-0.07569959
155	0x3d17a504	0.037022606
156	0x3e03b945	0.12863643
157	0xbcd6ff68	-0.026244834
158	0xbc841320	-0.0161224
159	0x3bc3a720	0.0059708506
160	0xbe1ebf96	-0.15502772
161	0xbd42b94c	-0.047539994
162	0x3dcec546	0.10096221
163	0xbe148746	-0.14504728
164	0xbdac3866	-0.08409195
165	0xbd251790	-0.040305674
166	0x3bb9ec20	0.0056739002
167	0xbbefefa0	-0.0073222667
168	0xbb02c100	-0.0019951463
169	0xbd8f788b	-0.070054136
170	0x3d84e3de	0.06488775
171	0x3cf55660	0.029948413
172	0x3dfe3032	0.12411536
173	0x3c3b2eb0	0.011424705
174	0xbc944780	-0.0181005
175	0xbdd6b4de	-0.104837164
176	0xbd911550	-0.07084143
177	0xbe1cdb9c	-0.1531815
178	0xbd134fb0	-0.035964668
179	0xbe06b966	-0.13156661
180	0x3daefa5a	0.085438445
181	0x3c924548	0.017855301
182	0xbd437c8c	-0.0477262
183	0x3e289043	0.16461281
184	0xbe06ea83	-0.13175397
185	0xbe09cafb	-0.13456337
186	0x3c68cfb0	0.014209673
187	0x3daaf87e	0.083481774
188	0xbe154846	-0.14578351
189	0xbe27e8d3	-0.16397409
190	0x3d8175fe	0.06321333
191	0xbda8866b	-0.08228763
192	0xbdfa9f3b	-0.12237402
193	0x3c47b690	0.012189522
194	0x3babcfe0	0.0052432865
195	0x3e0b592b	0.13608234
196	0x3dff472a	0.12464745
197	0xbe2850ca	-0.16437069
198	0x3b84f860	0.004057929
199	0x3de89756	0.1135699
200	0xbd1f2bc0	-0.038860083
201	0x3da34e08	0.07973868
202	0x3ddfaeaa	0.109219864
203	0xbdcba776	-0.0994405
204	0xbe072740	-0.13198566
205	0xbd9164e6	-0.07099323
206	0xbc9c0478	-0.0190451
207	0xbd8ad956	-0.06779735
208	0xbdea58cb	-0.11442717
209	0x3dcf4f1a	0.10122509
210	0xbd1e055c	-0.03857933
211	0xbe262cce	-0.16228029
212	0x3da12900	0.07869148
213	0x3dfcb39a	0.12338944
214	0x3d824e82	0.063626304
215	0xbd8ee473	-0.06977167
216	0x3cba0580	0.0227077
217	0x3d5db1c4	0.05412461
218	0x3e125219	0.1428913
219	0xbb532140	-0.0032215863
220	0xbdb3f348	-0.087866366
221	0xbd1e3884	-0.038628116
222	0xbdc04d43	-0.093897365
223	0x3dafa07a	0.0857553
224	0xbd9dfa88	-0.07713801
225	0xbe12f85a	-0.14352551
226	0xbde92f13	-0.11385932
227	0x3ca8c6a8	0.02060254
228	0x3d8e491e	0.0694754
229	0xbdc4a7d8	-0.09602326
230	0xbe29bac8	-0.16575158
231	0x3e01d885	0.12680252
232	0xbd644460	-0.05572927
233	0x3d8040d2	0.062623635
234	0xbe0a131c	-0.13483852
235	0x3d8a064a	0.06739481
236	0xbe2784f3	-0.1635931
237	0x3d80fbbe	0.06298016
238	0xbce0c4e0	-0.027437627
239	0x3d4c10e0	0.04982078
240	0x3da9ca6a	0.082905605
241	0xbe1b2206	-0.15149698
242	0x3deae952	0.114702836
243	0x3e030c5d	0.12797685
244	0x3e2481c1	0.16065122
245	0x3d6d8af4	0.057993844
246	0x3d344480	0.04401064
247	0x3e05ac17	0.13053928
248	0x3ce76fd8	0.028251573
249	0x3dae4622	0.085094705
250	0x3d7dcff4	0.061965898
251	0x3deba2c2	0.11505653
252	0xbdf67d50	-0.1203562
253	0x3dc07d7e	0.09398936
254	0x3d2c8924	0.042122975
255	0x3c17b6f0	0.009259924

bias f4 [16]
0	0x3d847a1e	0.064686045
1	0x3de3e87e	0.11128329
2	0x3e1875d5	0.148887
3	0xbd0036e0	-0.031302333
4	0x3d2b199c	0.04177247
5	0x3e157e47	0.14598952
6	0x3cd786d8	0.026309416
7	0x3d9bd178	0.07608312
8	0x3d9c86da	0.076429084
9	0xbde3f74b	-0.11131152
10	0x3d907f2e	0.070555076
11	0xbd76e256	-0.060274445
12	0xbde60978	-0.11232275
13	0xbda5a53b	-0.08088156
14	0x3d4f3e60	0.050596595
15	0xbe0c2192	-0.13684681

weight f4 [32, 16]
0	0x3e7e7ea6	0.24853
1	0x3e4d44a8	0.20045722
2	0xbdee58e0	-0.11638045
3	0x3d6d65d0	0.057958424
4	0xbc5b1600	-0.013371944
5	0xbd99a1b4	-0.075015455
6	0xbe568fb8	-0.20953262
7	0x3e14ce22	0.14531758
8	0xbd5efb50	-0.05443889
9	0x3e6d2cde	0.23161647
10	0xbd7dd2d8	-0.061968654
11	0x3e3ead04	0.18620688
12	0xbe6a50f4	-0.22882444
13	0xbc07acc0	-0.008280933
14	0x3c89b320	0.016809046
15	0x3dde77e8	0.10862714
16	0x3db8b298	0.09018439
17	0xbe48970a	-0.19588867
18	0x3c4a4dc0	0.012347639
19	0x3e0ea722	0.13930944
20	0xbe3f60cc	-0.18689269
21	0xbe02602e	-0.12732002
22	0x3c71c640	0.014756739
23	0x3e09b538	0.13448036
24	0xbe447736	-0.191861
25	0xbdc15e74	-0.09441844
26	0x3da238a0	0.079209566
27	0xbdecbdcc	-0.115596384
28	0x3d03cbc0	0.032176733
29	0x3ca6f410	0.02038005
30	0xbcc23c00	-0.02371025
31	0x3e5634ec	0.20918626
32	0x3e747416	0.23872408
33	0xbe0578b0	-0.1303432
34	0x3e5badf8	0.21453083
35	0xbe31cfb4	-0.17364389
36	0x3c26d320	0.010182172
37	0x3e694146	0.22778806
38	0x3dfe0b8c	0.12404546
39	0xbe045da0	-0.1292634
40	0xbe48179e	-0.19540259
41	0xbd6f2e50	-0.058393776
42	0xbe6bbd9c	-0.23021549
43	0x3e0f64ec	0.14003342
44	0xbe0d973c	-0.13827223
45	0xbc2c14a0	-0.010502964
46	0xbbe1f440	-0.006895572
47	0x3d9464b4	0.0724577
48	0xbdf1ff4c	-0.11816272
49	0xbcd328d0	-0.025776297
50	0x3de5f658	0.11228627
51	0xbe7050a0	-0.23468256
52	0xbd089710	-0.03334719
53	0xbd250b38	-0.040293902
54	0xbe27e008	-0.16394055
55	0x3dd732f4	0.105077654
56	0xbdc6f068	-0.097138226
57	0x3e6b8b5c	0.2300238
58	0x3e3d9db6	0.18517193
59	0xbd56f4f0	-0.052479684
60	0xbdfbc490	-0.12293351
61	0x3df9f528	0.12204963
62	0x3d8847a4	0.06654289
63	0xbe02070a	-0.12697998
64	0xbe771094	-0.24127418
65	0x3cd53df0	0.02603051
66	0x3da4ea20	0.08052468
67	0xbd1b3c80	-0.037899494
68	0x3c3bbaa0	0.011458069
69	0x3e0b4006	0.13598642
70	0xbd45ab88	-0.048259288
71	0xbdf4c230	-0.11951101
72	0xbcea01c0	-0.028565288
73	0xbe21609a	-0.15759507
74	0xbdee30bc	-0.11630389
75	0xbe19a5c0	-0.15004635
76	0x3e083a10	0.13303399
77	0xbdaf96cc	-0.08573684
78	0xbd9ad850	-0.075607896
79	0xbdcb5280	-0.09927845
80	0x3e20c398	0.15699613
81	0xbdb6bc48	-0.089226305
82	0xbe615b70	-0.22007537
83	0xbaec5d00	-0.0018033087
84	0xbd685150	-0.05671817
85	0x3e2d6e66	0.16936645
86	0xbc99f2d0	-0.01879254
87	0x3e311dac	0.17296475
88	0xbe716368	-0.23573077
89	0x3d370240	0.04467988
90	0xbe5a5114	-0.21319991
91	0xbe224cb4	-0.15849572
92	0xbe47bfbc	-0.19506735
93	0xbd6798a8	-0.05654207
94	0x3e6ecdba	0.23320666
95	0x3e63f450	0.22261167
96	0x3d42f9f0	0.04760164
97	0xbe4f5b54	-0.20249683
98	0xbe299f44	-0.16564661
99	0x3d2c8908	0.04212287
100	0x3e3ebce0	0.18626738
101	0x3d055b98	0.032558054
102	0x3dd1591c	0.102220744
103	0x3e2c6944	0.1683703
104	0x3d067fe0	0.032836795
105	0x3e7e130e	0.24811956
106	0xbcb85c50	-0.022504956
107	0xbe552090	-0.20813203
108	0x3e47867c	0.19484895
109	0xbd19e058	-0.037567466
110	0x3d3092c0	0.0431087
111	0x3e09cdb2	0.13457373
112	0xbe3f9b26	-0.18711528
113	0x3e25f736	0.16207585
114	0x3e30efbe	0.17278954
115	0x3bdc4b80	0.0067228675
116	0x3e0e78e6	0.13913307
117	0xbe2f6ef8	-0.17132175
118	0xbd000590	-0.031255305
119	0xbe354ffc	-0.17706293
120	0x3e30313c	0.17206281
121	0x3d5f8b20	0.05457604
122	0xbd7b85a8	-0.06140676
123	0x3db964ac	0.09052405
124	0x3c643060	0.013927549
125	0xbd92fc08	-0.071769774
126	0xbe25cd1a	-0.16191521
127	0xbc3a4560	-0.011369079
128	0x3b7a5a00	0.0038200617
129	0x3e7bcd50	0.24590039
130	0xbe06044e	-0.1308758
131	0xbcfd02b0	-0.03088507
132	0x3e6460ee	0.223026
133	0x3dc71bfc	0.097221345
134	0xbe72205c	-0.23645157
135	0xbd9092d8	-0.07059258
136	0x3e454bec	0.19267243
137	0xbbd44a80	-0.0064786077
138	0x3e4912c2	0.19636062
139	0xbe2b7d5c	-0.1674704
140	0x3d706dc8	0.058698446
141	0xbdb589b0	-0.088641524
142	0x3e58543c	0.21125883
143	0xbdbe6138	-0.09295887
144	0xbe252572	-0.16127566
145	0x3d0b2e78	0.033979863
146	0xbe5d432e	-0.21607658
147	0xbe1862c8	-0.14881432
148	0xbdcd5430	-0.10025823
149	0x3e2104b6	0.15724453
150	0x3de91134	0.11380234
151	0x3dd45634	0.103680044
152	0xbde24298	-0.11047858
153	0xbd8c9ad8	-0.068654716
154	0xbe61ca1e	-0.22049758
155	0xbd837f50	-0.06420767
156	0x3d40bf40	0.04705739
157	0xbe2e1a88	-0.17002308
158	0x3e22ebda	0.15910283
159	0x3d9dd180	0.077059746
160	0xbe19cf94	-0.15020591
161	0xbd1ac580	-0.037786007
162	0xbd076090	-0.033051074
163	0x3e439794	0.19100791
164	0xbe48c3c2	-0.19605926
165	0xbcd35080	-0.025795221
166	0xbd7fd748	-0.062461168
167	0x3d90e244	0.07074407
168	0xbce86950	-0.02837053
169	0xbe6afc7e	-0.2294788
170	0x3e5b9998	0.2144531
171	0x3e4314e0	0.19050932
172	0xbe7f32a0	-0.24921656
173	0x3e5cd2ec	0.21564835
174	0xbe3afcb0	-0.18260455
175	0x3e51c4d8	0.20485246
176	0x3c9ce3c0	0.019151568
177	0x3d0e02f8	0.0346708
178	0xbc7caac0	-0.015421569
179	0x3e23df64	0.16003186
180	0x3e507f08	0.20360959
181	0x3e3dadcc	0.1852333
182	0xbe247ae0	-0.16062498
183	0x3df12f6c	0.11776623
184	0xbe55d7f4	-0.20883161
185	0xbdd15cb4	-0.1022276
186	0x3e2cfe1c	0.1689381
187	0xbe2c791e	-0.16843078
188	0x3d9aebe0	0.07564521
189	0x3e1ae55c	0.15126556
190	0xbe51db60	-0.20493841
191	0xbe3bbc2e	-0.18333504
192	0xbe4b93be	-0.19880578
193	0x3d4d29d8	0.050088733
194	0x3decb10c	0.115572065
195	0x3d409708	0.047019035
196	0x3d590d48	0.05299118
197	0x3d36f358	0.044665664
198	0xbe744956	-0.238561
199	0xbe170f4c	-0.14751929
200	0xbcc3aba0	-0.023885548
201	0x3df5a9a8	0.1199525
202	0x3d2a77c0	0.04161811
203	0x3e2cac56	0.16862616
204	0x3c1a8100	0.00943017
205	0x3de6e068	0.11273271
206	0xbdf407d4	-0.119155556
207	0x3e688baa	0.22709528
208	0xbcc09e10	-0.02351287
209	0xbda37120	-0.07980561
210	0xbdb98b04	-0.09059718
211	0xbe4ea3fe	-0.20179746
212	0xbe5d340e	-0.21601889
213	0xbc0f2b60	-0.008738369
214	0x3d8f1204	0.06985858
215	0x3ccde030	0.025131315
216	0xbe476362	-0.19471505
217	0xbe43366e	-0.19063732
218	0xbe5a7abe	-0.21335885
219	0x3c8917a0	0.016734898
220	0xbd627dc8	-0.055295736
221	0x3d012588	0.031529933
222	0xbd1e9270	-0.038713872
223	0x3e05c450	0.13063169
224	0xbe481cba	-0.19542208
225	0xbe07133c	-0.13190931
226	0xbe5d64d4	-0.21620494
227	0x3dfbc7bc	0.12293956
228	0x3e332d0c	0.17497653
229	0x3e670eb8	0.22564209
230	0x3e6d80a6	0.23193607
231	0xbde24cac	-0.1104978
232	0xbe639da0	-0.22228098
233	0x3e145e12	0.1448901
234	0x3e1bac58	0.15202463
235	0xbe5c866e	-0.21535656
236	0xbb436780	-0.002981633
237	0xbdea5cfc	-0.114435166
238	0xbe12df1e	-0.14342925
239	0x3e1c7d42	0.15282157
240	0xbdfaf49c	-0.12253687
241	0x3e71cf7a	0.23614302
242	0x3e11a13e	0.14221665
243	0xbe7dec6c	-0.24797219
244	0x3e74d2b8	0.23908508
245	0x3e16e0a6	0.14734134
246	0x3dda319c	0.106539935
247	0xbdf521b8	-0.11969322
248	0x3deafdf8	0.11474222
249	0x3e7641f2	0.24048594
250	0x3d97c0b0	0.07409799
251	0x3e0823fe	0.1329498
252	0x3d21d418	0.03950891
253	0x3e16672a	0.14687791
254	0xbe095448	-0.13411057
255	0x3c28d660	0.010305017

bias f4 [32]
0	0x3de46a90	0.11153138
1	0x3d4f58e0	0.050621867
2	0x3e3abeec	0.18236893
3	0xbe77c6de	-0.24196956
4	0xbd472948	-0.048623353
5	0x3d62b770	0.05535072
6	0x3e0b34fe	0.13594434
7	0xbe5871f6	-0.21137223
8	0xbcabbd30	-0.020964235
9	0xbe4d35cc	-0.20040053
10	0xbd7d47a8	-0.061835915
11	0x3e06c5c4	0.13161379
12	0xbde6d0a4	-0.11270264
13	0x3d59f7e0	0.053214908
14	0xbdec6f64	-0.115446836
15	0xbe526898	-0.20547712
16	0xbe647342	-0.22309592
17	0x3e129368	0.14314044
18	0x3e03b92a	0.12863603
19	0xbd98cd18	-0.074609935
20	0x39afe400	0.00033548474
21	0x3da8e2c0	0.08246374
22	0xbe7f1c2c	-0.2491309
23	0x3e2f651e	0.17128417
24	0xbe1601c6	-0.14649114
25	0xbe15541c	-0.14582866
26	0x3cb37770	0.021907538
27	0x3e1ce758	0.15322626
28	0xbd2b00d8	-0.04174885
29	0x3e79ae74	0.24382955
30	0x3bc49e00	0.0060002804
31	0x3de7ff40	0.11327982

weight f4 [16, 32]
0	0xbc196a80	-0.0093637705
1	0x3e04b0f5	0.12958129
2	0x3bf89c40	0.007586986
3	0x3da68c8e	0.081322774
4	0xbd516c00	-0.051128387
5	0xbde98c76	-0.11403744
6	0xbd3f86ec	-0.04675953
7	0xbda8ce55	-0.0824248
8	0x3dfa876a	0.122328594
9	0x3e1d36b1	0.15352894
10	0xbd09bb30	-0.03362578
11	0xbe17e81f	-0.14834641
12	0x3dde3bb2	0.1085123
13	0xbb997040	-0.0046825707
14	0x3e21302b	0.15741031
15	0x3e021133	0.12701873
16	0x3e092601	0.13393404
17	0x3e172053	0.14758424
18	0xbd68a8e2	-0.056801684
19	0xbd3e961c	-0.046529874
20	0x3e318b2b	0.17338245
21	0xbd2b59d0	-0.0418337
22	0x3e089953	0.13339739
23	0xbd37e57c	-0.044896588
24	0x3d5c5784	0.0537944
25	0xbe1b1836	-0.15145954
26	0xbd5755a6	-0.052571915
27	0xbda4366d	-0.080181934
28	0xbd3b352c	-0.045705006
29	0x3d962f1e	0.07333206
30	0xbdc6415f	-0.09680437
31	0x3e13856d	0.14406367
32	0x3b32c900	0.002728045
33	0x3e2e9747	0.17049895
34	0xbe0b8569	-0.1362511
35	0xbca0f490	-0.019647866
36	0x3e2bf95d	0.16794343
37	0xbd098fd8	-0.033584446
38	0x3e0aa739	0.13540353
39	0x3dc5a742	0.096510425
40	0xbdb14e8e	-0.08657561
41	0xbe0e89e0	-0.13919783
42	0x3be14360	0.006874487
43	0x3dda21ce	0.10650979
44	0x3c6eae00	0.014567852
45	0xbd2b35a4	-0.041799203
46	0x3d974c92	0.073876515
47	0x3e110a09	0.14163984
48	0xbdae2934	-0.085039526
49	0x3e0fa6b1	0.14028431
50	0x3e164723	0.14675574
51	0xbd906f7f	-0.07052516
52	0xbe2d0f1d	-0.16900297
53	0xbd87e268	-0.066349804
54	0xbd4ddc74	-0.05025907
55	0x3e346e17	0.17620121
56	0x3a858280	0.0010185987
57	0xbd78e346	-0.06076362
58	0x3ce6a500	0.02815485
59	0x3b9942c0	0.0046771467
60	0xbe0776fe	-0.13228986
61	0xbce76ab0	-0.028249115
62	0xbdcb18db	-0.0991685
63	0x3e327c07	0.17430125
64	0x3da6aec6	0.08138804
65	0x3e2faead	0.17156477
66	0x3e02edad	0.12785979
67	0x3e31d197	0.17365108
68	0x3da61b22	0.08110644
69	0x3d3e585c	0.046470985
70	0xbe14a15c	-0.14514679
71	0x3bbcc820	0.0057611614
72	0xbd837e10	-0.06420529
73	0xbe19bf7b	-0.1501445
74	0xbdfdff19	-0.12402172
75	0x3e32bf5b	0.17455809
76	0xbdef2798	-0.11677474
77	0xbdae70b3	-0.085175894
78	0x3d8e64c8	0.06952816
79	0xbde2d163	-0.110750936
80	0x3de2ac7e	0.110680565
81	0xbd4080c4	-0.0469978
82	0xbe18cc92	-0.14921787
83	0x3e24d4c9	0.16096796
84	0xbd43f648	-0.047842294
85	0x3e32120d	0.17389698
86	0x3d2ba59c	0.041905984
87	0xbd634c20	-0.05549252
88	0x3ceef7d8	0.029170915
89	0x3dc5e12e	0.0966209
90	0x3d8bba8a	0.06822689
91	0x3db0caae	0.08632408
92	0x3da88176	0.08227818
93	0xbe1ababb	-0.15110295
94	0xbb0a6e00	-0.0021122694
95	0xbd7c9cb2	-0.061672874
96	0xbd211484	-0.039326206
97	0xbe1cf274	-0.15326864
98	0x3e2dfdb5	0.16991313
99	0x3e169489	0.14705099
100	0xbdd08cce	-0.10183106
101	0xbdb66237	-0.08905452
102	0xbc8f8098	-0.017517373
103	0x3ceaa3c0	0.028642535
104	0x3d28e738	0.041236132
105	0xbc763440	-0.015027106
106	0x3dcbac9a	0.099450305
107	0xbd500300	-0.05078411
108	0x3d82bb7c	0.06383416
109	0xbd95d316	-0.07315652
110	0xbdb3fbdd	-0.087882735
111	0xbdb39c5c	-0.087700576
112	0x3e0cec01	0.13761903
113	0x3e05a397	0.13050686
114	0x3d54876c	0.05188696
115	0x3e056ca7	0.13029729
116	0xbd86e959	-0.06587476
117	0x3dd3e66e	0.10346685
118	0xbe1fa89b	-0.15591662
119	0xbd052980	-0.03251028
120	0x3e04d159	0.12970485
121	0x3ddb83fe	0.10718535
122	0x3e346adf	0.17618893
123	0x3dc55302	0.09634973
124	0x3e010129	0.12598099
125	0x3de8f742	0.11375286
126	0x3d9d76c2	0.07688667
127	0xbd16dc18	-0.03683099
128	0xbcccf328	-0.02501829
129	0x3d08d294	0.033403948
130	0xbc654920	-0.013994485
131	0xbbfa2e80	-0.0076349378
132	0xbc4faba0	-0.012675196
133	0xbdf2b9f0	-0.11851871
134	0x3d30207c	0.04299973
135	0xbe07fb6a	-0.132795
136	0x3decaade	0.11556028
137	0x3e05f01f	0.1307988
138	0x3b440d00	0.0029914975
139	0xbdcba687	-0.09943872
140	0x3e21592b	0.15756671
141	0x3d9ee4f6	0.077585146
142	0xbe1d6be0	-0.15373182
143	0x3c30e390	0.010796443
144	0xbdca1865	-0.09867934
145	0xbb986cc0	-0.004651636
146	0x3cc30758	0.023807213
147	0xbdc2d783	-0.09513762
148	0x3dbdd426	0.0926898
149	0x3e2dfa5b	0.16990034
150	0x3d2b9164	0.041886702
151	0xbda51264	-0.08060148
152	0x3d7511b8	0.05983135
153	0xbb93ece0	-0.0045143217
154	0xbd84540d	-0.06461344
155	0x3e33e795	0.1756881
156	0x3d99f64e	0.07517682
157	0x3c19e5e0	0.009393185
158	0x3d7bf00c	0.061508223
159	0x3d11bb10	0.035578787
160	0xbdbc722f	-0.09201466
161	0x3e1e5941	0.15463735
162	0x3e1bf53f	0.15230273
163	0x3ded48e6	0.1158617
164	0xbe2448a9	-0.16043343
165	0x3b337d40	0.0027387887
166	0x3cb24468	0.021761134
167	0x3d9ed426	0.07755308
168	0xbd8ac297	-0.06775396
169	0x3e2c611b	0.16833918
170	0xbcea60f0	-0.028610677
171	0xbd153248	-0.036424905
172	0xbda22577	-0.07917302
173	0xbd9f38b2	-0.07774486
174	0xbe05a78f	-0.130522
175	0x3d385bf8	0.045009583
176	0xbd9f5018	-0.077789485
177	0xbd6e1b30	-0.058131397
178	0xbe239faf	-0.15978883
179	0xbe2613f9	-0.16218556
180	0xbc749f70	-0.014930591
181	0xbd44e4f4	-0.04806991
182	0xbdea9cca	-0.114556864
183	0x3da02662	0.07819821
184	0x3dc5b69a	0.09653969
185	0xbcdf43a0	-0.027253926
186	0xbe1acc91	-0.15117098
187	0x3e2c1bed	0.16807528
188	0xbc046640	-0.008081019
189	0xbd206e3c	-0.039167628
190	0x3dcb3856	0.099228546
191	0x3e0d467b	0.13796417
192	0xbe180f90	-0.14849687
193	0x3de14222	0.10998942
194	0x3e297acf	0.16550754
195	0xbdf0f9c0	-0.11766386
196	0x3def37c6	0.1168056
197	0xbd3361c4	-0.04379441
198	0x3dcf15b6	0.10111563
199	0x3d23bb9c	0.03997384
200	0x3d6c8920	0.05774796
201	0xbe0d4b1d	-0.13798185
202	0xbdb12607	-0.08649831
203	0xbd848b45	-0.06471876
204	0x3da71bc6	0.08159594
205	0x3df180ae	0.11792122
206	0x3d1fba38	0.03899595
207	0x3d575704	0.05257322
208	0x3a634100	0.00086690485
209	0xbde30ec3	-0.110868
210	0x3d9b5196	0.07583921
211	0xbdeb99e3	-0.11503961
212	0x3e0aba6d	0.13547678
213	0xbe00dd55	-0.12584431
214	0x3dd45ae6	0.103689
215	0x3ccfdaf0	0.025372952
216	0x3d79f9a0	0.061029077
217	0xbdaf94ab	-0.08573278
218	0x3e060fc9	0.13091959
219	0xbe02d0c4	-0.1277495
220	0x3cca4910	0.024693042
221	0x3dd6319e	0.104586825
222	0x3dade396	0.08490674
223	0x3e06f825	0.13180597
224	0x3dfdc1b6	0.12390463
225	0xbe16e72d	-0.14736624
226	0x3ce527d8	0.0279731
227	0x3d835e76	0.06414501
228	0x3e32f3c7	0.17475806
229	0xbe29f5dc	-0.16597694
230	0xbd34d33c	-0.04414676
231	0xbe30c68a	-0.17263237
232	0xbe327dce	-0.17430803
233	0x3cf4fce0	0.029905736
234	0xbe12df16	-0.14342913
235	0xbcb897e8	-0.022533372
236	0x3cdcb308	0.026940838
237	0x3d2dda18	0.04244432
238	0x3dda800a	0.10668953
239	0x3d95b498	0.07309836
240	0x3a6a6600	0.0008941591
241	0xbd01f010	-0.031723082
242	0x3df1367a	0.11777969
243	0x3e30aed5	0.17254193
244	0x3e0033cb	0.12519757
245	0xbe21e476	-0.15809807
246	0xbdf92a42	-0.12166263
247	0x3c3f2830	0.011667296
248	0x3b973ac0	0.004615158
249	0xbcc07e68	-0.023497775
250	0xbe215bc9	-0.1575767
251	0xbe1747f3	-0.1477354
252	0x3e2c5e6b	0.16832893
253	0xbb83a720	-0.0040177256
254	0xbd2db0d8	-0.04240498
255	0xbd0cff44	-0.034423128

bias f4 [16]
0	0x3de6de72	0.11272897
1	0xbdbae880	-0.09126377
2	0xbdad9e77	-0.084774904
3	0x3e1b75ff	0.1518173
4	0xbdeeb781	-0.11656094
5	0xbc9e5dc8	-0.019331828
6	0x3e284531	0.16432644
7	0xbcfa8748	-0.030582085
8	0xbe1bfb24	-0.15232521
9	0x3dbae01e	0.09124778
10	0xbe1800e9	-0.14844097
11	0x3e21926b	0.1577851
12	0x3d989706	0.074506804
13	0x3d918214	0.071048886
14	0x3e1bdd41	0.1522112
15	0xbe0cdee6	-0.13756904

weight f4 [2, 16]
0	0xbd0cc078	-0.03436324
1	0x3dd6c934	0.10487595
2	0x3db30734	0.08741608
3	0xbe57c904	-0.21072775
4	0x3de60ca4	0.1123288
5	0xbe14365e	-0.14473864
6	0x3d3c5120	0.045975804
7	0xbe1ff0f0	-0.15619254
8	0xbe64d02c	-0.22345036
9	0x3e615fcc	0.220092
10	0x3d709648	0.05873707
11	0xbe3ece26	-0.18633327
12	0xbe64be54	-0.2233823
13	0xbd9b1c00	-0.075737
14	0x3d977068	0.07394487
15	0x3dc694d0	0.096963525
16	0x3e53fc6c	0.2070176
17	0xbe75a03a	-0.23986903
18	0x3de2853c	0.11060569
19	0xbde02570	-0.10944641
20	0x3def97ec	0.11698899
21	0xbe68feda	-0.22753468
22	0xbd93b724	-0.07212666
23	0x3e5c0986	0.21488008
24	0x3e5a9908	0.2134744
25	0x3dee7364	0.11643103
26	0xbda360b8	-0.07977432
27	0x3dcc9c88	0.099907935
28	0x3d0513e0	0.032489657
29	0xbda674f4	-0.08127776
30	0xbd06dc18	-0.03292474
31	0xbdf43874	-0.1192483

bias f4 [2]
0	0x3d14b490	0.03630501
1	0x3e171756	0.14754996
