saved_ttt/old/live_ttt_4.pt (torch, 12260 bytes, 8 tensors)

weight f4 [16, 36]
-0.088234305 -0.11772607 0.01298745 -0.13780591 0.10257277 -0.115678966 0.15146707 -0.16156761
-0.08778565 0.088058904 0.007891908 0.07456717 0.018799856 0.002557947 0.12893642 -0.113579355
0.10431264 0.03072223 -0.049232192 0.11584498 -0.00307931 0.110138685 0.07878333 -0.118462466
0.1543636 0.009232566 -0.09115392 0.09466 -0.070231855 0.03642516 0.09129502 -0.0711665
0.12146635 -0.085202515 -0.04710281 -0.030896738 0.53986174 0.14350021 -0.10113911 0.2580941
-0.12004026 0.07711764 0.4726203 -0.10981133 0.05725719 0.1569347 0.33201298 -0.07405833
0.4305649 0.16315453 0.12666182 0.16246846 0.009804949 0.1194323 0.52218044 0.15189473
-0.0525697 0.14566523 0.061587796 0.52949053 0.33060783 0.17488359 0.097648166 -0.13184886
-0.13098982 0.055245034 0.062485278 -0.14474976 -0.032109603 -0.019661266 -0.019390032 0.3581206
0.4757787 0.13945925 0.08685292 0.51938045 -0.14792491 -0.08952682 0.43015075 -0.08756247
-0.016855873 -0.092276655 0.30327937 0.078531966 0.48701265 -0.113142855 -0.020792782 0.2003829
0.001645863 0.31835333 0.31804383 0.04524781 -0.06105027 -0.04919311 -0.14250052 0.49172127
0.30336905 0.03582671 0.07841827 0.16204037 -0.0014217919 -0.07863923 0.3101247 -0.0771864
0.1004727 0.030059323 0.01875113 0.19861054 -0.0061038584 0.11648491 0.036036596 0.16252781
0.08322717 0.016362742 0.043795124 0.022365928 -0.036934897 -0.09704845 -0.15144372 0.107432485
-0.06024055 -0.101445064 0.107069656 -0.019926876 -0.07804545 -0.10942392 -0.071365684 -0.07336782
-0.12414458 0.07117583 -0.15180503 -0.11735859 0.014951795 0.039219216 -0.13730489 0.110569015
-0.026897058 0.001402244 0.12585457 -0.16377227 0.069270074 0.116534725 0.04694192 -0.022635177
0.24797367 -0.12530622 -0.025154293 0.54149806 -0.059117753 0.13619596 0.42081112 -0.0936393
-0.11267461 0.05641544 0.47380218 0.14795415 0.35209143 0.009784048 0.0278451 0.34220707
0.09577067 0.35165995 0.36345464 0.1464507 -0.055865638 0.0020401385 0.09588443 0.46976244
0.25476673 0.331047 -0.080898546 -0.059781194 0.11281211 -0.05979273 0.081335515 -0.13926093
0.1314132 -0.006050916 0.1634887 0.077953786 0.061555207 0.042544644 -0.13057402 -0.0038865805
-0.024567414 0.10870014 0.046746746 0.05457528 -0.15637477 0.08036508 -0.1623826 -0.14804369
-0.00554106 -0.1365186 -0.16104662 0.08530391 -0.101688646 0.008231209 -0.12567163 0.11798853
-0.13464355 0.09493246 0.029860675 0.007848697 0.1434753 -0.12223437 0.10630728 0.039254084
0.099323414 -0.12827478 -0.08100802 0.15659094 0.08282752 0.0056800703 0.07503335 0.06726207
-0.10657116 -0.14989763 0.14083205 0.09663792 0.09033133 -0.05351486 0.06336558 -0.10106947
-0.09279929 -0.050343633 -0.11676125 -0.06110444 0.04849714 0.0954252 -0.003491655 -0.058182
0.13316305 -0.010663763 -0.0050450414 0.0697474 0.11888637 -0.07406823 0.11847998 0.0016451031
0.00047904253 -0.16089898 -0.08411294 0.16302381 0.1506706 -0.0706652 -0.028071702 -0.01534979
0.12049623 0.15438117 -0.15994929 0.14986928 -0.05457606 0.0226315 0.057990655 -0.02632688
00000000: 30b4 b4bd 5e1a f1bd 50c9 543c fe1c 0dbe
00000010: ac11 d23d 18e9 ecbd 2f1a 1b3e fb71 25be
00000020: f6c8 b3bd 3a58 b43d 104d 013c acb6 983d
00000030: 2802 9a3c 3ba3 273b e907 043e 4b9c e8bd
00000040: dea1 d53d 30ad fb3c b2a7 49bd 2240 ed3d
00000050: 40ce 49bb 6490 e13d 2859 a13d 739c f2bd
00000060: 7e11 1e3e 3044 173c e8ae babd 1add c13d
00000070: b8d5 8fbd 8c32 153d e2f8 ba3d bebf 91bd
00000080: 5ac3 f83d a87e aebd e0ee 40bd 281b fdbc
00000090: 6134 0a3f b8f1 123e 0622 cfbd e924 843e
000000a0: abd7 f5bd daef 9d3d 4afb f13e c3e4 e0bd
000000b0: 8486 6a3d 7db3 203e 9bfd a93e e5ab 97bd
000000c0: 0173 dc3e fb11 273e a3b3 013e 225e 263e
000000d0: f0a4 203c ec98 f43d 9ead 053f 4b8a 1b3e
000000e0: 5353 57bd 4429 153e 7c43 7c3d b18c 073f
000000f0: 6e45 a93e af14 333e c3fb c73d 6303 07be
00000100: 3222 06be 9e48 623d 90f0 7f3d 4839 14be
00000110: 5c85 03bd aa10 a1bc d8d7 9ebc 955b b73e
00000120: 4499 f33e 68ce 0e3e f2df b13d 1ef6 043f
00000130: a179 17be d659 b7bd b83c dc3e f453 b3bd
00000140: 5415 8abc 8bfb bcbd 6f47 9b3e 5ed5 a03d
00000150: b959 f93e 71b7 e7bd a055 aabc 2d31 4d3e
00000160: 00ba d73a 35ff a23e a4d6 a23e c555 393d
00000170: d90f 7abd b77e 49bd a8eb 11be e4c2 fb3e
00000180: 3053 9b3e 07bf 123d c299 a03d e9ed 253e
00000190: 6b5b baba 9b0d a1bd aac8 9e3e e713 9ebd
000001a0: a2c4 cd3d f83e f63c f89b 993c 9060 4b3e
000001b0: e002 c8bb a48f ee3d 1c9b 133d b16d 263e
000001c0: 0273 aa3d 280b 863c 8462 333d c038 b73c
000001d0: 0c49 17bd 56c1 c6bd 1014 1bbe 9005 dc3d
000001e0: ccbe 76bd 6ec2 cfbd 5647 db3d b03d a3bc
000001f0: 4bd6 9fbd a619 e0bd 2c28 92bd de41 96bd
00000200: 833f febd a2c4 913d c772 1bbe b359 f0bd
00000210: 60f8 743c 54a4 203d a799 0cbe 0272 e23d
00000220: 3857 dcbc 80cb b73a 05e0 003e ebb3 27be
00000230: 78dd 8d3d c2a9 ee3d 2c46 403d 686d b9bc
00000240: cfec 7d3e 4650 00be 6010 cebc 9e9f 0a3f
00000250: 7525 72bd f476 0b3e 8e74 d73e f6c5 bfbd
00000260: f2c1 e6bd e013 673d 3396 f23e 4b81 173e
00000270: 5445 b43e 464d 203c 681b e43c c435 af3e
00000280: 6a23 c43d c60c b43e ba16 ba3e 2cf7 153e
00000290: 5ed3 64bd d8b3 053b 0e5f c43d b484 f03e
000002a0: c970 823e fe7e a93e 23ae a5bd 20dd 74bd
000002b0: 090a e73d 39e9 74bd 3c93 a63d 6b9a 0ebe
000002c0: 2f91 063e c346 c6bb 9569 273e 3ca6 9f3d
000002d0: 5021 7c3d 4b43 2e3d 32b5 05be 00b6 7ebb
000002e0: 9a41 c9bc 2e9e de3d 8479 3f3d 548a 5f3d
000002f0: b520 20be 7296 a43d a047 26be c498 17be
00000300: c891 b5bb 88cb 0bbe 68e9 24be d1b3 ae3d
00000310: 2342 d0bd 31dc 063c 10b0 00be f8a3 f13d
00000320: 00e0 09be f36b c23d 609e f43c d297 003c
00000330: 30eb 123e 0356 fabd a2b7 d93d e4c8 203d
00000340: 136a cb3d 775a 03be 88e7 a5bd 6059 203e
00000350: 7aa1 a93d e21f ba3b 16ab 993d b2c0 893d
00000360: fb41 dabd c47e 19be 4736 103e 1aea c53d
00000370: a2ff b83d 6632 5bbd d0c5 813d 83fd cebd
00000380: 8e0d bebd 2035 4ebd 8620 efbd a648 7abd
00000390: f0a4 463d 4a6e c33d 40d4 64bb 4050 6ebd
000003a0: e55b 083e 10b7 2ebc e050 a5bb bad7 8e3d
000003b0: b27a f33d 16b1 97bd a2a5 f23d 80a0 d73a
000003c0: 0028 fb39 b4c2 24be 6843 acbd b7ef 263e
000003d0: 6549 1a3e ebb8 90bd a0f6 e5bc b07d 7bbc
000003e0: bac6 f63d 1916 1e3e bfc9 23be 5577 193e
000003f0: 268b 5fbd b265 b93c 9c87 6d3d 78ab d7bc

bias f4 [16]
-0.02955757 0.33192608 0.56187224 -0.16306041 0.3436157 -0.0047191097 -0.1502333 -0.06943527
0.04783031 -0.17987742 -0.21994093 -0.025774432 0.4953863 -0.0909774 0.4519168 -0.27545
00000000: b822 f2bc 37f2 a93e dcd6 0f3f 4ff9 26be
00000010: 66ee af3e c3a2 9abb c2d6 19be 1434 8ebd
00000020: b7e9 433d c931 38be 3238 61be e724 d3bc
00000030: 46a3 fd3e 5c52 babd a461 e73e c807 8dbe

weight f4 [32, 16]
-0.24559914 0.28851762 0.18835036 0.09311444 0.3949263 -0.053259328 -0.09174797 0.22661756
0.051554117 -0.24245518 -0.024490625 0.0017850514 0.3128007 -0.031075642 0.20786633 0.020038903
-0.11654276 -0.13290876 -0.099622965 -0.1342741 -0.03322509 0.051186442 -0.005356908 -0.046125293
0.2013177 0.14315891 0.10420072 -0.19661203 0.15244296 0.08779737 -0.0017571747 -0.20827004
-0.14446849 0.14367905 -0.19738185 0.061246246 -0.17916638 0.045162708 0.18917584 0.013556123
0.11530483 0.09374517 -0.07346824 -0.22410265 -0.01821658 -0.03032875 -0.23040682 -0.026196241
0.016613416 0.13779992 -0.005370085 -0.23006618 0.20553729 -0.080971934 -0.029637992 0.12236753
-0.20701906 0.19614568 -0.1348024 0.090104096 -0.12774622 0.08302501 -0.16041994 0.04286754
0.02087459 -0.08879003 0.13234901 0.22743446 -0.24551687 -0.013823569 0.013693154 -0.0011642277
0.047661126 -0.15360263 -0.037020266 -0.23852432 -0.1827339 -0.096429974 -0.029008597 0.18398362
0.20424822 -0.07051754 -0.13150874 0.1723555 -0.24475592 -0.0021772385 0.001968801 -0.022793412
0.04011321 0.072594285 0.023702294 0.09848109 -0.22644109 -0.12394157 -0.033825487 -0.1854533
0.00854823 -0.15032107 -0.19617167 -0.21950465 0.06753278 0.15246445 0.11988971 0.21095788
0.06611821 -0.11386803 0.22635758 -0.15330046 0.043604255 -0.14280015 0.14534587 0.2089046
0.15287241 -0.11077045 -0.35795817 -0.028099716 -0.14861366 0.23570701 0.13982713 0.23895118
0.0632509 -0.15261969 0.07375878 0.023222119 -0.008475482 -0.03243582 -0.3937062 -0.26062313
0.22600676 -0.06794843 0.09355131 0.18661386 -0.039870877 0.14418882 -0.20550191 0.07734206
-0.032710027 0.025256455 0.0776912 0.16185302 0.18115856 -0.22592548 -0.22413239 0.15615916
0.23137587 -0.026131928 -0.1912238 0.054380387 0.19651568 -0.09329423 -0.06445375 -0.20832306
-0.10793841 0.23794037 0.2351673 0.17434135 -0.24843377 0.010221183 0.0063245595 -0.012060314
0.07829812 -0.37959313 -0.10745604 -0.080979735 -0.070192724 -0.12242925 -0.17583662 0.14340588
-0.1413509 0.046261728 -0.24512954 -0.07675195 -0.25195324 0.20763719 -0.32898054 -0.116580576
-0.028686248 0.20326133 0.08025037 -0.15473905 -0.2271216 -0.1495656 -0.12491697 -0.112611204
-0.10257781 0.2811731 0.33584344 -0.08562007 -0.10055173 -0.28516406 -0.03153418 -0.43193835
-0.006687999 -0.18373507 -0.15109596 0.10518527 -0.21948579 -0.10579145 -0.2180255 -0.24446824
0.12863147 0.18564835 0.1628224 -0.22164497 -0.16219652 0.1898925 0.2273342 -0.066877335
0.023702472 -0.14233175 -0.39360273 -0.1431211 -0.0704613 -0.012383431 0.09729561 0.1949985
0.13048577 -0.20186798 -0.0711223 0.03888002 0.019793436 0.15352103 -0.028715283 -0.0043753088
-0.180993 0.5621149 0.5161403 -0.046270754 0.6473468 -0.0056236316 0.149934 0.12044398
0.12655568 -0.032442763 0.172194 0.014464362 0.635365 0.25001884 0.53945243 0.13208936
0.045420676 0.23257767 0.43990657 0.039042685 0.23388109 0.18518999 -0.1803323 -0.018694976
-0.029357908 0.32563564 0.084412664 -0.20071267 0.3665125 -0.039754376 0.61981064 0.11271329
00000000: 577e 7bbe 95b8 933e ebde 403e c9b2 be3d
00000010: c833 ca3e 7426 5abd 5ce6 bbbd 6f0e 683e
00000020: 692a 533d 2c46 78be 90a0 c8bc 63f8 e93a
00000030: 6a27 a03e 5892 febc e9da 543e a028 a43c
00000040: f8ad eebd 3c19 08be 2007 ccbd 267f 09be
00000050: 0817 08bd e0a8 513d 0089 afbb e0ed 3cbd
00000060: 3a26 4e3e 4098 123e 3067 d53d aa54 49be
00000070: 021a 1c3e 1ccf b33d 0051 e6ba be44 55be
00000080: 8cef 13be 9a20 133e 781e 4abe 58dd 7a3d
00000090: 6477 37be 88fc 383d 50b7 413e 801a 5e3c
000000a0: f024 ec3d 78fd bf3d 8476 96bd 2a7b 65be
000000b0: f03a 95bc 0074 f8bc c4ef 6bbe 8099 d6bc
000000c0: dc18 883c 6c1b 0d3e 8af7 afbb 7896 6bbe
000000d0: 5e78 523e 9dd4 a5bd 60cb f2bc d49b fa3d
000000e0: cefc 53be 6ada 483e a409 0abe 7f88 b83d
000000f0: e8cf 02be 0409 aa3d 2045 24be e095 2f3d
00000100: 3001 ab3c 8cd7 b5bd 8086 073e 94e4 683e
00000110: c668 7bbe 407c 62bc 4059 603c 0099 98ba
00000120: 5038 433d 024a 1dbe 90a2 17bd b83f 74be
00000130: 981e 3bbe 147d c5bd 70a3 edbc 3466 3c3e
00000140: 7226 513e 806b 90bd 3aaa 06be f67d 303e
00000150: 4ca1 7abe 00b0 0ebb 0007 013b 40b9 babc
00000160: c04d 243d 50ac 943d 502b c23c 74b0 c93d
00000170: 2ce0 67be 14d5 fdbd 988c 0abd 78e7 3dbe
00000180: e00d 0c3c c4ed 19be 3ae1 48be d4c5 60be
00000190: a04e 8a3d a41f 1c3e bc88 f53d 5805 583e
000001a0: fc68 873d a433 e9bd 48ca 673e ccfa 1cbe
000001b0: 609a 323d 343a 12be 8cd5 143e 16eb 553e
000001c0: 968a 1c3e 9edb e2bd 4b46 b7be 6031 e6bc
000001d0: 2e2e 18be 2e5d 713e d82e 0f3e 9eaf 743e
000001e0: b089 813d 5648 1cbe d80e 973d 503c be3c
000001f0: c0dc 0abc 6cdb 04bd dc93 c9be 6570 85be
00000200: 516e 673e 8c28 8bbd d497 bf3d b417 3f3e
00000210: a54f 23bd 3ca6 133e 186f 52be 8465 9e3d
00000220: f3fa 05bd a0e6 ce3c 901c 9f3d ccbc 253e
00000230: a181 393e 0259 67be f682 65be 30e8 1f3e
00000240: cced 6c3e a012 d6bc 2cd0 43be f8bd 5e3d
00000250: 683b 493e 0c11 bfbd 5400 84bd a452 55be
00000260: d00e ddbd a4a6 733e b2cf 703e 8a86 323e
00000270: 6c65 7ebe c076 273c 403e cf3b a098 45bc
00000280: c45a a03d 085a c2be ea11 dcbd b4d8 a5bd
00000290: 34c1 8fbd 30bc fabd 840e 34be fed8 123e
000002a0: 4abe 10be f07c 3d3d 3d03 7bbe 2030 9dbd
000002b0: 0400 81be d89e 543e 2370 a8be ccc1 eebd
000002c0: 6cff eabc bd23 503e 4e5a a43d ea73 1ebe
000002d0: 9192 68be ba27 19be 78d4 ffbd b4a0 e6bd
000002e0: 5114 d2bd ecf5 8f3e acf3 ab3e 9359 afbd
000002f0: 11ee cdbd 0601 92be fc29 01bd 0627 ddbe
00000300: 0027 dbbb 0c25 3cbe e6b8 1abe 606b d73d
00000310: e2c0 60be 30a9 d8bd 1442 5fbe e255 7abe
00000320: f8b7 033e 9a1a 3e3e eaba 263e e6f6 62be
00000330: d816 26be 2e73 423e 4cca 683e fcf6 88bd
00000340: b02b c23c 6abf 11be 4c86 c9be 568e 12be
00000350: 044e 90bd e0e3 4abc ec42 c73d b0ad 473e
00000360: 109e 053e 7bb6 4ebe 92a8 91bd a840 1f3d
00000370: d825 a23c 9e34 1d3e 503c ebbc c05e 8fbb
00000380: 3b56 39be c3e6 0f3f c521 043f 6786 3dbd
00000390: 85b8 253f 7146 b8bb 4c88 193e 55ab f63d
000003a0: d097 013e b4e2 04bd a053 303e eefb 6c3c
000003b0: 48a7 223f 7802 803e 8e19 0a3f 6f42 073e
000003c0: 080b 3a3d d728 6e3e 6f3b e13e 39eb 1f3d
000003d0: 867e 6f3e 72a2 3d3e 08a9 38be 3526 99bc
000003e0: ff7f f0bc b7b9 a63e 8ce0 ac3d 9f87 4dbe
000003f0: 87a7 bb3e 7cd5 22bd e9ab 1e3f 3ad6 e63d

bias f4 [32]
0.13036616 -0.19345647 -0.042852223 -0.09477112 0.045514464 0.08230713 -0.16665167 -0.19925404
-0.14758705 0.05891463 -0.23042041 0.13854733 -0.019598186 -0.070724815 0.34250322 0.37758693
0.21457651 -0.047464028 -0.067117825 -0.008971721 -0.19377977 0.09835574 -0.36671573 0.54226595
0.51169705 -0.07371588 -0.09530619 0.3903927 0.533741 -0.24979237 -0.00872305 0.4476271
00000000: b57e 053e 7419 46be d085 2fbd 5c17 c2bd
00000010: 606d 3a3d a490 a83d bca6 2abe 4009 4cbe
00000020: 0f21 17be 7850 713d 54f3 6bbe 5adf 0d3e
00000030: 608c a0bc 2cd8 90bd 955c af3e 1353 c13e
00000040: f2b9 5b3e a469 42bd 1275 89bd 20fe 12bc
00000050: 346e 46be bc6e c93d 2ac2 bbbe f1d1 0a3f
00000060: 94fe 023f 5af8 96bd e42f c3bd 8de1 c73e
00000070: 40a3 083f 92c9 7fbe 20eb 0ebc 612f e53e

weight f4 [16, 32]
0.24273103 0.08367236 -0.03258677 -0.041308977 0.09600605 -0.085376196 0.016518548 0.1336628
0.057476208 -0.17206742 0.37339795 0.23166116 -0.104658276 0.07803884 0.37489372 0.57865334
-0.17018524 0.032946497 0.25177026 0.30724603 -0.08935233 -0.10113964 0.3444978 0.5078646
0.24162245 0.044657364 0.08255775 0.43691543 0.42880023 0.041775078 -0.14110795 0.46468386
-0.1431558 0.06398277 0.15002461 0.006714821 -0.14840513 -0.10950936 0.064599186 -0.14713958
0.13633482 -0.020596087 -0.16730314 -0.19836663 0.094164774 -0.042729884 -0.32353374 -0.15693939
-0.10380606 -0.29269746 -0.23020738 -0.28518865 0.101134405 -0.13199814 -0.12385668 -0.059991047
-0.20904733 -0.14556049 -0.1543132 -0.18031366 -0.30604762 0.11213885 -0.07571962 -0.23448753
0.29577917 -0.067030534 0.16160457 -0.1529121 0.0067882985 0.013610244 -0.07962777 0.3579102
0.12151562 -0.16746278 0.014901772 0.124401115 0.12813045 -0.117166236 0.12787123 0.03392853
0.17599528 0.043703064 0.034546718 -0.0141367465 -0.14408103 0.14671673 0.034118146 0.35171285
0.22010447 0.17524306 0.016634777 0.37625167 0.20291859 -0.011901572 0.037135944 0.31021312
-0.052304722 0.15620114 -0.007142812 -0.14738187 0.102809235 -0.14644794 0.1616358 0.053428397
0.08754246 0.105303064 -0.111670434 -0.07143845 0.09499742 -0.164552 -0.005035326 -0.021185413
-0.026631266 0.10224305 -0.14456902 0.030802265 -0.03889495 0.047136933 0.086891815 0.00045980513
-0.07502067 -0.17237425 -0.08927948 -0.16148297 0.035489753 -0.030061468 0.07294305 0.11528222
0.36324778 0.059333757 -0.14269935 -0.030745646 0.08124195 0.16334297 -0.049052626 0.328178
-0.01695217 -0.17303078 0.09255941 0.28108004 0.0627193 0.007335812 0.070977926 0.11133901
0.1528938 0.07170001 -0.14815374 0.027541682 -0.108182445 0.06536569 -0.016984046 0.12150051
0.37506562 0.15256305 -0.0510384 0.28407073 0.3185179 -0.054597236 -0.082222976 0.30113223
0.040123552 0.15845422 -0.08561709 -0.0013458133 0.12657936 0.099555984 0.12501578 0.15219866
-0.13426784 -0.16779248 -0.15507708 -0.3330613 -0.018958703 -0.18016008 -0.22266312 -0.13733383
0.10178633 -0.17815974 -0.30189264 -0.26006997 -0.14114413 0.10861553 -0.07084164 -0.29667655
-0.36265895 -0.22027233 -0.101108454 -0.20106421 -0.19705682 0.067697704 0.073405996 -0.20590894
0.33165208 -0.10558249 -0.16908485 0.111371934 -0.06991287 -0.13917503 -0.12714806 0.15360677
-0.0951809 0.06725697 -0.105959855 0.21575977 -0.04643546 -0.06278637 0.09664238 0.15001844
0.14348318 -0.15541828 -0.109409526 -0.002471134 -0.12772503 0.12582283 -0.10367819 0.37525597
0.18512833 -0.014420927 -0.07756516 0.054531865 0.3129006 -0.078066796 0.17391185 0.33001468
0.13420455 -0.033210576 -0.06195414 0.09258233 0.048738807 0.155095 0.08757685 -0.15025792
0.008186579 -0.090436704 -0.034257323 0.09404118 -0.12630205 -0.099627204 -0.16835248 -0.0909419
-0.14668892 -0.15375042 -0.15426016 -0.067457125 -0.15641603 0.11162646 0.02516374 -0.04919292
-0.052990302 -0.047167584 -0.11492963 -0.013621867 0.04407136 0.0024778396 -0.098788716 0.16502295
00000000: 7c8e 783e 6a5c ab3d b479 05bd 9a33 29bd
00000010: d29e c43d b7d9 aebd e851 873c e7de 083e
00000020: 2c6c 6b3d 7132 30be 042e bf3e 9538 6d3e
00000030: 1457 d6bd d4d2 9f3d 12f2 bf3e a022 143f
00000040: 0a45 2ebe e8f2 063d 08e8 803e 5a4f 9d3e
00000050: 5bfe b6bd 4d22 cfbd 0462 b03e 6a03 023f
00000060: e06b 773e a4ea 363d 0a14 a93d 61b3 df3e
00000070: b48b db3e 581c 2b3d 9a7e 10be 0beb ed3e
00000080: 6f97 12be 6609 833d 0da0 193e 0008 dc3b
00000090: 84f7 17be 7146 e0bd 944c 843d c2ab 16be
000000a0: 5b9b 0b3e 20b9 a8bc 8451 2bbe 9f20 4bbe
000000b0: 76d9 c03d 8805 2fbd 37a6 a5be b8b4 20be
000000c0: 4698 d4bd 71dc 95be 7cbb 6bbe 3f04 92be
000000d0: 8e1f cf3d 852a 07be 92a8 fdbd 2cb9 75bd
000000e0: 8110 56be cf0d 15be 4804 1ebe 25a4 38be
000000f0: 46b2 9cbe 0ea9 e53d e312 9bbd 801d 70be
00000100: 5e70 973e 4e47 89bd ab7b 253e fd94 1cbe
00000110: 6070 de3b 80fd 5e3c e213 a3bd 0140 b73e
00000120: 2edd f83d 5d7b 2bbe 9026 743c 03c6 fe3d
00000130: a134 033e daf4 efbd adf0 023e a4f8 0a3d
00000140: 1b38 343e fc01 333d dc80 0d3d d09d 67bc
00000150: fa89 13be e93c 163e 78bf 0b3d b513 b43e
00000160: 1163 613e eb72 333e a845 883c 0fa4 c03e
00000170: e4c9 4f3e d0fe 42bc dc1b 183d 41d4 9e3e
00000180: 7a3d 56bd 31f3 1f3e 400e eabb 46eb 16be
00000190: a68d d23d 73f6 15be db83 253e bcd7 5a3d
000001a0: 7649 b33d 22a9 d73d 78b3 e4bd 524e 92bd
000001b0: 028e c23d 5280 28be 60ff a4bb 088d adbc
000001c0: d029 dabc ce64 d13d e709 14be 0855 fc3c
000001d0: 5050 1fbd a812 413d 56f4 b13d 0012 f139
000001e0: 70a4 99bd e082 30be 29d8 b6bd cb5b 25be
000001f0: b45d 113d 7843 f6bc 2a63 953d 1619 ec3d
00000200: 9dfb b93e f407 733d c71f 12be 4bde fbbc
00000210: 2e62 a63d 6143 273e 68eb 48bd f206 a83e
00000220: 47df 8abc fb2e 31be ca8f bd3d b9e9 8f3e
00000230: fa72 803d 4061 f03b e05c 913d b505 e43d
00000240: 3190 1c3e 74d7 923d 9db5 17be 189f e13c
00000250: c28e ddbd 72de 853d 2022 8bbc 42d5 f83d
00000260: 9a08 c03e 7d39 1c3e a40d 51bd b871 913e
00000270: c714 a33e 5aa1 5fbd 8564 a8bd 012e 9a3e
00000280: 9858 243d d341 223e 0358 afbd 0066 b0ba
00000290: 059e 013e 02e4 cb3d 2304 003e f7d9 1b3e
000002a0: 827d 09be cbd1 2bbe 87cc 1ebe 0387 aabe
000002b0: 484f 9bbc e27b 38be cd01 64be 3da1 0cbe
000002c0: 5a75 d03d 826f 36be ac91 9abe e427 85be
000002d0: 1688 10be d271 de3d 6c15 91bd fde5 97be
000002e0: 6fae b9be 128f 61be f311 cfbd c7e3 4dbe
000002f0: 43c9 49be 18a5 8a3d e255 963d cbd9 52be
00000300: 4dce a93e a23b d8bd 9424 2dbe f816 e43d
00000310: 7b2e 8fbd e683 0ebe 1a33 02be 184b 1d3e
00000320: 34ee c2bd 06be 893d 7b01 d9bd 21f0 5c3e
00000330: 1c33 3ebd 2496 80bd 71ec c53d 6f9e 193e
00000340: 41ed 123e f825 1fbe 1a12 e0bd c0f2 21bb
00000350: 5aca 02be b3d7 003e 3b55 d4bd 8d21 c03e
00000360: 4892 3d3e c045 6cbc 7cda 9ebd ce5c 5f3d
00000370: 8234 a03e 7ce1 9fbd f315 323e aff7 a83e
00000380: eb6c 093e d007 08bd a0c3 7dbd ce9b bd3d
00000390: 58a2 473d 39d1 1e3e 7e5b b33d 36dd 19be
000003a0: 0021 063c e136 b9bd 6851 0cbd aa98 c03d
000003b0: 5355 01be 5909 ccbd 9864 2cbe bf3f babd
000003c0: 9f35 16be c070 1dbe 60f6 1dbe f626 8abd
000003d0: 862b 20be 6a9c e43d 3024 ce3c 847e 49bd
000003e0: 5c0c 59bd cc32 41bd 3a60 ebbd 402e 5fbc
000003f0: 2c84 343d 4063 223b bd51 cabd c7fb 283e

bias f4 [16]
0.50581604 -0.049052313 0.029691238 -0.062733814 0.030615147 -0.10909866 0.17208092 -0.041734695
-0.10010779 -0.037181884 -0.15964842 -0.14795111 0.06756612 -0.36157304 -0.013886347 -0.13953927
00000000: 297d 013f 14eb 48bd 0a3b f33c 967a 80bd
00000010: 9ecc fa3c 1e6f dfbd fb35 303e 00f2 2abd
00000020: 5005 cdbd 084c 18bd e07a 23be 7f80 17be
00000030: 1b60 8a3d 1a20 b9be 9083 63bc 62e3 0ebe

weight f4 [2, 16]
-0.24624646 -0.16513124 -0.27219087 0.11747074 -0.4316931 -0.005564183 -0.40957105 -0.24891856
-0.052554622 -0.12657699 -0.19872667 -0.19854343 -0.30890304 -0.12103753 -0.14640135 -0.22231556
0.60595584 0.14695826 0.32615507 0.1146349 0.07279976 0.19528043 0.23119469 -0.13532004
-0.011549607 0.24295077 0.12494065 -0.017707407 0.36209226 0.12561701 0.05957365 0.044555023
00000000: 0828 7cbe 2a18 29be 9a5c 8bbe 8094 f03d
00000010: e106 ddbe c053 b6bb 4cb3 d1be 82e4 7ebe
00000020: 8443 57bd 669d 01be 017f 4bbe f84e 4bbe
00000030: 8a28 9ebe 86e2 f7bd 3cea 15be b1a6 63be
00000040: ec1f 1b3f 3a7c 163e ccfd a63e b4c5 ea3d
00000050: 0a18 953d 98f7 473e 4dbe 6c3e 5691 0abe
00000060: 903a 3dbc 16c8 783e e2e0 ff3d 200f 91bc
00000070: 2864 b93e bfa1 003e 8003 743d 547f 363d

bias f4 [2]
-0.25718492 0.452515
00000000: bead 83be 0cb0 e73e
