aggregated_results/Frog/live/Frog_live_mc_2.pt (torch, 6108 bytes, 6 tensors)

weight f4 [16, 5]
000000 74 ca d4 3e 2c f5 9b 3e 14 5d d3 be 1a 35 de 3e
       0.4156071 0.3046049 -0.4128195 0.43399888
000010 b2 a3 df be 50 b7 98 3d 78 d8 84 3e a6 14 e4 be
       -0.43679577 0.07456839 0.25946403 -0.44547004
000020 54 0a 24 3e 2e 60 41 be 50 16 12 3e 15 cb cc c0
       0.16019565 -0.18884346 0.14266324 -6.3997903
000030 34 23 0e bd ae 61 d0 3e 46 81 b2 be 9a b0 85 3f
       -0.03470154 0.40699524 -0.34864253 1.044452
000040 e9 4c 12 40 ba dd 98 be b6 87 96 3e b9 79 08 3e
       2.2859442 -0.29856664 0.29400414 0.13327684
000050 f8 24 3e 40 4b 7b d8 40 0f f0 34 3e 6e 8b bd be
       2.9710064 6.7650504 0.176697 -0.3702044
000060 1e cf d5 3e 66 05 96 bf 56 b0 20 c1 7a bb 4f be
       0.4175958 -1.1720397 -10.043051 -0.2028636
000070 8c f5 be 3e 1a 6e 86 3f 9d 2a df be 13 2e 64 40
       0.37296712 1.050235 -0.435872 3.5653121
000080 4b 74 e4 be 88 7f 8e 3e c8 9e 4e bf 72 e2 e9 bd
       -0.44619974 0.27831674 -0.8071103 -0.11420144
000090 76 f6 cf c0 8a 30 8e be b0 2f c9 bd b2 61 ec be
       -6.4988356 -0.27771407 -0.09823549 -0.46168286
0000a0 0a 8d 23 3f 62 6c f9 be b0 bc c5 be 88 2f e6 3d
       0.63887084 -0.48715502 -0.3862052 0.112395346
0000b0 3d 84 af be 4e 46 e8 bd 34 90 80 40 18 a5 e8 bc
       -0.34280577 -0.113415346 4.017603 -0.028399035
0000c0 1c 7d ac bd 10 9f 1b 3e 41 7a a1 bf 3b c9 ca 40
       -0.084223 0.15197396 -1.2615434 6.3370643
0000d0 f9 b0 3f 3f 3a e5 9d be 88 0b 8c bf 76 d4 33 be
       0.74879414 -0.30838948 -1.0941019 -0.17561516
0000e0 2b 0d d3 be 58 3a a6 3d fc a8 2e be 0e 15 26 be
       -0.41220984 0.08116597 -0.1705665 -0.16218969
0000f0 0e de 94 3e f4 96 d6 be 52 1d b7 be 5e 99 b0 be
       0.29075664 -0.41912043 -0.35764557 -0.3449201
000100 40 9d 59 3b c0 34 78 3d c0 75 b2 bd 88 88 77 3e
       0.00332053 0.06059718 -0.08713865 0.24173176
000110 d8 d5 8d 3d c0 b3 d6 3d 2f 99 f2 3f ef c9 ff 3f
       0.06925553 0.10483503 1.8952998 1.99835
000120 45 b5 ed be 68 2a 48 bd 3e ef 15 bf e0 26 a7 3c
       -0.4642736 -0.048868567 -0.5856818 0.02040428
000130 36 0c a6 40 7b b7 bc be 27 8f 9a be f5 ac eb be
       5.1889906 -0.36858734 -0.30187342 -0.46030393

bias f4 [16]
000000 60 60 e2 3d d6 52 67 be fe 8a 0a bf f4 01 76 be
       0.11053538 -0.22590193 -0.54118335 -0.24024183
000010 10 06 8a bc 1c 7c f1 3e cc 7c 00 bf 12 41 b9 bd
       -0.016848594 0.47165 -0.50190425 -0.09045614
000020 af 80 56 be 3a ae 28 bf ee cc 8c 3e f8 98 9e be
       -0.20947526 -0.6589085 0.275001 -0.3097608
000030 3f ac a3 be 8a 1b 82 be cb 2d 35 be 13 f8 16 bf
       -0.3196735 -0.25411636 -0.1769325 -0.5897228

weight f4 [16, 16]
000000 80 2b 92 bd b0 b0 2a 3e 68 69 73 be 48 0a 91 3d
       -0.07137203 0.16668963 -0.23770678 0.07082039
000010 bc 87 fd bd 3c 99 4a be 7c fd 1d 3e 98 be 39 bd
       -0.12379405 -0.19785017 0.15428728 -0.04534778
000020 94 88 fd bd 48 17 f2 3d 8c d0 b7 bd b4 2e a5 3d
       -0.12379566 0.11820847 -0.08975324 0.080655485
000030 58 10 0b be 04 da 58 be 8c 20 dd 3d 6e a9 57 3e
       -0.13580453 -0.21176916 0.107972234 0.21060726
000040 4c a3 cd 3d 9c af 59 be cd 82 00 40 d0 9b 82 bd
       0.10040912 -0.21258396 2.0079834 -0.06377375
000050 59 8d e4 bf 08 c0 20 3f 74 80 83 bf 02 3b 00 40
       -1.7855636 0.62793016 -1.0273576 2.0036016
000060 2c 17 71 bd 3f 1a 80 bf 16 72 96 c0 5c 0b 45 be
       -0.05885999 -1.000801 -4.7014265 -0.19242615
000070 06 7a 0e be 80 08 59 bd 78 0b b6 3e 21 38 7c 3f
       -0.13913736 -0.05298662 0.35555625 0.98523146
000080 40 e7 36 3c b4 ab 46 be 6e 56 a5 be fc 6a 61 be
       0.011163533 -0.19401437 -0.32292503 -0.22013468
000090 44 f6 b6 bd 1c c3 17 be d1 71 91 be b0 68 a4 be
       -0.0893369 -0.14820522 -0.28407148 -0.3211112
0000a0 e4 a2 b0 bd b4 11 2c be 4b 96 99 be f8 c3 18 bd
       -0.08624819 -0.16803628 -0.29997477 -0.037296265
0000b0 64 36 29 be 36 28 68 be 42 3c 22 be d0 5d 5c bd
       -0.16524655 -0.2267159 -0.15843299 -0.053800404
0000c0 92 84 3c 3e 3e cd 16 3e d1 c8 53 be b2 39 17 3e
       0.18409947 0.14726731 -0.20682074 0.14768103
0000d0 98 86 3d be ac d4 4c be 18 fa 2e be c4 a2 96 be
       -0.18508375 -0.20003003 -0.1708759 -0.29421055
0000e0 3e 61 15 3e ec 35 0d 3d 6a 16 63 be 7e 77 79 3e
       0.14587876 0.034475252 -0.22176519 0.24361989
0000f0 18 67 b3 bd 26 f6 74 3e 94 54 d2 3d 60 87 0a 3c
       -0.08759898 0.23922023 0.10270038 0.0084551275
000100 ac 5c 5e 3e 58 1b 9c 3d d3 f6 c3 3f ea f7 4f be
       0.21715039 0.07622403 1.53097 -0.20309415
000110 48 d0 66 be 02 cd 7d 3f 98 bb af bf 90 2c ca 3f
       -0.2254039 0.9914094 -1.3729124 1.5794849
000120 43 10 b7 3e 48 78 b6 be 64 01 4e c0 0a 12 3d 3e
       0.35754594 -0.35638642 -3.2188349 0.18463913
000130 12 91 00 be 00 93 fd 3b c2 d9 a1 3f 3c ff 1c 40
       -0.1255534 0.007738471 1.264458 2.4530783
000140 60 cf f6 bc 86 3d 1d 3e 67 d2 61 3f 0c 9e 3f 3e
       -0.030128181 0.153555 0.88211673 0.18712634
000150 a4 db fe 3e c0 21 55 bf 92 de e6 bf b0 dd 2e 3f
       0.49776947 -0.83254623 -1.8036673 0.6830702
000160 b8 4b a5 bc 16 92 19 bf b3 25 99 bf 92 44 4d 3e
       -0.020177707 -0.59988534 -1.196463 0.20045689
000170 b8 02 c9 bd b0 a1 1b bd 5d bb 83 3f d7 3d 89 3f
       -0.09814972 -0.037995994 1.0291554 1.0721997
000180 1c 8b d3 bd 54 9a 57 3e 05 be 78 3f 00 d1 97 bc
       -0.103292674 0.21054965 0.97164947 -0.018532276
000190 cc d4 66 3e 4e 9e 63 3f c6 61 53 bf 62 e3 93 3f
       0.22542113 0.8891343 -0.82571065 1.1553767
0001a0 4e 49 14 bf 0a 21 9d 3d 3e f9 0b c0 ac d3 a3 3d
       -0.57924354 0.07672317 -2.1870875 0.079993576
0001b0 10 1e 0c 3e ee 00 27 be f8 57 89 3f 96 9b 04 40
       0.13683343 -0.16308948 1.0729971 2.0719962
0001c0 1e ed 7b 3e 80 90 3b 3c 26 3d 06 40 be 48 06 3e
       0.24602172 0.011448026 2.0974822 0.13113686
0001d0 56 93 43 3e 47 14 d0 3f 00 a0 d2 bf 75 32 f1 3f
       0.19099173 1.6256188 -1.6455078 1.8843523
0001e0 10 ca 05 3e 86 e4 96 bf 7d fc 87 c0 94 7e 22 be
       0.13065362 -1.178849 -4.2495713 -0.15868598
0001f0 1a d3 28 3e 1e cb 5d be 3c 39 b6 3f 69 f1 e2 3f
       0.16486779 -0.21659514 1.4236217 1.7729923
000200 70 ae b4 3d c8 af 8a 3d ae ed a9 3e cc a7 83 bd
       0.08822334 0.06771809 0.33189148 -0.06428489
000210 b8 50 47 3e b4 9d 85 bf 64 22 46 bf 1d f1 69 3e
       0.19464386 -1.0438752 -0.77396226 0.22845884
000220 7f cc 2d 3e d4 92 e2 be c6 8e 51 c0 70 3f 84 3d
       0.1697254 -0.44252646 -3.2743392 0.06457412
000230 a2 75 68 be 60 c5 43 bc b1 86 8f 3f 90 d5 1a 40
       -0.22701123 -0.011948913 1.121298 2.4192848
000240 c0 7c 91 3c 5c 76 61 be da ea 11 bf 3c b4 43 be
       0.01775968 -0.22017807 -0.5699898 -0.19111723
000250 cd ed 1c be 80 31 0b 3b 4d 4d 6b be fd 12 f9 be
       -0.15325089 0.002123922 -0.22978707 -0.486473
000260 0d 52 28 3e 44 ca 64 be 7a c7 c9 be 10 38 1e 3d
       0.1643755 -0.22342783 -0.3941 0.038627684
000270 12 02 6d be e6 c1 46 be 6c 30 cd 3d b8 85 97 3d
       -0.23145321 -0.19409904 0.10019001 0.07398552
000280 c0 9d 5c be 88 14 30 bd a2 f2 d6 3f e0 e2 87 3d
       -0.21544552 -0.04298833 1.6792796 0.0663507
000290 63 5d cf bf b5 4a e5 3e d6 d1 85 bf ca e8 c8 3f
       -1.6200374 0.4478356 -1.0454662 1.5696042
0002a0 94 08 67 3e e2 a1 7a bf 62 28 58 c0 e6 61 2b 3e
       0.22561866 -0.97903264 -3.3774648 0.16736564
0002b0 0c 72 08 be cc 5c 1d be 06 83 29 3e 20 2d 0f 40
       -0.13324755 -0.1536743 0.16553888 2.2371292
0002c0 e2 88 56 be 80 45 29 3b 86 f5 13 3e e8 f5 cc 3e
       -0.20950654 0.0025828779 0.14449129 0.40031362
0002d0 00 26 9f 3f 32 9a cd bf 8a 45 9f bf f3 20 e0 be
       1.2433472 -1.6062682 -1.2443097 -0.43775138
0002e0 3e ad 09 be e4 e3 c9 bf d3 82 0e 3f ec c3 a8 bd
       -0.13444993 -1.5772672 0.5566837 -0.08240494
0002f0 68 43 b0 bd 00 f5 ca ba 80 f3 77 3f d5 42 31 40
       -0.08606607 -0.0015484393 0.96855927 2.769704
000300 08 7f af bd 84 4a 7c 3e e1 04 3a 3e e4 79 46 be
       -0.08569151 0.246378 0.18165924 -0.19382435
000310 73 29 1f be d9 11 66 be 70 9a 07 be 68 e4 cd 3d
       -0.15543155 -0.22467746 -0.13242507 0.10053331
000320 d8 a4 ad bc 74 b4 71 bd d2 05 25 bf 40 0d 41 3e
       -0.021196768 -0.059009984 -0.64462006 0.1885271
000330 c0 ce 8f bc 62 38 3b 3e c0 e2 c9 3d 22 76 17 3e
       -0.01755464 0.18283227 0.09857702 0.14791158
000340 a4 27 4e 3e bc c0 35 3e a6 2e 10 be e0 eb 1a 3d
       0.20132309 0.17749304 -0.14080295 0.037822604
000350 bc da 5b be 20 13 7f bc a0 6f 2d be aa b0 21 3e
       -0.2147016 -0.015568525 -0.16937113 0.15790048
000360 ec 03 7b be 3e 67 11 3e 90 3e 13 bd 4a 76 7b 3e
       -0.24513215 0.1419954 -0.035948336 0.24556842
000370 44 59 5d be ee 95 1f be 50 e1 7a be 4e 12 61 be
       -0.21616083 -0.15584537 -0.24500012 -0.21979639
000380 58 f9 33 3e 60 c4 42 bc 54 64 de 3f b8 b6 6f be
       0.17575586 -0.01188764 1.7374368 -0.23409545
000390 44 64 58 3f f4 77 97 3f 64 1e 60 bf 28 71 cd 3f
       0.84527993 1.1833482 -0.8754637 1.6050158
0003a0 3a b2 f8 bd 81 2d b3 be 2e 0e 76 c0 b8 31 4e be
       -0.12143369 -0.34995654 -3.8446155 -0.20136154
0003b0 d6 67 2d be 18 a6 74 be a5 b6 81 3f 3e 36 c1 3f
       -0.16934142 -0.23891485 1.0133864 1.5094678
0003c0 18 a0 f0 3d 50 ff 0d be 2f 6b 41 3e 4c a9 f5 3f
       0.117492855 -0.13866925 0.18888544 1.919229
0003d0 25 30 70 40 18 fd 00 c0 c3 f2 29 be 80 8b 98 3d
       3.7529385 -2.0154476 -0.16596512 0.074484825
0003e0 bc e9 38 bd f6 e9 95 be 1e 7c 9d 3f 68 d4 05 3e
       -0.04514478 -0.2928006 1.2303503 0.13069308
0003f0 49 24 21 be 76 76 17 be a7 fa e1 3f 18 80 06 40
       -0.15736498 -0.14791283 1.7654618 2.1015682

bias f4 [16]
000000 ca 61 5d be 26 5d 72 bf 5d d5 27 bc 5f ac 82 3e
       -0.21619335 -0.94673383 -0.010243741 0.25522134
000010 89 9d c4 3f f0 4d 1c bf cb 98 28 3e f0 d0 4c 3f
       1.5360576 -0.61056423 0.16464536 0.80006313
000020 b8 b7 1e 3d 06 2d 87 be 5e d4 34 bf 7c 13 95 bd
       0.038749427 -0.26401538 -0.70636547 -0.07279107
000030 c2 13 c6 bd 56 8a 5c be ee a1 6e 3f ac 3a 48 3e
       -0.09671737 -0.21537146 0.93215835 0.19553632

weight f4 [2, 16]
000000 f2 92 5f be 4f 07 24 c0 66 f9 32 3e 51 f0 bc 3e
       -0.21833399 -2.562946 0.1747795 0.36902097
000010 00 c2 55 c0 71 59 29 c0 18 8b ca bf d7 1e 32 c0
       -3.3399658 -2.646084 -1.5823698 -2.7831323
000020 50 00 61 c0 14 3d 59 3e d8 b8 3e c0 3f 5a 8a bf
       -3.515644 0.21214706 -2.980032 -1.0808791
000030 06 1d 1b bf 20 cf 72 bc a3 a2 ea bf 61 cf 15 c0
       -0.6059116 -0.01481989 -1.8330883 -2.3407824
000040 0a 32 79 3e c8 68 50 40 1c 15 e4 bd a8 e9 e2 3d
       0.24335495 3.2563953 -0.11136839 0.11079723
000050 a4 21 91 40 9b ec f6 3f 54 d7 75 40 9a 5a a0 40
       4.5353565 1.9290956 3.8412676 5.0110598
000060 c0 fc e0 3f 98 40 b3 be 3c f3 32 40 c2 e6 67 40
       1.7577133 -0.3501022 2.7960958 3.6234593
000070 d0 03 3c 3c d4 38 cb bd 5f b8 63 40 f7 19 1a 40
       0.011475518 -0.099229485 3.558128 2.4078348

bias f4 [2]
000000 04 18 83 be b5 49 91 3d
       -0.2560426 0.070941366
