saved_snake/old/live_snake_2.pt (torch, 27070 bytes, 10 tensors)

weight f4 [32, 14]
00000000: e629 6cbe 10bb bdbc 1a32 3b3e 2588 74be
00000010: 2827 883d d8c3 27bd a0e3 c1bb 54f5 67bd
00000020: 9f26 4fbe a031 abbc 0a2b 29be 8e60 6abe
00000030: a846 59bd 77a1 1bbe 7a53 6c3e 1edb 763e
00000040: 3461 233e 3bcf 48be 1ea7 0c3f 04df 4a3e
00000050: 1555 f7be dadf 44bf 5430 273d 3975 7d3f
00000060: 100e c0be 2503 6c3e caba 31bf 4d54 fd3e
00000070: 90f8 db3c 7833 163d 008f 59bc 8887 8fbc
00000080: ec61 4cbe a5dd 65be d0e8 05bc 48a1 853c
00000090: 4012 6ebe 6c59 81bd f9ee 2cbe e838 97bc
000000a0: e4f1 92be 175c 12be 4467 18bd c0e7 edbb
000000b0: 8115 69be fd34 dfbe 2cb7 3abd d16b 10bf
000000c0: 4a43 edbd e003 4cbd de43 d53e afce d7be
000000d0: cc15 c9be e0ae f2bb 2d7a 35be 0840 d33d
000000e0: 5add 6f3e fbb2 0fbe d437 103e badc 17bf
000000f0: fba1 633e 1e18 dabe 0c28 44bf 406c 5cbf
00000100: 1ec2 c7be 1cf3 803f 1e91 8abd c7b0 d7be
00000110: a342 3bbe 1325 48be 32a8 aabd 18e1 573e
00000120: 446c b2bd 290f 0bbe a690 61be 4028 53bb
00000130: 524e 43be 6c25 19bd 4c14 0cbe 1872 16be
00000140: 3db3 87be f813 bdbc 643d 0fbd dc93 82be
00000150: 20f0 75bc b4a7 2b3e b56e 62be 7631 a73d
00000160: e0ae 023c f43d 27be 29e1 37bf 60d2 24bf
00000170: 30e1 333e 6f15 3e3f e446 a1be fcd0 44bd
00000180: 6055 cfbe c620 923e 0043 eb3c c8a3 39be
00000190: 9622 703e b13f b2be ccc0 03bd b810 1bbe
000001a0: d235 47be fa6a 4bbe 20ff 2fbe 18f8 8abe
000001b0: 9659 b3be 101e 48be 903e dbbe bd42 65be
000001c0: 40ad cf3d 6ed6 11be 844b 893d 10ea cf3d
000001d0: 19dc a7be e6b5 7d3e 20f2 3e3e 2666 17be
000001e0: 5639 d5be cbca 49be 005c da3c 1873 443d
000001f0: 8078 dc3d 3eff 22be e0d3 73bc 60d4 4b3c
00000200: 0c17 2dbd 9019 31be 008e 0ebc 380d 3b3e
00000210: 470b 5fbe 0052 8039 7911 43be 326e 7bbe
00000220: c068 323c 1c8b e9be a487 93be 27e3 0ebe
00000230: f0a4 7a3d 90d3 b7bd e475 c53d 9e26 87be
00000240: 3885 013d f28c c7bd a032 ed3c 009f b9ba
00000250: 7c74 9dbe 8017 3fbc 94d1 efbd f670 2b3e
00000260: 506c b4bd 8990 9ebe 1252 88bd 685a 2e3d
00000270: 00bc 73bc e0df 8fbc da85 2ebe a066 08bd
00000280: f30b 40be 5058 4fbe 8059 c9bd e4b4 ecbe
00000290: 80ff 683d 36c9 85bd ce5a 28be 182e 0a3d
000002a0: 2646 5cbe b2e1 733e 1ccf 203e e4dd d7bd
000002b0: 58d7 2fbe 9ec1 1dbe eba5 12be 48bd 903d
000002c0: b09d c3bc a030 733c 5e1a 133e 98a0 bd3d
000002d0: cc8e 54be e083 bfbd f6ca 293e 08d7 e43d
000002e0: 3813 19bd a092 fabd 9c50 eebe 50fc b2bc
000002f0: ed99 49be c0cf 5cbd a0c5 c5bd 1a19 8abe
00000300: d811 e2bc 327c 10be 80f2 ef3c 511c 2c3e
00000310: 5409 56bd 204e 4e3d a67c 783e 30eb 21bd
00000320: 2cee 86be 53e4 32be 896a 0dbe 96af 8ebd
00000330: 4c17 4fbd ea3f c2be f44a 76bd 4086 9fbd
00000340: 7ef2 97be 48a3 e2bc 94e2 1cbd 0675 0ebe
00000350: 302d ee3c c83e f23d 9c59 63be fd68 38be
00000360: b4f0 a03f fea2 5d3f ee24 d3bd 6c30 debe
00000370: 5d78 0c3f b4e7 19bd 11c5 173f 1010 63bd
00000380: c0ae a7bb 16f2 213e 6344 44be 490a 71be
00000390: c834 b5be edd8 82be 3a73 19be 841c 6dbe
000003a0: ba79 b7bd 8c79 47be 80ac db3b 007d c83d
000003b0: 0015 ffbc d029 793d 28c8 483e 5a80 98bd
000003c0: f6d3 4c3e 87cd c6be feda 87be d84f f33c
000003d0: baff 1ebf 47da 94be abc4 32bf 669e d13e
000003e0: 60d3 e6be 350e 38bf 805d 42bc 224d 533e
000003f0: 1239 553e 3051 623d d0f0 d03c 013f b7be
-0.23062858 -0.023160487 0.18280831 -0.2388006 0.066480935 -0.040958256 -0.0059170276 -0.056630448
-0.20229577 -0.020897686 -0.16520324 -0.22888395 -0.0530459 -0.15198313 0.23078719 0.24107024
0.15955049 -0.19610302 0.549425 0.19811636 -0.483071 -0.7690407 0.040817574 0.9900699
-0.3751073 0.23048075 -0.6942564 0.4947838 0.026851922 0.03667018 -0.013278723 -0.017520681
-0.19959229 -0.22447832 -0.008173183 0.016312256 -0.2324915 -0.06315884 -0.16888036 -0.018459752
-0.28700173 -0.14292942 -0.037207857 -0.007260293 -0.2276211 -0.43595114 -0.045584843 -0.56414515
-0.115851 -0.049808383 0.4165334 -0.42149875 -0.39274442 -0.0074061006 -0.17722388 0.10314947
0.23424283 -0.1403312 0.14083797 -0.59321177 0.2222976 -0.42596525 -0.76623607 -0.86102676
-0.39015287 1.0074191 -0.0676596 -0.42127058 -0.18287139 -0.19545393 -0.08332862 0.2108196
-0.08712056 -0.13580002 -0.22027835 -0.0032220036 -0.19072846 -0.037389204 -0.13679618 -0.14691961
-0.26503935 -0.02308081 -0.034970656 -0.25503433 -0.015010864 0.16763192 -0.22112544 0.08163731
0.007976264 -0.16332227 -0.7182794 -0.64383507 0.17566371 0.74251455 -0.31499398 -0.048050866
-0.40494823 0.2854063 0.028718472 -0.18128884 0.23450693 -0.34814218 -0.032166287 -0.15143096
-0.19454125 -0.19865027 -0.17187166 -0.27142406 -0.35029286 -0.19542718 -0.4282117 -0.2238874
0.10140467 -0.14241955 0.067038566 0.10152066 -0.3278511 0.2477642 0.18647051 -0.1478506
-0.41645306 -0.19706266 0.026655197 0.047961324 0.10765171 -0.1591768 -0.014882058 0.012440771
-0.042258307 -0.17294908 -0.008700848 0.18266761 -0.21781646 0.00024475157 -0.19049634 -0.24553755
0.010889232 -0.45613945 -0.28814423 -0.13953839 0.061192453 -0.08975899 0.096416265 -0.2639665
0.031621188 -0.0974368 0.028954804 -0.0014161766 -0.30752933 -0.011663318 -0.11709896 0.1674231
-0.088097215 -0.30969647 -0.06656279 0.042566687 -0.014876366 -0.017562807 -0.17043248 -0.033300996
-0.18754558 -0.20248532 -0.09831524 -0.4623176 0.05688429 -0.065325186 -0.16440889 0.033735365
-0.21511135 0.23816565 0.15704006 -0.10540369 -0.17171991 -0.1540589 -0.14321105 0.070673525
-0.023878902 0.014843136 0.14365527 0.092591465 -0.20757598 -0.09351325 0.1658133 0.111738265
-0.037371844 -0.12234998 -0.46545875 -0.021848828 -0.19687624 -0.053909063 -0.096568346 -0.26972276
-0.0275964 -0.14109877 0.029290438 0.16807677 -0.05225499 0.050367475 0.242663 -0.039530933
-0.26353586 -0.17469911 -0.13810171 -0.06967084 -0.050559327 -0.37939388 -0.060130075 -0.07789278
-0.29677194 -0.02766575 -0.03830202 -0.13911828 0.029074281 0.11828381 -0.22202152 -0.180088
1.2573457 0.8657683 -0.10309778 -0.43396318 0.5487116 -0.037574485 0.59285074 -0.05543524
-0.0051172674 0.15815005 -0.19166712 -0.2353908 -0.3539183 -0.25556126 -0.14985362 -0.23155409
-0.089587644 -0.1947996 0.006703913 0.09789467 -0.031137943 0.06083089 0.19607604 -0.07446356
0.20002732 -0.3882868 -0.26534265 0.029701158 -0.6210896 -0.29072782 -0.6983134 0.4094116
-0.4508314 -0.7189668 -0.011863112 0.20634893 0.20822552 0.055253208 0.025505453 -0.35790256

bias f4 [32]
00000000: de55 eebe 848c 21bd 446c e7be 62ac b4be
00000010: 88a5 9c3c 1805 1cbf 0318 193e b90e 1ebe
00000020: de52 fbbe 14a5 e9be 0896 51be 60f8 40be
00000030: 90b7 62be 2e94 92be 382a 89be 816e 093f
00000040: 6b3f 6bbe 4207 0dbf 4057 5e3c 32a8 aebe
00000050: 94c1 1ebf 924f cbbe 4cee adbe f6b6 94be
00000060: f56d 933e 8d52 7f3e 2162 a4be c6cf 3ebe
00000070: 022a 00bf 8c6e 25bd bec2 c7bd c522 38be
-0.46549886 -0.039440647 -0.45199788 -0.35287768 0.0191219 -0.6094527 0.14950566 -0.15435304
-0.4908666 -0.45633757 -0.20467389 -0.18844748 -0.22140336 -0.28628677 -0.26790023 0.5368424
-0.22973411 -0.550892 0.013570607 -0.34112698 -0.62014127 -0.39709145 -0.3397087 -0.29045838
0.28794828 0.24933834 -0.32106116 -0.18633947 -0.500641 -0.04038863 -0.09753941 -0.17982014

weight f4 [64, 32]
00000000: 5ba6 d3bd 0dfa 5cbe 6e38 c63d c37a 203e
00000010: 50bd 193d 2664 1d3e a0a5 2c3c 284e 973d
00000020: 9845 653e a0b0 3e3d c067 40bd 623e 6bbe
00000030: ec1a 3c3d d8f0 4fbd 9f96 313e 64e9 413d
00000040: e03c 783d 930a 30be 7c8e 33bd 509f 9b3e
00000050: 2003 073c c033 9b3e d8ee 92bc f7a2 19be
00000060: d0b8 40bd 8c3b 0c3f 20e2 203d 3ea6 6abd
00000070: c0cc 29bb b079 56bd 8577 bbbe 28e3 06bd
00000080: d68b b3bd b0bb adbe 50a0 abbd c086 33bb
00000090: 61be 27be 390c b03e 7bb2 2fbe 60a3 24be
000000a0: 04cf 983d df76 083e 142e 63be f08c c5bd
000000b0: 7ba8 0c3e 14a9 65be ab88 3fbe 3683 9b3d
000000c0: 07aa b0be 4f66 7cbe 90ee 373d d879 e9bd
000000d0: 2650 a03e 2095 a3bc cc74 f2bd 3ac8 8c3d
000000e0: 0c78 82be e289 ad3d e2eb b23d 1339 e6bd
000000f0: f092 4f3d 8ba3 9bbd d8e0 e1bc f0f7 babe
00000100: e7f1 f53d 5960 6bbe f059 223d 1823 c13c
00000110: 4e72 b8be 9829 a73c a159 96be d895 bf3d
00000120: f0e1 b43d a6ea 2ebe 78ad 1b3d 545a 71bd
00000130: c2eb 943d 06d3 423e 6523 2b3e d2c5 87be
00000140: fac9 9b3e 6796 11be 2b13 10be 20ae 913d
00000150: 26e5 4f3e d18f 1cbe 68c0 133d ce59 8d3d
00000160: 4079 97be 26bc 2ebe c05f 6f3c 8f7b 2b3e
00000170: d7de d03d d080 4dbd d8c4 e43c 40d3 d83c
00000180: 169c b03e 2094 55be c135 07be a6af c2bd
00000190: 4073 f73b ffb1 2fbe 1ea0 13bf c0f6 b1bc
000001a0: 2501 0d3e 3610 03be fcd1 0dbe de4e a6bd
000001b0: 2038 e63b 0243 f83d 0c87 eebd 1b23 70be
000001c0: eaac b23e 864e edbd 2e1c 46be f821 1fbd
000001d0: ec32 243e a4a5 87bd 5b4a 993e 20d3 403c
000001e0: 3d14 bcbe 4a50 87bd 6c70 14bd 602f 81bb
000001f0: 058f 8a3e 9499 5e3d 5eec c33d e10d 7e3e
00000200: 9ca1 933e 1cd7 8dbd d77a 953e 17f8 96bd
00000210: add6 f1bd 6e8d f3bd c33b 3ebe a1a9 333e
00000220: c45a dcbd c09f 1abe 3cfe ea3d 64d8 543d
00000230: b0f3 81bc a302 2e3e 0d6b 593e 855c 44be
00000240: 5b3b bd3e a8a4 073e 784d 11bd 7a17 8ebd
00000250: 6e88 013e da52 b3bd 9e39 bd3e 91f2 303e
00000260: 76ab 1cbe c40e 6f3d 8c57 42bd 007b 1f3a
00000270: a017 893e 4059 a93c d455 513d 77ce 483e
00000280: c061 cf3c b02b 53bd 22b9 7b3e a628 0ebe
00000290: 0d4d 6fbe 73a1 ccbd 3c9f c4be 1399 14be
000002a0: 8003 8abe 1cd4 31be 0ade 9c3e 701f 4cbd
000002b0: 7810 c93c bf01 5b3e 571f 34be c2c3 c2bd
000002c0: 1833 3b3e 1047 f73d c1c3 32be e5bb 13be
000002d0: ccc0 103d 712a b7be 143b 333d 25b2 173e
000002e0: 66eb 0bbf 8ea8 92be 71b9 05be 00df 1e3a
000002f0: 55ed 98bd 90dd 34be c2d8 0abe 4bf6 e23d
00000300: 02b3 8b3e fe32 98bd 6a8d 683e b6d6 833d
00000310: c2f4 9d3d 66fe 85be 6b48 bebe 0986 b7bd
00000320: b5fe 21be c605 cc3d 2c22 933e b6b2 9d3d
00000330: c03a 6dbc c803 223e a209 a33d 1196 9cbe
00000340: 10ad 933e 4c44 56bd 6d12 a0be 86e9 edbe
00000350: 2956 dcbd ea72 f4bd 7cc0 ffbd 535d 17be
00000360: 340c bcbe 31e3 6dbe 1062 17be 34a5 31bd
00000370: ceb5 a1be cf53 1c3e 8033 163b c372 763e
00000380: efd4 013e 22e2 89be 3016 8e3e 6487 293d
00000390: 106b 28be 409b 023d b40b f3be 9290 183e
000003a0: 20d1 f03b 860d 24be 7534 663e 74ca 02bd
000003b0: 269d 8a3d 44ff 57bd 49e7 9a3d bc2c a3bd
000003c0: 88c2 023e 9f16 bdbd 8b74 1b3e c105 0fbe
000003d0: 7427 343e d088 acbe 4883 be3d dc7c ccbd
000003e0: f065 ddbd 700d 03be 9277 e23d e031 9c3c
000003f0: 1a2e cd3d 3c4d 28be 5c64 47be 2c1b 2c3e
-0.10334464 -0.21579762 0.09678732 0.1567183 0.037534058 0.15370235 0.010537535 0.07387954
0.22389829 0.04655516 -0.046973944 -0.22973016 0.045924112 -0.050766796 0.17342614 0.04734172
0.06060493 -0.17191534 -0.043837056 0.30394983 0.008240491 0.3031292 -0.017936155 -0.15003572
-0.04705125 0.5477836 0.03927815 -0.057287447 -0.0025909394 -0.052362144 -0.36614624 -0.032931477
-0.08766906 -0.33932257 -0.083801866 -0.002739355 -0.16381218 0.34384325 -0.17157929 -0.16077948
0.0746136 0.13326596 -0.22185546 -0.09646022 0.13736145 -0.2242778 -0.18704478 0.07593386
-0.3450472 -0.24648403 0.044905245 -0.11400193 0.31311148 -0.01996857 -0.118386835 0.06874128
-0.25482213 0.08473565 0.08736397 -0.11241355 0.05067724 -0.07599553 -0.027573034 -0.36517286
0.1200903 -0.22985972 0.039636552 0.023576304 -0.36024708 0.020405576 -0.29365256 0.09354752
0.08832157 -0.17081699 0.03800723 -0.058924034 0.0727153 0.19025812 0.1671272 -0.26518112
0.30427533 -0.1421753 -0.14069812 0.0711329 0.20302257 -0.15289237 0.036072165 0.069018945
-0.29584694 -0.1706396 0.014610231 0.16746353 0.10198753 -0.050171673 0.027925894 0.02646792
0.34494084 -0.20857286 -0.13204099 -0.095061585 0.0075515807 -0.17157744 -0.57666194 -0.021724105
0.13769968 -0.12799153 -0.13849634 -0.081205115 0.0070257336 0.12122156 -0.11646852 -0.23450892
0.34897548 -0.11587243 -0.19346687 -0.038850754 0.1603505 -0.0662339 0.2993954 0.011769086
-0.3673419 -0.06607111 -0.036240026 -0.003942415 0.2706224 0.054345682 0.09566568 0.24809982
0.28834236 -0.069257945 0.29195282 -0.07371538 -0.11808524 -0.1189221 -0.18577485 0.17545177
-0.107595 -0.15100002 0.114742726 0.05196418 -0.01586327 0.16993193 0.21232243 -0.19175918
0.36959347 0.13246405 -0.03547427 -0.069380715 0.126497 -0.08756037 0.3695802 0.17280032
-0.15299782 0.05836369 -0.047446772 0.0006083697 0.26775837 0.02067244 0.051107243 0.1961001
0.025315166 -0.051555336 0.24582341 -0.13882694 -0.23369236 -0.099917315 -0.38402736 -0.14511518
-0.26955795 -0.1736607 0.30638152 -0.04983467 0.024543986 0.21387385 -0.1759008 -0.09509994
0.1828121 0.12074101 -0.17457487 -0.14427145 0.035340115 -0.35774568 0.043757513 0.1481405
-0.54656065 -0.28644222 -0.13059022 0.0006060451 -0.074671425 -0.17662644 -0.13559249 0.11082133
0.2728501 -0.07431601 0.22710195 0.06437437 0.077126995 -0.26170653 -0.37164626 -0.08961112
-0.1581982 0.09962039 0.2873701 0.07700102 -0.014479339 0.15821755 0.07960822 -0.30583242
0.28842974 -0.052311227 -0.31264058 -0.46467227 -0.10758621 -0.119359806 -0.12487885 -0.14781694
-0.3672806 -0.23231198 -0.14783502 -0.04337044 -0.31584018 0.15266345 0.002291888 0.24067216
0.12678884 -0.26930338 0.27751303 0.041388884 -0.16447091 0.03188634 -0.47469866 0.14898899
0.0073491484 -0.16020784 0.22480948 -0.031931356 0.06768255 -0.052733675 0.075636454 -0.07967517
0.1276952 -0.0923283 0.15181176 -0.13967039 0.17593175 -0.3369813 0.09302384 -0.099847525
-0.10810459 -0.12798095 0.110579625 0.019066751 0.10018559 -0.16435713 -0.19471878 0.1680724

bias f4 [64]
00000000: 869d 6cbe 5ae6 75be 5902 70be 0c3b 6cbe
00000010: 68c5 dbbc 1cc9 bebd 80d3 85bd 6af4 c2bd
00000020: 28f8 0fbd c8cc 12bd d7a1 67be badc bbbe
00000030: 28b6 b5bd b448 283f a828 abbe 9d52 94be
00000040: 5a64 81be a0ab ccbc c70f bbbe 2578 68be
00000050: 4e93 b2be e00c a7be 39e0 08be acdf d9bd
00000060: fe24 86be 22ce efbd eecc 92be 2360 30be
00000070: 59f0 9cbe e074 a2bd 9613 edbe 6e69 c4be
00000080: dcad f2be 088c abbe 18cc a33d d021 74be
00000090: 9897 12be f488 abbe ea6c c33d 5cde 46bd
000000a0: 8e77 81be 2ae7 28be fff1 4dbe c693 eebe
000000b0: b274 bbbd f003 8dbe 86d8 89be e5f9 11be
000000c0: 268e 1fbe 1e8a 97bd 2189 60be ea1a 66be
000000d0: f282 8b3d aa0c 92be 69f9 e0be c4bd 77be
000000e0: 9f05 f13d 1cf8 6fbe c86f 13bd 585e 0ebd
000000f0: a0a5 1bbd dccb edbc 2ed9 06be 0b1b 9bbe
-0.23106965 -0.24013653 -0.23438396 -0.230694 -0.02682753 -0.09315702 -0.06534481 -0.095192745
-0.03514877 -0.035839826 -0.22620331 -0.36691839 -0.08872634 0.65735936 -0.33429456 -0.2896928
-0.25271875 -0.02498418 -0.36535475 -0.22702082 -0.3487801 -0.3262701 -0.13366784 -0.10638365
-0.26200098 -0.117092386 -0.28671974 -0.17224173 -0.3065212 -0.079324484 -0.46304005 -0.38361686
-0.4739827 -0.33505273 0.07997912 -0.23841023 -0.14315641 -0.33502924 0.09542258 -0.048551902
-0.25286525 -0.16494432 -0.20111845 -0.46597117 -0.09153117 -0.27542067 -0.26923007 -0.14255483
-0.15581569 -0.07399391 -0.2192731 -0.22471204 0.06812085 -0.28525287 -0.43940285 -0.24193484
0.1176865 -0.2343449 -0.035995275 -0.034757942 -0.03799975 -0.029027872 -0.13168785 -0.3029407

weight f4 [32, 64]
00000000: 5731 1ebe 61c1 543e 00e9 843d f03d 83bc
00000010: 0ae8 bd3d 144b f73d ecd5 ba3d 607d 773c
00000020: 7aea 913e 503b 823c 4a9c b1bd 02e2 6f3e
00000030: 423a cebd b6b2 aebe 3332 2b3e 6034 a33e
00000040: 23f0 dd3d eef8 563e daf0 2b3e 54c7 b6bd
00000050: fcf0 44be 28aa f73c d29f e93d 80a7 903c
00000060: d509 803e 8afc 873e 665e e53d 645b 3abd
00000070: 6a65 59be 24d6 83be 74a8 8abd 732c 513e
00000080: b098 3abd 00ff 183a 8481 e63d d609 a03e
00000090: 30a7 163d 7b42 44be 9853 ae3c 8850 9a3c
000000a0: 56f9 c03d 681a e03d 0063 743e a0b8 863e
000000b0: 5c80 68bd b6a3 553e 4cb4 83be 0a79 373e
000000c0: 9682 b0bd d49b babd 00d9 c53d a8de bfbd
000000d0: fe15 9cbd 5214 a63e 91e4 7e3e 9ad1 bc3d
000000e0: 8c6f ecbd 9312 843e f4e0 13bd ccd0 123d
000000f0: 4208 c33d c5fd f33d 6a82 96bd 39f7 473e
00000100: 0c7f 98be c272 803e bed5 46be fe66 c63d
00000110: c0f6 6bbc 099d 2dbe c492 e0bd 0099 363d
00000120: c3dd 4a3e 026b c4bd 0ca0 0a3d 805c 03bc
00000130: fa82 eebd b0cb f7bd 5925 3b3e 803e b43d
00000140: 9bc9 97be e872 a23e 257d 243e 7b68 45be
00000150: fe6d eebd 1067 04bc a874 aa3c e821 e43c
00000160: 388c 253e cced f23d cca3 0d3d 82ae 8abd
00000170: 06cf c1bd c042 f3bb 621b a1be 7514 303e
00000180: 80aa 6a3d 1cdb 87be 9f58 4bbe 36dc 6a3e
00000190: fcd8 a9bd 6671 ddbd bc13 e3bd 1229 fabd
000001a0: 8220 fabd 72fa b2bd 3000 c83d 42a8 1e3e
000001b0: 8644 fc3d 2655 953d 1c6a a9bd 1649 2a3e
000001c0: 8689 9ebe b459 553d 64f1 733d d0f6 6fbc
000001d0: b8ea eb3c 4c7d a33e 0243 8bbd 26af e13d
000001e0: 7055 0e3c 59d6 813e 14d7 d1bd f0d4 cfbd
000001f0: 0eac d43d f893 f13d 14e6 eabd 8c29 3b3e
00000200: 9a7e 3bbe f748 423e c196 7c3e b835 57bd
00000210: 4055 d03b 1aac a83d 6095 88bd fa06 953d
00000220: ba8a d63d 6e80 a43d 98bc f9bd cdaa 4d3e
00000230: 9cdb 933d 5013 2b3e fe3a 023e 7b09 413e
00000240: c01b 053d 382c 433e 043d a63e 52c4 36be
00000250: db12 63be 60b1 8c3b 74d0 123d ba5d 8ebd
00000260: 7261 b33d 804a 853e 140a 5e3e 24cc 523d
00000270: 0213 9dbd 56e0 54be 8003 a53c 50df 363e
00000280: b2e4 973d 9cab 913e 2b4f 653e 66ef dc3d
00000290: dc8d 293d f72b 33be dc31 8e3e 40bb e73d
000002a0: b477 58bd 14f0 39bd 361c e53d a881 bc3c
000002b0: bf72 233e af75 1b3e 463e d5bd 3aeb a23e
000002c0: c451 f7bd 1805 3c3d 2433 8f3e 006a 8a39
000002d0: 8092 933c ef68 6d3e daab f13d 6279 9a3d
000002e0: 563e 4d3e 7f93 553e 984d b5bd 981a d0bd
000002f0: dc59 033d d9e0 d93d e2e7 fa3d ab83 2d3e
00000300: 3290 bebd 5cbb 00be 4438 7abd 14ea df3d
00000310: 72cb 843e 06b1 893e 1844 8d3e 4e98 983d
00000320: 0c4b c03d f65c aa3d c631 bc3d c60a c9bd
00000330: 864a cabd d06a e3bd 5aa8 8cbe fc14 49be
00000340: 93b8 973e 00ca 0dba ed25 11be b47e 5e3d
00000350: 003e 173e e0aa a33d bce9 adbd 20f3 f0bb
00000360: a004 e9bd a028 313d 3248 d33d 4093 14bb
00000370: 00c1 883c de82 c63d d00b e8be 0e75 99bd
00000380: 3095 423d d094 2b3c d09d b63c 4029 303b
00000390: 94b8 a83d dfb5 813e 048f 27bd 4099 9fbb
000003a0: 38ea a7bd bc23 c13d 3c5d e8bd c8f2 ce3d
000003b0: b69b 923e 6cf3 ba3d 3a7d af3d 2045 c4bc
000003c0: b057 103e 402c 033d d98d 473e 3ee9 b33d
000003d0: 3839 a13e 208f d0bb 3258 8cbe b651 803d
000003e0: ec89 b7be f007 9dbc 383d d0bc ee3a 423e
000003f0: d3da 583e ed86 253e 3610 ac3d 24f9 1dbe
-0.15448509 0.20776893 0.06489754 -0.016020745 0.092727736 0.12074867 0.091228336 0.015105575
0.28499204 0.015897423 -0.08672388 0.23426059 -0.100697055 -0.3412072 0.16718368 0.31875896
0.10836818 0.20993397 0.16791096 -0.089247376 -0.19232553 0.030232504 0.114074364 0.017657995
0.250075 0.2655986 0.11199646 -0.045497313 -0.21230093 -0.25749314 -0.06770411 0.20427112
-0.04555577 0.0005836338 0.11255172 0.31257504 0.036780536 -0.19165985 0.021280095 0.018837228
0.09422557 0.109425366 0.2386589 0.26312733 -0.056763038 0.20863232 -0.25723493 0.17917266
-0.08618657 -0.09111753 0.0966053 -0.0936864 -0.07621382 0.32437378 0.24891879 0.09219666
-0.115447134 0.2579542 -0.036103204 0.035843655 0.095230594 0.11913637 -0.07349093 0.19527902
-0.2978443 0.25087553 -0.19417474 0.09687613 -0.0144020915 -0.16954435 -0.10965493 0.044579506
0.19811158 -0.095907226 0.03384404 -0.008017659 -0.116460755 -0.12099397 0.18275966 0.088009834
-0.29646 0.31728292 0.16063364 -0.19278137 -0.11642073 -0.008081213 0.02080758 0.027848199
0.1616677 0.118617624 0.034580037 -0.06771566 -0.09463315 -0.0074237287 -0.31466204 0.17195304
0.057291508 -0.26534355 -0.19858025 0.22935566 -0.082933396 -0.10812645 -0.110877484 -0.12214865
-0.122132316 -0.08739175 0.09765661 0.15493873 0.12317757 0.072916314 -0.08272192 0.16629443
-0.30964297 0.0520875 0.05955638 -0.014646247 0.028798446 0.3193153 -0.0679989 0.11019735
0.008687362 0.25358847 -0.10246101 -0.101480365 0.10384379 0.11795801 -0.11469665 0.18277568
-0.18310013 0.18973146 0.24666883 -0.052541465 0.006357819 0.08235951 -0.06669116 0.07276721
0.10475679 0.080323085 -0.121941745 0.20084687 0.072196215 0.16706586 0.12717816 0.18851273
0.032497168 0.19059837 0.32468426 -0.17848328 -0.22175162 0.0042936057 0.035843328 -0.06951471
0.087588206 0.260334 0.21683532 0.051464215 -0.07669641 -0.20788702 0.02014327 0.17858624
0.07416667 0.2845124 0.22393481 0.10787849 0.041395053 -0.1749724 0.27772415 0.11315012
-0.052848533 -0.045394972 0.111870214 0.023011044 0.15961741 0.15181611 -0.10412268 0.3182009
-0.120761424 0.045903295 0.27968705 0.00026400387 0.018014193 0.2318456 0.11800356 0.07542683
0.2004331 0.20857047 -0.088526905 -0.10161322 0.03206812 0.106385894 0.122512594 0.16944759
-0.09304847 -0.12571472 -0.061088815 0.10933319 0.25936466 0.2689287 0.27591014 0.07450925
0.09389314 0.08318512 0.09189181 -0.09816508 -0.098774955 -0.11104357 -0.27472192 -0.19636911
0.29633006 -0.00054088235 -0.14174624 0.054320052 0.14769745 0.07991576 -0.08491847 -0.0073532015
-0.11377835 0.043251634 0.103165045 -0.0022670776 0.016693592 0.0969293 -0.45321512 -0.074930295
0.047505558 0.010472491 0.022292048 0.0026880056 0.082383305 0.2533407 -0.040907875 -0.0048705637
-0.081989706 0.09430644 -0.11345908 0.101049006 0.28634423 0.0912846 0.08568807 -0.023958743
0.1409595 0.032024622 0.19487704 0.08784722 0.31488967 -0.006364718 -0.27411038 0.06265585
-0.35847414 -0.019168824 -0.025419816 0.18967792 0.21177225 0.16164751 0.084015295 -0.15427071

bias f4 [32]
00000000: 3c65 78bd 82a1 63be c492 fd3e 20f0 95be
00000010: 2b77 86be 2f32 71be d99b 92be 6cdf f73e
00000020: d263 a33d 6b3d 4bbe 507f 32bc 5ebb bdbd
00000030: e0dd 8fbc 7f35 4abe 08d3 bcbe 94a5 6abe
00000040: d0ea 7cbe c4ad d6bd e331 74be c273 6fbe
00000050: 8cdf acbe 44b7 7ebe 1b87 193f e4ce a4be
00000060: 513d 8ebe dc22 a7bd e8e4 223d de19 073f
00000070: 588f 11be 6acb 9ebd 7e55 dbbd 6fd6 84be
-0.06064342 -0.22229579 0.49526036 -0.29284763 -0.26262793 -0.235543 -0.28634527 0.48412645
0.079780236 -0.19847648 -0.0108946115 -0.09264253 -0.017561853 -0.1974697 -0.36879754 -0.22914726
-0.24698949 -0.10482362 -0.23847155 -0.23384002 -0.33764303 -0.24874598 0.5997178 -0.32189095
-0.27781156 -0.08160946 0.039769083 0.52773845 -0.14214838 -0.07753642 -0.10709666 -0.2594485

weight f4 [14, 32]
00000000: a377 61be 7c63 abbe 2d7d 98be 489a 4b3d
00000010: 887f e4bc 60eb f1bd 53c7 81be 541d 22bd
00000020: 643c 30bd 5728 75be 3430 afbe be1c 96be
00000030: b3e2 043e 9447 b8be a926 62be 7c48 16bd
00000040: 36fa bebe 89b6 bebe 9e31 94be 68bf 7dbe
00000050: fa3b 97be 3ef7 12be d660 eabd 6cf8 40be
00000060: 78a5 86bc b0a3 abbe d8e9 c7bc 1111 00be
00000070: 91f0 9abe 9911 54be 219b 0e3e e7e6 06be
00000080: 0836 40be 9077 30bd 87bd 0abe 91a7 93be
00000090: c92e 2a3e 7143 00be e9df 3fbe 3640 84be
000000a0: 27be bebe 78af 143d 7a2a 8fbd 5cc3 f9bd
000000b0: a232 77bd f8b4 70be 0466 a5bd a0da f1bb
000000c0: 02ed debd 49d9 b4be cfcb 76be 7d07 133e
000000d0: b010 6e3d 40d7 78bd fa03 c73d b664 d63d
000000e0: a437 0e3d bf7d 27be d0ab 9cbe 7a17 ae3d
000000f0: 5c2d 353d b460 70bd 1188 dabd d0fd 873d
00000100: 2035 0fbe 1bbc 133e 6aa4 0dbe f4a0 94be
00000110: 7239 bf3e 8d32 e33d 8f67 22be 68e2 76bd
00000120: 6076 98be f8b0 323e 959f e9bd 868c 03be
00000130: 94c5 153d 2b2d 6ebe a515 3f3e 9896 8b3e
00000140: bf42 b8be 90ef d4bd 2b79 3fbe 6f7c e23d
00000150: 2fb8 183e 2cfa bd3e 60b1 c23b 5cb8 263e
00000160: e281 993d fc52 7f3e b4fa afbe 967a d4be
00000170: 379f 673e 2f40 723e 001a 6e3d f6a9 8a3d
00000180: da03 833d 90b7 593c eec5 543e c9e8 e9bd
00000190: 864a 17be cf80 263e a9d7 143e e63d a53e
000001a0: 5ff2 6a3e 007d 293a 3689 8a3e af7a b63e
000001b0: d097 2d3c 63fd 0e3f ac5a b1be 8e0e 17be
000001c0: 907a e13e 8d4b 0e3f e028 b23e 2f41 9abd
000001d0: 7e9b cbbd 7c68 54bd b449 0abf 5028 e5bd
000001e0: 5df8 29be fec5 2d3e 4837 9d3d c844 9ebc
000001f0: 301e 3c3d d77b a0bd 4046 5abc af3a 37be
00000200: 6a5d 60be 6edb e6bd 5565 02be 291b 43be
00000210: 35cc 9ebe 68a5 03bd da52 9ebe 60e8 afbe
00000220: cac3 b4be f2ea 97be e1ea 4cbe 32d6 e0bd
00000230: cd85 07be 367b 81be 2017 3abd 2881 a3be
00000240: e130 4dbe 423a 1dbe 5609 aebe 7537 8abe
00000250: 8cae 94be ae18 8e3d 34bc 97bd 681c d7bc
00000260: be02 a23d 96d2 bbbe 14b2 b6bd 2729 b6be
00000270: a2c4 2bbe 5ce7 25bd 9a16 14be 461d 29be
00000280: c4d5 2ebd e8a4 2b3d 48bc bbbc 7062 bbbe
00000290: ae56 223e 48f7 f53c 2a4c a23e 7073 ebbd
000002a0: 27c3 303e 59f0 9c3d 6c6c 1b3e d2bc 1abe
000002b0: 64e2 5a3d fc20 343e 25a0 9a3e 6f89 f13d
000002c0: 6897 d93c ec7b 21be b877 ec3d c1ba db3d
000002d0: ff30 d63d 426b ae3e 235e 0cbe 9e74 bb3d
000002e0: 780a bc3c 87fe 663e 7e0d f13d 27e1 0fbf
000002f0: 2ff2 a93d f09c a33e 7390 a2bd fc39 0f3d
00000300: c4b6 28be f071 44bd a06f 59bc 9693 e03d
00000310: eb88 1fbe 80a8 15bd 5bb9 1c3e ce8f f43d
00000320: 0055 0cbe c0c1 60bc 8c13 b0bd d060 583c
00000330: 4059 a6bd e4d3 06be a317 243e 7c15 48bd
00000340: f688 9fbd 8895 4fbd e00b 303c 1dd0 013e
00000350: 5515 afbd 58c8 823c b868 5f3d 19b0 1c3e
00000360: 6836 b23c 7d69 2ebe 30b7 1fbe 8815 c2bd
00000370: e61f f0bd 98b5 afbc 03fa 043e 2aba fbbd
00000380: 06c4 33be 1138 c9bd 7d72 e7bd e418 36bd
00000390: 4110 1b3e a048 09be 687c 213d dca1 153d
000003a0: 4422 97bd 390a 253e def5 d53d e024 07bc
000003b0: 83cb 0b3e 8002 63bd 9042 1c3c f4cf 063d
000003c0: f99d 333e 2a20 2ebe a49b 833d 3d1a 0f3e
000003d0: ae67 d43d 29e8 1b3e 8460 33bd 443e 32bd
000003e0: 57b8 243e 446a 1c3d 4028 a6bd 4b61 66be
000003f0: 2696 ca3d 2036 c93c 4010 733c 26f7 d53d
-0.22018294 -0.33474338 -0.29783002 0.04970768 -0.027892843 -0.11812472 -0.25347385 -0.03957875
-0.043026343 -0.2394117 -0.34216464 -0.29318804 0.12977104 -0.3599211 -0.2208506 -0.03669022
-0.3730027 -0.37248638 -0.28944105 -0.24780047 -0.29537946 -0.14352128 -0.11444251 -0.18844765
-0.016436324 -0.3352332 -0.024403498 -0.1250651 -0.30261663 -0.20709838 0.13926364 -0.1317402
-0.18770611 -0.043082774 -0.13548861 -0.2883878 0.1661941 -0.12525727 -0.18737759 -0.2583024
-0.3725445 0.036300153 -0.06990524 -0.12195465 -0.06035102 -0.23506534 -0.080760986 -0.0073807985
-0.108850494 -0.35322025 -0.24101184 0.14358325 0.058121383 -0.060752153 0.09717555 0.10468428
0.03472103 -0.16356562 -0.30599833 0.085005715 0.04423271 -0.058685973 -0.10670484 0.06640208
-0.1398511 0.14427225 -0.1383225 -0.29029047 0.37348515 0.11093626 -0.15859817 -0.06027451
-0.29777813 0.1745032 -0.11407391 -0.12846574 0.03656538 -0.23259418 0.186606 0.2726333
-0.35988423 -0.103972554 -0.18698566 0.1105889 0.1491401 0.37104928 0.005941555 0.16281265
0.07495476 0.24934 -0.3437096 -0.41499776 0.2261933 0.23657297 0.058130264 0.06770699
0.06397219 0.013288394 0.20778629 -0.11421353 -0.14774522 0.16260074 0.14535393 0.32273787
0.2294402 0.0006465465 0.2705781 0.35640475 0.010595277 0.5585539 -0.3463949 -0.14751646
0.4403882 0.5558403 0.3479681 -0.07531964 -0.09941767 -0.051857457 -0.5401871 -0.111893296
-0.1659865 0.1697006 0.0767656 -0.019319907 0.045927227 -0.078361206 -0.013322413 -0.1789348
-0.21910635 -0.11272322 -0.12733968 -0.1905333 -0.31015173 -0.032140166 -0.30922586 -0.34356976
-0.35305625 -0.29671437 -0.20011474 -0.109783545 -0.13234635 -0.25289315 -0.04543221 -0.31934476
-0.20038177 -0.15354255 -0.33991498 -0.26995435 -0.2903942 0.06938301 -0.07408944 -0.026258662
0.07910679 -0.36684102 -0.089206845 -0.35578272 -0.16774228 -0.040503845 -0.14461747 -0.16515073
-0.04268433 0.041905314 -0.022916928 -0.3659854 0.15853378 0.03002514 0.31698734 -0.11496627
0.17261945 0.0766303 0.15178078 -0.15111092 0.05343856 0.17590708 0.30200306 0.117937915
0.026561454 -0.15769929 0.11546272 0.1072898 0.10458564 0.34066206 -0.13707785 0.09153102
0.02295421 0.22558032 0.117701516 -0.5620293 0.08298146 0.3195567 -0.07937708 0.034967408
-0.1647597 -0.04796022 -0.013271242 0.1096565 -0.15579574 -0.036537647 0.15305082 0.11941491
-0.137043 -0.013718069 -0.08597478 0.013206676 -0.08122492 -0.13166767 0.16024642 -0.048848614
-0.07789795 -0.050679713 0.010745019 0.12677045 -0.08548991 0.015964672 0.054543227 0.15301551
0.021754459 -0.17032428 -0.15597224 -0.09476763 -0.11724834 -0.021448895 0.12985997 -0.12291367
-0.17555246 -0.09825147 -0.11301134 -0.04445733 0.15142919 -0.1340661 0.039425284 0.036531314
-0.073795825 0.16117181 0.10447286 -0.008248538 0.13651852 -0.055422306 0.009537354 0.032913163
0.1754073 -0.17004457 0.064261705 0.13974853 0.10371338 0.15225281 -0.043793216 -0.043516412
0.16085945 0.03818728 -0.08113146 -0.22498052 0.0989192 0.024561942 0.014835417 0.104475304

bias f4 [14]
00000000: ca58 f3bd 4b90 b8be ac10 5fbd 79e0 08be
00000010: bd20 83be 2009 83bd 2482 15be c440 acbe
00000020: 7cad 083f abb7 4ebe 8f08 2dbe 56eb cebe
00000030: 2899 7cbd 6362 bdbe
-0.118821695 -0.36047587 -0.05445926 -0.1336688 -0.25610915 -0.06398225 -0.14600426 -0.33643162
0.53389716 -0.20187251 -0.16897796 -0.40413922 -0.0616695 -0.36989126

weight f4 [2, 14]
00000000: e639 8bbe b887 493e e935 6f3e 02d3 88bd
00000010: d8bb 993c 054c 0b3e 4009 2c3e cccf a23d
00000020: 18a7 2c3f 8cc9 36bd e800 503d 079a 05be
00000030: e8ab d0bd c44b 4abe b03b ce3d c004 4fbc
00000040: 0f13 29be 342d 91bd 9429 bfbd 4ee7 a7bd
00000050: 8017 a33d f8fe 4f3d f05c 27bf ec87 a9bd
00000060: a66b 283e 304c 0b3d 0640 243e aef0 083e
-0.2719261 0.19680679 0.23360409 -0.066808715 0.018766329 0.13603218 0.16800404 0.0794979
0.67442465 -0.044625804 0.050782114 -0.13047038 -0.101890385 -0.19755465 0.10069978 -0.01263541
-0.16511177 -0.070887 -0.09334102 -0.08198415 0.07963467 0.050780267 -0.65376186 -0.08277878
0.16447315 0.034008205 0.16040048 0.13373062

bias f4 [2]
00000000: 2457 b23e 3621 a3be
0.34832108 -0.31861275
