aggregated_results/TarotMaster/retrospective/TarotMaster_retrospective_mc_3.pt (torch, 4470 bytes, 6 tensors)

network.0.weight f4 [16, 5]
0	0x3ed4ca74	0.4156071
1	0x3e9bf52c	0.3046049
2	0xbed35d14	-0.4128195
3	0x3ede351a	0.43399888
4	0xbedfa3b2	-0.43679577
5	0x3d98b750	0.07456839
6	0x3e84d878	0.25946403
7	0xbee414a6	-0.44547004
8	0x3e240a54	0.16019565
9	0xbe41602e	-0.18884346
10	0x3e121650	0.14266324
11	0xc0cccb15	-6.3997903
12	0xbd0e2334	-0.03470154
13	0x3ed061ae	0.40699524
14	0xbeb28146	-0.34864253
15	0x3fd4dbc5	1.6629568
16	0x400c445d	2.1916726
17	0xbe98ddba	-0.29856664
18	0x3e9687b6	0.29400414
19	0x3db2409c	0.087037295
20	0x4057bc5f	3.3708723
21	0x40cbacef	6.36486
22	0x3f13a148	0.5766797
23	0xbebd8b6e	-0.3702044
24	0x3e7384c4	0.23781115
25	0xc04ae6b3	-3.1703308
26	0xc10d2630	-8.821823
27	0xbf5d2d8e	-0.86397636
28	0x3ebef58c	0.37296712
29	0x3fd4f2e9	1.663663
30	0xbfd1ee0a	-1.6400769
31	0x4017ef7b	2.3739917
32	0x3ee23b4e	0.4418587
33	0x3e8e7f88	0.27831674
34	0xbf636b52	-0.8883563
35	0xbde9e259	-0.114201255
36	0xc0cff676	-6.4988356
37	0xbe8e3097	-0.27771446
38	0xbdc92fb0	-0.09823549
39	0xbeec61b2	-0.46168286
40	0x3f238d0a	0.63887084
41	0xbef96c62	-0.48715502
42	0xbec5bcb0	-0.3862052
43	0x3de62f88	0.112395346
44	0xbeaf843d	-0.34280577
45	0xbde8464e	-0.113415346
46	0x40809034	4.017603
47	0xbce8a518	-0.028399035
48	0xbdac7d1c	-0.084223
49	0x3e1b9f10	0.15197396
50	0xbf5d005d	-0.8632868
51	0x40be62fe	5.949584
52	0x3f105fe7	0.56396335
53	0xbe9de53a	-0.30838948
54	0xbf5a9fb1	-0.8539992
55	0xbe33d476	-0.17561516
56	0xbed30d2b	-0.41220984
57	0x3da63a58	0.08116597
58	0xbe2ea8fc	-0.1705665
59	0xbe26150e	-0.16218969
60	0x3e94de0e	0.29075664
61	0xbed696f4	-0.41912043
62	0xbeb71d52	-0.35764557
63	0xbeb0995e	-0.3449201
64	0x3b599d40	0.00332053
65	0x3db85a28	0.09001571
66	0xbd338b38	-0.04383394
67	0x3f240fed	0.640868
68	0x3d8dd5d8	0.06925553
69	0xbe8a7654	-0.27043402
70	0x3f32c22b	0.69827527
71	0x3fd34b75	1.6507403
72	0xbd83b63c	-0.06431243
73	0xbd482a68	-0.048868567
74	0x3f303a17	0.6883864
75	0xbf96d292	-1.1783011
76	0x408081dd	4.0158525
77	0xbef2b050	-0.4740014
78	0xbe9a8f27	-0.30187342
79	0x3f12145d	0.5706232

network.0.bias f4 [16]
0	0x3de26060	0.11053538
1	0xbe6752d6	-0.22590193
2	0xbf0a8afe	-0.54118335
3	0xbe92adb1	-0.2864814
4	0x3f00c702	0.5030366
5	0x3f11aae5	0.5690139
6	0xbc52de20	-0.012870342
7	0xbdb94148	-0.090456545
8	0xbe5680af	-0.20947526
9	0xbf28ae3a	-0.6589085
10	0xbe04f97c	-0.12985796
11	0xbe9e98f8	-0.3097608
12	0xbea3ac3f	-0.3196735
13	0xbe6bc6d8	-0.23025072
14	0x3f8a337c	1.0796962
15	0xbd78e2e8	-0.06076327

network.2.weight f4 [16, 16]
0	0xbd922b80	-0.07137203
1	0x3e2ab0b0	0.16668963
2	0xbe736968	-0.23770678
3	0x3d910a48	0.07082039
4	0xbdfd87bc	-0.12379405
5	0xbe4a993c	-0.19785017
6	0x3e1dfd7c	0.15428728
7	0xbd39be98	-0.04534778
8	0xbdfd8894	-0.12379566
9	0x3df21748	0.11820847
10	0xbdb7d08c	-0.08975324
11	0x3da52eb4	0.080655485
12	0xbe0b1058	-0.13580453
13	0xbe58da04	-0.21176916
14	0x3ddd208c	0.107972234
15	0x3e57a96e	0.21060726
16	0x3dcda34c	0.10040912
17	0xbe59af9c	-0.21258396
18	0x400082cd	2.0079834
19	0xbee17e5f	-0.44041726
20	0xbfeb9260	-1.8404045
21	0x40414e94	3.020421
22	0xbfe7bba0	-1.8104134
23	0x40003b02	2.0036016
24	0xbd71172c	-0.05885999
25	0xbf801a3f	-1.000801
26	0xc0479d3e	-3.1189723
27	0xbe450b5c	-0.19242615
28	0xbe0e7a06	-0.13913736
29	0xbee12052	-0.4396997
30	0xbee1583f	-0.4401264
31	0x3f803903	1.0017399
32	0x3c36e740	0.011163533
33	0xbe46abb4	-0.19401437
34	0xbea5566e	-0.32292503
35	0xbe616afc	-0.22013468
36	0xbdb6f644	-0.0893369
37	0xbe17c31c	-0.14820522
38	0xbe9171d1	-0.28407148
39	0xbea468b0	-0.3211112
40	0xbdb0a2e4	-0.08624819
41	0xbe2c11b4	-0.16803628
42	0xbe99964b	-0.29997477
43	0xbd18c3f8	-0.037296265
44	0xbe293664	-0.16524655
45	0xbe682836	-0.2267159
46	0xbe223c42	-0.15843299
47	0xbd5c5dd0	-0.053800404
48	0x3e3c8492	0.18409947
49	0x3e16cd3e	0.14726731
50	0xbe53c8d1	-0.20682074
51	0x3e1739b2	0.14768103
52	0xbf15b48e	-0.5847863
53	0xbe242da9	-0.16033043
54	0xbe2efa0a	-0.1708757
55	0xbe96a2c4	-0.29421055
56	0x3e15613e	0.14587876
57	0x3d0d35ec	0.034475252
58	0xbf1eb230	-0.6199064
59	0x3e79777e	0.24361989
60	0xbdb36718	-0.08759898
61	0x3f064635	0.5245088
62	0xbe973290	-0.29530764
63	0xbec68bc4	-0.38778508
64	0x3e5e5cac	0.21715039
65	0x3d9c1b58	0.07622403
66	0x3fc3f6d3	1.53097
67	0x3ea8a402	0.32937628
68	0xbfbadba1	-1.4598275
69	0x400c05bb	2.1878498
70	0xbfe39a89	-1.7781535
71	0x3fca2c90	1.5794849
72	0x3eb71043	0.35754594
73	0xbeb67848	-0.35638642
74	0xc01bb7f1	-2.433102
75	0x3e3d120a	0.18463913
76	0xbe009112	-0.1255534
77	0xbebf56b7	-0.37370846
78	0xbac07e00	-0.0014685988
79	0x3faae1a7	1.3350114
80	0xbcf6cf60	-0.030128181
81	0x3e1d3d86	0.153555
82	0x3f61d267	0.88211673
83	0x3eb8e1a0	0.36109638
84	0x3d4a1360	0.049334884
85	0x3f445195	0.76686984
86	0xc00cf6e8	-2.20257
87	0x3f2eddb0	0.6830702
88	0xbca54bb8	-0.020177707
89	0xbf199216	-0.59988534
90	0xbfcbda52	-1.5926001
91	0x3e4d4492	0.20045689
92	0xbdc902b8	-0.09814972
93	0xbd1ba1b0	-0.037995994
94	0x3e07bb96	0.13255152
95	0x3f2b119e	0.66823757
96	0xbdd38b1c	-0.103292674
97	0x3e579a54	0.21054965
98	0x3f78be05	0.97164947
99	0x3f0f504a	0.55981886
100	0xbe629bbc	-0.2212972
101	0x3fa4ef39	1.2885505
102	0xbf9cfd55	-1.2264811
103	0x3f93e362	1.1553767
104	0xbf14494e	-0.57924354
105	0x3d9d210a	0.07672317
106	0xbfe50251	-1.7891332
107	0x3da3d3ac	0.079993576
108	0x3e0c1e10	0.13683343
109	0x3e6f987e	0.23398015
110	0x3f14138b	0.5784232
111	0x40042880	2.064972
112	0x3e7bed1e	0.24602172
113	0x3c3b9080	0.011448026
114	0x40063d26	2.0974822
115	0xbd267a00	-0.040643692
116	0xbf8548e6	-1.0412872
117	0x4034b27b	2.8233936
118	0xbf9ff752	-1.2497351
119	0x3ff13275	1.8843523
120	0x3e05ca10	0.13065362
121	0xbf96e486	-1.178849
122	0xc02af163	-2.670983
123	0xbe227e94	-0.15868598
124	0x3e28d31a	0.16486779
125	0xbf1b8756	-0.6075338
126	0x3e22cc82	0.15898326
127	0x3fb075e9	1.3785983
128	0x3db4ae70	0.08822334
129	0x3d8aafc8	0.06771809
130	0x3ea9edae	0.33189148
131	0xbe97e967	-0.2967026
132	0xbe860175	-0.26172987
133	0x3fe04822	1.7522013
134	0xbec2348c	-0.37930715
135	0x3e69f11d	0.22845884
136	0x3e2dcc7f	0.1697254
137	0xbee292d4	-0.44252646
138	0xc008781e	-2.1323314
139	0x3d843f70	0.06457412
140	0xbe6875a2	-0.22701123
141	0xbecc0817	-0.39849922
142	0xbe3b0300	-0.18262863
143	0x401b25a1	2.4241717
144	0x3c917cc0	0.01775968
145	0xbe61765c	-0.22017807
146	0xbf11eada	-0.5699898
147	0xbe43b43c	-0.19111723
148	0xbe1cedcd	-0.15325089
149	0x3b0b3180	0.002123922
150	0xbe6b4d4d	-0.22978707
151	0xbef912fd	-0.486473
152	0x3e28520d	0.1643755
153	0xbe64ca44	-0.22342783
154	0xbec9c77a	-0.3941
155	0x3d1e3810	0.038627684
156	0xbe6d0212	-0.23145321
157	0xbe46c1e6	-0.19409904
158	0x3dcd306c	0.10019001
159	0x3d9785b8	0.07398552
160	0xbe5c9dc0	-0.21544552
161	0xbd301488	-0.04298833
162	0x3fd6f2a2	1.6792796
163	0x3eec1696	0.46110982
164	0xbfd738c0	-1.6814194
165	0x3f9fb29a	1.247638
166	0xc0292f08	-2.6434956
167	0x3fc8e8ca	1.5696042
168	0x3e670894	0.22561866
169	0xbf7aa1e2	-0.97903264
170	0xc085590d	-4.1671205
171	0x3e2b61e6	0.16736564
172	0xbe08720c	-0.13324755
173	0x3e5e64fa	0.21718207
174	0xbf0744f2	-0.5283958
175	0x400cd30f	2.200382
176	0xbe5688e2	-0.20950654
177	0x3b294580	0.0025828779
178	0x3e13f586	0.14449129
179	0x3f022795	0.5084165
180	0x3f57dfd8	0.84325933
181	0xbbe44a80	-0.006966889
182	0xc002d15d	-2.0440285
183	0xbee020f3	-0.43775138
184	0xbe09ad3e	-0.13444993
185	0xbfc9e3e4	-1.5772672
186	0x3f0e6799	0.5562683
187	0xbda8c3ec	-0.08240494
188	0xbdb04368	-0.08606607
189	0xbeb11255	-0.345843
190	0x3e2df4a0	0.16987848
191	0x401733bc	2.3625326
192	0xbdaf7f08	-0.08569151
193	0x3e7c4a84	0.246378
194	0x3e3a04e1	0.18165924
195	0xbe4679e4	-0.19382435
196	0xbe1f2973	-0.15543155
197	0xbe6611d9	-0.22467746
198	0xbe079a70	-0.13242507
199	0x3dcde468	0.10053331
200	0xbcada4d8	-0.021196768
201	0xbd71b474	-0.059009984
202	0xbf2505d2	-0.64462006
203	0x3e410d40	0.1885271
204	0xbc8fcec0	-0.01755464
205	0x3e3b3862	0.18283227
206	0x3dc9e2c0	0.09857702
207	0x3e177622	0.14791158
208	0x3e4e27a4	0.20132309
209	0x3e35c0bc	0.17749304
210	0xbe102ea6	-0.14080295
211	0x3d1aebe0	0.037822604
212	0xbe5bdabc	-0.2147016
213	0xbc7f1320	-0.015568525
214	0xbe2d6fa0	-0.16937113
215	0x3e21b0aa	0.15790048
216	0xbe7b03ec	-0.24513215
217	0x3e11673e	0.1419954
218	0xbd133e90	-0.035948336
219	0x3e7b764a	0.24556842
220	0xbe5d5944	-0.21616083
221	0xbe1f95ee	-0.15584537
222	0xbe7ae150	-0.24500012
223	0xbe61124e	-0.21979639
224	0x3e33f958	0.17575586
225	0xbc42c460	-0.01188764
226	0x3fde6454	1.7374368
227	0x3ec1195c	0.3771466
228	0xbec6d071	-0.38830903
229	0x3f48d4b8	0.78449583
230	0xc037e6a6	-2.8734527
231	0x3fcd7128	1.6050158
232	0xbdf8b23a	-0.12143369
233	0xbeb32d81	-0.34995654
234	0xc0758e3a	-3.8368058
235	0xbe4e31b8	-0.20136154
236	0xbe2d67d6	-0.16934142
237	0x3e01cec0	0.12676525
238	0xbe79a53a	-0.24379435
239	0x3f5dc996	0.8663572
240	0x3df0a018	0.117492855
241	0xbe0dff50	-0.13866925
242	0x3e416b2f	0.18888544
243	0x3fd9411b	1.6972994
244	0x405695ce	3.3528934
245	0xbfd873aa	-1.6910298
246	0xbe208991	-0.15677477
247	0x3d988b80	0.074484825
248	0xbd38e9bc	-0.04514478
249	0xbe95e9f6	-0.2928006
250	0x3fd37920	1.652134
251	0x3e05d468	0.13069308
252	0xbe212449	-0.15736498
253	0xbf610d8e	-0.8791131
254	0x3faf9142	1.3716204
255	0x4008387f	2.1284482

network.2.bias f4 [16]
0	0xbe5d61ca	-0.21619335
1	0x3e2c3b1f	0.16819428
2	0xbc27d55d	-0.010243741
3	0xbe13f376	-0.14448342
4	0x3e7b50ba	0.24542513
5	0xbd91fbd8	-0.071281135
6	0xbe1e51c4	-0.15460879
7	0x3ede8293	0.43458995
8	0x3f29142a	0.6604639
9	0xbe872d06	-0.26401538
10	0xbf77a026	-0.9672874
11	0x3f027f1f	0.5097522
12	0xbdc613c2	-0.09671737
13	0xbe5c8a56	-0.21537146
14	0x3e65a5b7	0.22426496
15	0x3d97b458	0.07407445

network.4.weight f4 [2, 16]
0	0xbe5f92f2	-0.21833399
1	0xc0849dd4	-4.144266
2	0x3e32f966	0.1747795
3	0xbceca1c0	-0.028885722
4	0xc06d42c8	-3.707201
5	0xc02a7eb6	-2.6639838
6	0xc0177198	-2.3663082
7	0xc0988297	-4.765941
8	0xc041d61e	-3.0286937
9	0x3e593d14	0.21214706
10	0xc073484e	-3.8012881
11	0xbfeeaec7	-1.8647088
12	0xbf1b1d06	-0.6059116
13	0xbc72cf20	-0.01481989
14	0xc06bd33c	-3.6847677
15	0xc015c422	-2.340096
16	0x3e79320a	0.24335495
17	0x4050982a	3.2592874
18	0xbde4151c	-0.11136839
19	0x3de2e9a8	0.11079723
20	0x4055ec2d	3.34254
21	0x3ff5427e	1.9160917
22	0x4087223e	4.22293
23	0x40410de9	3.016474
24	0x3fae126a	1.359937
25	0xbeb34098	-0.3501022
26	0x40334072	2.8008084
27	0x40019452	2.0246778
28	0x3c3c03d0	0.011475518
29	0xbdcb38d4	-0.099229485
30	0x404a1e92	3.1581159
31	0x3ffe3ccd	1.9862305

network.4.bias f4 [2]
0	0xbe9e5693	-0.30925426
1	0xbe463bcf	-0.19358753
