saved_snake/Data_Tomato/live_snake_1.pt (torch, 12734 bytes, 10 tensors)

weight f4 [16, 14]
000000 60 d5 9d 3d f5 80 81 3e e2 e5 17 3e 86 32 1b be
       0.07706714 0.252937 0.14833787 -0.15155992
000010 fc 41 8f be 80 e4 0a bb 26 25 4f be 40 9b 49 bd
       -0.2798003 -0.0021193326 -0.20229015 -0.049220324
000020 3c b9 52 be 62 1d 3f be f5 e1 31 be 46 3d 22 be
       -0.20578474 -0.18663552 -0.17371352 -0.15843686
000030 c8 a0 50 bd 0c 72 32 be 1e 2e 7a 3e a4 3a 31 3e
       -0.050934583 -0.17426318 0.24431655 0.17307526
000040 c4 61 18 3e 69 4a 68 be ab a9 a6 be 1a c5 ee 3d
       0.14881045 -0.22684635 -0.3255132 0.11658688
000050 f4 91 c3 bd f4 da 2a 3d 90 cf a7 be 73 48 86 be
       -0.09549323 0.041712716 -0.32775545 -0.2622715
000060 50 95 47 be 54 f7 6e 3d aa e0 41 be b2 19 66 be
       -0.19490552 0.05834134 -0.18933359 -0.2247074
000070 79 d5 49 be 64 14 99 3d 58 ea 4c be 29 ba 0d 3e
       -0.1971034 0.07474592 -0.2001127 0.13840546
000080 46 d8 9b 3f 47 da 54 bf db ab 87 bf 70 f3 4e 3f
       1.2175376 -0.83145565 -1.0599321 0.80840206
000090 89 84 5a be 66 1f 9a be b8 f8 02 bd c7 06 a5 3f
       -0.2133962 -0.3010208 -0.031975478 1.2892693
0000a0 d0 4b c2 bc 6c 60 03 be 5a 44 a8 bd 02 ac 43 3e
       -0.02371779 -0.12829751 -0.08216162 0.19108585
0000b0 0b 81 57 be a0 ed 0e bd c9 6a 76 3e df 03 80 3e
       -0.2104532 -0.034894586 0.24064173 0.25002953
0000c0 26 0b 9c 3e 35 40 4f be 3e 5d ff be c0 10 56 bd
       0.30477256 -0.20239337 -0.49875826 -0.052262068
0000d0 01 a9 38 be e7 dc 15 be bf 16 b9 3d e5 6d 55 be
       -0.1803322 -0.14635049 0.090375416 -0.20842703
0000e0 e9 df 1c be e8 a9 9b 3d 48 c2 fa bd ad 31 88 bf
       -0.1531979 0.076007664 -0.122440875 -1.064016
0000f0 10 dd 6e bf db 7f d8 3d d8 34 ac be 00 30 8c 3e
       -0.93306065 0.105712615 -0.33634067 0.2738037
000100 f8 75 13 3f ef bc 43 be e0 7a d8 3e 48 b2 d8 3c
       0.5760188 -0.19115041 0.42281246 0.026452199
000110 1f 88 c9 bd 8f b0 24 3f ee 4d 6d 3e 9c a2 9c 3d
       -0.09840416 0.6433191 0.23174259 0.07648203
000120 16 b4 32 be 34 a4 1f 3d 38 72 ef 3d e0 93 1c bc
       -0.1745151 0.038974956 0.116917074 -0.0095567405
000130 23 38 55 be 36 17 bd bd 3f 3d f8 be 20 88 5c 3d
       -0.20822196 -0.09232943 -0.48484227 0.053840756
000140 3e fb bb bd a8 b4 3d be fa 2f aa be 71 60 10 be
       -0.0917878 -0.18525946 -0.33239728 -0.1409929
000150 10 c5 dc 3c e6 7d 76 be 88 aa 4d be 8c a7 19 3d
       0.026949435 -0.24071464 -0.20084584 0.0375133
000160 c0 fc b1 3b 50 23 52 bd c0 da d5 bb 34 53 bf be
       0.0054317415 -0.051303208 -0.006526321 -0.37368166
000170 03 80 8a be 84 41 3b bd 14 01 21 be 36 3b 76 3e
       -0.2705079 -0.045716777 -0.15723068 0.24046025
000180 ee 29 74 be d2 4d ab bd 83 db 7b be 88 ac a1 3d
       -0.2384412 -0.083644524 -0.24595456 0.07894236
000190 20 58 bf 3d 00 2a 4d 3d a6 72 09 be d8 81 df be
       0.093429804 0.050088882 -0.13422641 -0.4365375
0001a0 2c 3c 9c bd c0 64 c2 bb b8 e7 19 be 54 91 3c be
       -0.076286644 -0.0059324205 -0.150298 -0.18414813
0001b0 a0 9b 4b 3d 94 f3 3a be a8 a9 23 be 00 0e 97 3c
       0.049708962 -0.1825698 -0.15982687 0.018439293
0001c0 5a 5b 64 3e 05 35 84 3e c6 e2 1d 3e 44 29 41 bf
       0.22300473 0.258217 0.15418538 -0.7545359
0001d0 c5 22 c4 3e c6 42 c5 bd 47 65 53 3f 57 9c b4 3f
       0.38307777 -0.09631877 0.8257641 1.4110211
0001e0 60 54 50 3f b2 b8 93 be 0a c8 58 3f 12 35 3c 3f
       0.81378746 -0.2885185 0.84680235 0.7351848
0001f0 d9 12 21 be e6 4a 80 3f 26 b4 66 3e 30 c4 da 3c
       -0.15729846 1.0022857 0.22529659 0.026704878
000200 d4 47 c5 3d 9f ca 4a be 0e 8e 90 be 7e 99 da be
       0.09632841 -0.19803856 -0.2823338 -0.4269523
000210 c8 e4 bb bc e0 31 b4 be 53 60 b1 be 4a 42 f9 bd
       -0.02293624 -0.35194302 -0.34643802 -0.12170847
000220 90 1c 32 be bc 38 34 3d 18 c1 67 3d 04 8f 80 3d
       -0.17393708 0.04399942 0.056580633 0.06277278
000230 58 28 d2 bc 31 c1 25 be 7a 86 e2 bd 22 61 00 3e
       -0.025654003 -0.16186978 -0.110608056 0.12537053
000240 a0 09 c8 3e df b2 24 bf dc d9 b5 3e 37 ca 07 be
       0.39069843 -0.64335436 0.35517776 -0.13260733
000250 45 d0 4f be 08 cf cf 3d fa 41 5e 3e bf 97 1f bf
       -0.20294292 0.1014691 0.21704856 -0.6234092
000260 f4 9b c4 bd 9d a0 72 3e ce cf 0c be f8 4c 72 3d
       -0.09600058 0.23694082 -0.13751146 0.059155434
000270 10 5f d7 3c a8 17 7b be f0 be 68 3f 75 2d 06 be
       0.026290447 -0.24520743 0.9091635 -0.13103278
000280 18 cd 0b bf c0 27 8e 3d 01 03 b7 3e 66 02 cd bd
       -0.54609823 0.069411755 0.3574448 -0.10010223
000290 5c d5 57 bd ea eb 52 3f c0 dc 39 bc 50 7b 00 be
       -0.05269371 0.82391226 -0.011344135 -0.1254704
0002a0 3a 46 4c 3e c8 ec d5 3d 64 da f3 3d c7 6f ed be
       0.19948664 0.10445553 0.11906889 -0.46374342
0002b0 3c 61 84 3f 32 f6 9d bd 8a 51 b4 be 31 d4 ea 3e
       1.0342174 -0.07712974 -0.3521846 0.45865014
0002c0 9a 0c c6 3e 78 69 03 3d 33 8e 68 3e b5 98 bd 3e
       0.3868149 0.032083005 0.22710495 0.3703057
0002d0 74 db 69 be 98 37 ab 3e 84 23 d3 bd f8 79 b7 bc
       -0.22837621 0.33440852 -0.103095084 -0.022397026
0002e0 08 24 92 bd 66 12 09 3f 1e 0c 4b be 40 62 f1 3c
       -0.07135779 0.535437 -0.19828841 0.029465795
0002f0 eb d5 0c 3f ca e4 9b bd 6d 70 47 bf 10 d6 1c 3e
       0.5501391 -0.076119974 -0.77905923 0.15316033
000300 19 e8 37 3f 6a 85 96 3e ec 5c 40 3d f5 57 1d be
       0.7183853 0.29398662 0.046963617 -0.15365584
000310 00 54 48 3e 1b 19 04 be c9 56 80 3e 7e 34 3c be
       0.19563293 -0.12900202 0.25066212 -0.18379399
000320 d1 4a 03 be c0 7c 9e 3c 00 b7 a2 3a 48 ce 5d be
       -0.12821509 0.019346595 0.0012414157 -0.21660721
000330 23 42 be be 60 90 1d 3d 4e e3 32 3e f4 53 2e bd
       -0.37159833 0.038467765 0.17469522 -0.042560533
000340 68 4a e2 3d a4 61 79 be aa b3 68 3e 0a 44 48 be
       0.11049348 -0.24353653 0.22724786 -0.19557205
000350 00 7a 55 3e 7e 09 e4 3d 2e bd aa be 86 2b ac be
       0.2084732 0.11134623 -0.33347458 -0.33626956
000360 f0 c8 6b 3d 04 2c e2 bd 82 dd 94 be 08 9c 45 3d
       0.057564676 -0.110435516 -0.29075247 0.048244506
000370 4c ca 25 bd 7c 6b ed be 2a aa d0 be 50 2f a0 bd
       -0.04047613 -0.46371067 -0.40754825 -0.07821524

bias f4 [16]
000000 42 ac 95 be 36 14 c9 be 17 fe 8d 3f bf 59 44 bf
       -0.29232985 -0.39273232 1.1093167 -0.7669944
000010 28 42 70 3e b1 2a 6c be 3d 61 07 be 13 9a 42 be
       0.23462737 -0.2306316 -0.13220687 -0.19004087
000020 ea d4 df 3f f4 06 0e be 98 18 10 bf 9a b6 ed 3e
       1.7486851 -0.1386984 -0.5628753 0.46428376
000030 04 c7 2c 3f 7a 6d c1 be 52 a4 c1 be 62 92 a1 be
       0.67491174 -0.37778836 -0.3782068 -0.31556994

weight f4 [32, 16]
000000 00 41 1b bb a0 77 05 3c d7 a1 a1 be f6 06 c6 bd
       -0.0023689866 0.008146197 -0.31568787 -0.096692964
000010 aa 32 5e 3e e0 d1 87 bc 34 46 9d 3d be c0 34 3e
       0.21699014 -0.016579568 0.07679406 0.1765165
000020 ad 45 4c be a8 56 64 be de 4b 86 be 68 b0 b4 3d
       -0.19948454 -0.22298682 -0.26229757 0.08822709
000030 6f b6 17 bf 8d 63 38 be c6 c4 1a 3e 6f 4e e1 be
       -0.59262747 -0.18006726 0.15114126 -0.44005153
000040 b4 21 f4 3d bc 3a 9c 3e aa 75 da 3f 00 32 86 3e
       0.11920491 0.3051356 1.7067158 0.26210022
000050 26 b9 8e 3f c0 21 57 bc 8a 68 d9 bd 10 10 fe bc
       1.1150253 -0.013130605 -0.10615642 -0.031013519
000060 47 06 90 3f 89 31 28 be 26 ef 01 3e de a1 83 3f
       1.1251916 -0.16425146 0.12688884 1.0283773
000070 d8 b8 9d 3f fe 19 aa be 2d c6 e4 be d8 9f e6 3e
       1.2322035 -0.33222955 -0.44682446 0.45043826
000080 04 9f 1c 3e 54 80 56 be c2 b2 86 bd 66 80 ae 3d
       0.15295035 -0.20947391 -0.06577064 0.08520584
000090 08 8f 68 bd e8 a6 27 bd cc 1b 46 be 38 42 e1 3d
       -0.05677703 -0.04093066 -0.19346541 0.10998958
0000a0 e5 ba 2f be 94 3f 2a be b0 e0 1e bd 82 96 7d 3e
       -0.17161138 -0.16625816 -0.038788497 0.24764445
0000b0 d6 19 e4 be c4 ce 36 bd 30 7a 9b bc 68 b0 2d 3d
       -0.4455096 -0.04463078 -0.018979162 0.042404562
0000c0 e0 ee 2e 3d ac 31 88 bd f2 6f a9 be 7e 9f 51 be
       0.042708278 -0.06650099 -0.3309322 -0.20470998
0000d0 fa e2 9c bd 30 fa 3c be 04 d6 86 3d 54 ac d4 3d
       -0.0766048 -0.18454814 0.06583789 0.103844315
0000e0 0c b4 81 bd 30 7e 55 3d 2c 9a 59 be f6 b3 29 be
       -0.06333169 0.052122295 -0.21250218 -0.16572556
0000f0 28 c8 b9 be 5e 9d d1 be 86 c2 27 be e0 8d d7 3d
       -0.3628552 -0.40940374 -0.16382799 0.105251074
000100 44 ba f2 bd 12 4f 97 3e ca 10 db bd 9b 02 f2 3e
       -0.118519336 0.29552513 -0.10696562 0.47267613
000110 a8 86 07 bd 6b ab 71 3e 3e 98 66 be e4 d9 b1 3e
       -0.033087403 0.23600547 -0.22519013 0.3473655
000120 8e 2c fd be 86 b0 95 3e a3 82 db 3e 74 15 93 bd
       -0.49448055 0.2923624 0.42873105 -0.07181826
000130 18 5b 29 be 82 63 2b be fc 42 cf 3d 68 66 d8 3e
       -0.16538656 -0.16737178 0.10120198 0.4226563
000140 88 9a 62 3d e0 4f 3e bd c0 a8 5d bd 50 44 0d 3d
       0.055323154 -0.046462893 -0.05411601 0.034488976
000150 8a 59 69 be 00 5f df 3c 10 dc 04 be c4 7b fb 3d
       -0.22788063 0.02726698 -0.12974572 0.12279466
000160 44 2e e7 bd a2 62 1a be c4 aa 4d be 12 61 34 3e
       -0.11288121 -0.15076688 -0.20084673 0.17615154
000170 d4 4c 91 bd 76 31 42 3e ce e1 67 be be d5 3c be
       -0.07094732 0.1896418 -0.22644731 -0.18440911
000180 f2 53 2c be dc 96 e0 3d f8 56 a9 3c 80 bc 03 be
       -0.16828898 0.10966274 0.020671353 -0.12864876
000190 be 05 b2 be d4 bc db bd f6 d4 59 be a0 57 8a 3c
       -0.34770006 -0.107293755 -0.21272644 0.016887486
0001a0 ae cf 52 be e0 9d 60 be b8 7d 92 bc 54 db 30 3e
       -0.20587036 -0.21935225 -0.017882213 0.17271167
0001b0 3a d4 a8 be f0 6c cf bc 00 e1 7a 3d d0 2a de bd
       -0.32974416 -0.0253205 0.061249733 -0.108480096
0001c0 0d eb 02 3e 8f 7f 20 be ab 52 9a 3f 9a e1 22 3e
       0.12784977 -0.1567366 1.2056478 0.15906373
0001d0 2b da 3f 3f e8 7f 4f be 60 8e 7f 3e d0 b1 c1 bd
       0.7494227 -0.20263636 0.24956656 -0.09457743
0001e0 9c ab 82 be 1a 21 f8 3d 12 8f db be e7 58 77 3f
       -0.25521553 0.121156886 -0.4288259 0.9662003
0001f0 00 47 a2 3f b0 d1 e3 3c cb f7 55 3e 11 ae 16 3f
       1.2677917 0.027809948 0.20895307 0.58859354
000200 8a cf 21 be ca 3f 09 3e 3a 2c 1f be b0 a4 92 bc
       -0.15801826 0.1340324 -0.15544215 -0.017900795
000210 c2 88 6b be 50 08 20 3e f4 23 0d 3e b2 1f 67 be
       -0.23001388 0.15628171 0.13783246 -0.22570685
000220 cc e1 d4 bd c4 dd d2 bd 40 d3 54 bd c0 18 86 bd
       -0.1039463 -0.10296205 -0.051959276 -0.065476894
000230 58 9a 43 bd 90 4a 4c 3e 68 f9 bf bd f8 64 17 bd
       -0.047754616 0.19950318 -0.09373742 -0.036961526
000240 a8 25 75 3d b0 a8 b4 3c 42 88 34 be cc 03 65 3e
       0.059850365 0.022053093 -0.17630103 0.2236473
000250 32 67 23 be 04 da f4 bd 80 30 c6 bc 10 00 6a be
       -0.15957335 -0.11955646 -0.024193048 -0.22851586
000260 72 43 60 be 30 9b d5 3d ec c7 1c 3e 2c 86 52 be
       -0.21900728 0.1042999 0.15310639 -0.20558995
000270 d0 75 e0 bd 80 9c ee bd 14 bc 65 be 9e 92 7c 3e
       -0.10959971 -0.11650944 -0.22435027 0.24665305
000280 d8 02 b7 be 3d ad 61 3e 70 55 52 3e 02 43 08 3e
       -0.35744357 0.22038741 0.20540404 0.13306811
000290 99 ad 84 bf 63 40 14 3e 9a 08 94 3e 73 8f 87 3e
       -1.0365478 0.14477687 0.28912812 0.2647663
0002a0 74 8a 9f 3e 0c 66 16 be 43 f4 21 3f 73 91 83 bf
       0.3116032 -0.14687365 0.6326334 -1.0278763
0002b0 44 39 1a bf dc 7d 27 3e 54 c9 be be b1 07 e4 3e
       -0.6024363 0.16356605 -0.37262976 0.44537118
0002c0 50 8f 37 3e ac 81 66 3d 83 5e 42 bf 7b 55 14 be
       0.17925763 0.05627601 -0.75925463 -0.14485733
0002d0 15 e5 20 3e e3 be 58 be d0 56 77 bd e7 7c 10 3e
       0.15712388 -0.21166568 -0.060385525 0.14110146
0002e0 de e8 18 bf 84 5f 67 3e cc 53 b3 3e 50 c7 f3 bc
       -0.5973033 0.2259503 0.3502487 -0.029758126
0002f0 9c bf 24 3d 14 6e 14 be 86 2d 37 3e ec 96 25 3e
       0.040221795 -0.14495116 0.1788846 0.16170853
000300 ae b4 7e be 36 db 3a be 3c cd fb be fe cb 1a be
       -0.24873611 -0.18247685 -0.4918002 -0.1511688
000310 70 5e 1a bd 25 9f 7c be c0 35 a3 3b 92 57 ac 3e
       -0.03768772 -0.24670084 0.0049807727 0.3366056
000320 26 13 54 3f 90 db be 3d b0 b7 da 3e 37 fd 24 3e
       0.8284172 0.09319222 0.42718267 0.16112219
000330 b5 19 26 3e 44 fa 34 bd e8 07 57 3d ce b7 a7 be
       0.16220744 -0.044183984 0.052497774 -0.3275742
000340 e0 53 12 3c 48 fe a3 bd a8 35 87 3d cc bf 54 be
       0.00893113 -0.08007485 0.06602031 -0.2077629
000350 d2 a0 d5 be 56 9e 84 be 52 5b 99 be 4a 85 5b be
       -0.4172426 -0.2590205 -0.29952484 -0.21437564
000360 5b 66 23 be a8 a9 ae bd 00 71 7f 3c 80 d6 24 bd
       -0.15957014 -0.08528453 0.015590906 -0.040243626
000370 ea 31 ab be 84 ab 92 be 8a d9 28 3e 76 e6 8a be
       -0.3343652 -0.2864648 0.16489235 -0.27128953
000380 00 48 66 3e fc 74 11 be 0f bd 23 be 12 8b d6 bd
       0.22488403 -0.14204782 -0.15990089 -0.10475744
000390 ae 78 a8 be 76 2e e4 3d f2 d6 b3 be fc c5 63 be
       -0.3290457 0.11141674 -0.35124928 -0.22243494
0003a0 eb ac 05 bf 90 06 e4 3c 9a a1 95 bd 56 1e 66 3e
       -0.52216977 0.02783516 -0.07306214 0.2247251
0003b0 a4 ac 88 bd 2f a5 15 bf 00 08 7f be f4 09 8b bd
       -0.066735536 -0.58455175 -0.24905396 -0.06789008
0003c0 70 73 0e 3d 6c 06 23 bd dd 73 8b bf 21 f8 da 3e
       0.03477806 -0.039801046 -1.0894734 0.42767432
0003d0 df 20 47 be 68 dd a5 be 44 eb dc bd 26 99 6a 3e
       -0.19446133 -0.32395482 -0.10787061 0.22909984
0003e0 f7 86 96 3f ba 48 3f be 59 4f ec be 8d 92 4d bf
       1.1759938 -0.18680087 -0.46154287 -0.80301744
0003f0 1a 71 2d 3f 1e a7 87 3e 4e 4b 7d 3e ef b4 84 3f
       0.67750704 0.26494688 0.24735758 1.0367717

bias f4 [32]
000000 c0 12 1f bf 0b bd b2 3f 01 4f 64 be 3b 55 a8 be
       -0.62137985 1.3963941 -0.22295763 -0.32877526
000010 b5 f7 a8 3d 02 90 2a be d3 de 4f be f1 d9 1e 3f
       0.08250371 -0.16656497 -0.20299844 0.620513
000020 d4 58 4b be 9c 6c bd bd db 22 3c bf cc 40 22 3d
       -0.19858104 -0.09249231 -0.73490685 0.039612576
000030 ca 0a a1 bd 50 43 17 3c 6b be 2b 3e 0e 4b 51 3e
       -0.07863386 0.009232357 0.16771857 0.20438787
000040 2e 9a bc be fa d9 b1 bd e4 ff a3 3e f7 34 c5 3f
       -0.3683638 -0.08684154 0.32031167 1.5406789
000050 3c 1b ae be 5e d6 30 3f 14 e8 c1 be 48 db f4 3e
       -0.34005153 0.690771 -0.37872374 0.47823548
000060 5e 46 25 3f ba d4 bd be 0c d3 cd 3f cd a9 18 3f
       0.64560497 -0.3707636 1.6080031 0.59634095
000070 c6 41 c8 bd 30 5a 79 be 2e 16 d0 be a4 ed 42 3f
       -0.0977817 -0.2435081 -0.40641922 0.7614386

weight f4 [16, 32]
000000 f1 b9 9e 3e 76 fa 32 bf 97 86 37 3e 34 71 d3 bd
       0.31001237 -0.69913423 0.17922436 -0.10324326
000010 70 8d ca bc 74 c8 2e be 48 6c c4 3c 52 5a 17 bf
       -0.024725646 -0.17068654 0.023977414 -0.5912219
000020 59 b8 1a be 7c 0e cc bd b0 87 86 3e 40 50 24 3f
       -0.15109386 -0.099637 0.26275396 0.6418495
000030 5b f6 cc 3e 6b 5b 8c be a0 3f e8 be c2 7f 91 be
       0.40031704 -0.27413496 -0.45361042 -0.28417784
000040 76 69 09 be 18 14 a1 3e 9c e2 11 bd 94 b0 c9 bd
       -0.13419136 0.31460643 -0.035616502 -0.09848133
000050 96 55 23 be 2e aa 82 3e 58 5a 9d bd 54 47 0e 3d
       -0.15950617 0.25520462 -0.07683247 0.034735993
000060 d8 c1 51 3d 90 61 70 be 09 68 2c be 24 3d 03 3e
       0.051210254 -0.23474717 -0.16836561 0.12816292
000070 44 53 24 be b6 28 bb 3d 2d 09 34 3e 1c e1 07 3d
       -0.16047388 0.09138624 0.17581625 0.033173665
000080 10 e6 36 3d b4 b8 55 3e 16 b9 f6 3d c2 a3 c4 3d
       0.044653 0.2087124 0.12047021 0.09601547
000090 96 66 ad 3e 00 c3 89 bc fe e5 c6 3d 40 9d f6 3e
       0.3386733 -0.016816616 0.09711836 0.48166847
0000a0 39 07 25 be 1c 90 33 bd 36 49 a7 bd a7 d8 07 be
       -0.16116036 -0.043838605 -0.08168261 -0.1326624
0000b0 e8 94 4d bf a7 ad 7f 3e 7c e2 d4 3d a7 42 d6 be
       -0.8030534 0.24968587 0.10394761 -0.41847727
0000c0 b1 3a 35 3e b4 b9 8a be 87 a3 19 3e 0a ba 4e 3f
       0.1769817 -0.27094805 0.15003787 0.80752623
0000d0 f0 f3 77 3c 42 ac c2 3e 65 94 07 3e b9 8a 63 bf
       0.015133843 0.38022047 0.13240202 -0.8888355
0000e0 0c c4 01 3f 75 af 49 3e 3e b0 55 3f 9a 9e 34 bf
       0.5068977 0.19695838 0.8347205 -0.70554507
0000f0 da ca 98 3e 80 c3 05 3b 4c 06 23 3d 26 2d 81 bf
       0.29842263 0.0020410717 0.039800927 -1.0091903
000100 0a 77 d4 3d a6 30 9e be c2 95 81 bd c8 b7 45 3d
       0.103742674 -0.3089649 -0.06327392 0.04827097
000110 67 0f a4 be b9 66 0e 3e f8 63 ff bc 35 44 21 3e
       -0.32043 0.13906373 -0.031175599 0.15748675
000120 20 c9 a6 bc 0a 6b 99 3d 13 02 16 be f3 60 65 be
       -0.020359576 0.07491119 -0.14649229 -0.22400264
000130 89 21 a5 be fb 78 08 be 53 4e 45 be fc 9e 58 3d
       -0.32252148 -0.133274 -0.1926816 0.052885994
000140 c2 da c7 3d 75 48 9b be 60 4f 0a bd 8f 03 17 be
       0.097585216 -0.30328718 -0.033767104 -0.14747451
000150 e0 10 35 bc 83 b7 e4 bd a8 19 2b 3d dd 35 4c be
       -0.011051387 -0.111678146 0.041772515 -0.19942422
000160 2e 3a 31 be d1 86 15 3e 9c fd 21 bd be d1 a4 bd
       -0.1730735 0.1460221 -0.0395485 -0.08047818
000170 0a 37 7e bd 74 5d 86 bd 36 6f ba 3d f2 1e bc be
       -0.062064208 -0.065607935 0.09103243 -0.3674236
000180 30 6a 14 bc 2f 73 9e be 36 8c 56 bd 56 a4 f0 3d
       -0.00905852 -0.30947253 -0.05237981 0.117500946
000190 ca ab a8 bd 80 f7 41 3c 50 11 89 3d 52 ae 97 3e
       -0.08235891 0.011838794 0.06692755 0.29625183
0001a0 80 dc 1a 3d 17 8f 1c 3e 22 4f 7b be fd c0 79 be
       0.03780794 0.1528896 -0.24541906 -0.24390025
0001b0 d5 22 e4 bd 3f 04 21 be 6b 1c 67 3e d0 5e 21 3e
       -0.11139456 -0.15724276 0.22569434 0.15758824
0001c0 c0 1c 36 bd 74 5a 19 be 1a f6 a7 be 54 17 50 bd
       -0.044461012 -0.14975911 -0.32804948 -0.050803497
0001d0 5e 9e 26 be 9a 52 b1 3d 0d ee 31 3e e4 b2 9b be
       -0.1627135 0.08658333 0.17375965 -0.3040992
0001e0 14 85 17 be 80 34 a7 ba ff da 06 be 89 31 32 be
       -0.14796859 -0.0012756735 -0.13169478 -0.17401709
0001f0 1e 49 ca bd a8 c9 00 be c0 1d 43 3b 24 db 13 bd
       -0.09877227 -0.12576926 0.002977237 -0.03609766
000200 d1 ff f0 bd b6 36 f1 bd e9 28 32 3e ac 2b 2e bd
       -0.11767543 -0.117780134 0.17398418 -0.042522117
000210 1f 9b 92 be b4 a2 67 3d bc fd 1a 3d d0 ab 1c bc
       -0.28633973 0.05655165 0.037839636 -0.009562448
000220 33 36 2a 3e 1c 74 33 bd f4 d4 a4 be d0 1d 90 be
       0.16622238 -0.043811902 -0.3219372 -0.28147745
000230 d8 38 d9 bd 34 34 ec bd cd ce 28 be e5 06 03 3e
       -0.10606545 -0.115333945 -0.16485138 0.12795599
000240 7f 07 9e be 7c 82 0e be 7e 53 bd be 50 86 a8 bd
       -0.30865094 -0.13916963 -0.36977762 -0.08228743
000250 40 4b 7b bc 78 b2 03 bd e0 e0 04 be 83 64 3a be
       -0.015337765 -0.032152623 -0.12976408 -0.18202405
000260 40 2b b6 3b 32 bb 83 bd 0c 9d 5d bd 06 28 d4 3d
       0.005559355 -0.06432189 -0.05410485 0.10359196
000270 87 98 0b be a0 0c 11 3d f0 37 4f 3d 2c c4 bb be
       -0.13632403 0.03541243 0.050590456 -0.36673105
000280 f6 bc 46 3e 25 6a b9 bd 80 37 c0 bb 08 ce 9a 3c
       0.1940802 -0.090534486 -0.005865991 0.018897071
000290 3b 44 cd bd 00 7a d1 3c 3c 37 c3 bd 27 f9 84 be
       -0.100227796 0.02557087 -0.095320195 -0.25971338
0002a0 96 71 b9 3d 67 ef 15 3e a0 ed 53 be 69 d5 a4 be
       0.09054868 0.14642106 -0.20696115 -0.3219407
0002b0 3c b3 0a be c6 41 01 be f0 44 11 3c 20 2f 94 bd
       -0.13544935 -0.12622747 0.008866534 -0.07235551
0002c0 76 3f fa 3d ea 81 d9 3d 55 89 f2 bd e2 18 47 be
       0.122191355 0.10620482 -0.118426 -0.19443086
0002d0 78 8d d3 bc 5a 2e a2 3d 22 f1 98 bd 1e ba 8b be
       -0.025824293 0.07918997 -0.074678674 -0.27290434
0002e0 80 98 e9 3a e3 12 25 3e 9b 30 b0 bd 09 3f f0 bd
       0.0017821938 0.16120486 -0.08603021 -0.11730773
0002f0 70 32 e5 3c 36 ac 0d be a1 23 2d 3e 76 78 84 be
       0.027978152 -0.13835225 0.16908123 -0.25873154
000300 7e 96 e4 bd be f6 8c be e2 b8 8a 3d cf 6c d6 bd
       -0.111615166 -0.27532 0.06773545 -0.10469972
000310 24 89 cb bd d8 e2 f1 bc 12 9d b2 bd 1b 65 52 be
       -0.09938267 -0.029527113 -0.08721365 -0.20546381
000320 4a f3 98 3d 01 ca 29 3e 7c c6 9c bd 2e 3f 84 bd
       0.07468279 0.16580965 -0.076550454 -0.06457363
000330 2c c4 ba be 10 ce ee bd d0 89 d1 3c 0e e8 ca bd
       -0.36477792 -0.11660397 0.02557841 -0.09907542
000340 3a f7 0c be 90 c6 a6 3c 4b 88 59 be 1e 55 b2 be
       -0.13766184 0.020358354 -0.21243398 -0.34830564
000350 a4 16 95 bd f6 1d c6 bd 08 dd 44 bd 6c 70 8a bd
       -0.07279709 -0.09673683 -0.048062354 -0.06759724
000360 4a 37 81 be 70 b7 8a 3c 9e b3 9e be 04 65 32 be
       -0.25237495 0.016933173 -0.30996412 -0.17421347
000370 f3 7f 21 3e 00 90 22 3c 10 aa 84 bd d7 87 88 be
       0.15771465 0.009922028 -0.06477749 -0.26666138
000380 59 7f 33 3e d2 98 1d bf 89 08 0c 3e d4 e4 e1 bd
       0.17529048 -0.6156131 0.13675131 -0.110299736
000390 86 84 1f bf 3d a4 a4 bd 80 79 93 bb 4f bb 02 3f
       -0.6231159 -0.080391385 -0.004500568 0.5106706
0003a0 1e d3 73 bd 80 38 0f bd 12 be 91 3e 23 78 17 be
       -0.05952751 -0.034965992 0.28465325 -0.14791922
0003b0 b4 3f 42 3d 8f 4c 05 be 92 14 f6 3d 42 e7 70 3e
       0.047424033 -0.13017486 0.12015642 0.23525718
0003c0 7f c2 3f be ee 06 a7 3e 10 3b bb be 20 10 e4 be
       -0.18726538 0.32622474 -0.365685 -0.44543552
0003d0 d3 25 b8 bd 66 d7 92 3d 52 4b f1 bd 77 a1 76 be
       -0.089915894 0.0716999 -0.11781944 -0.24085031
0003e0 4e 5b 14 be a4 9f 74 be d8 c6 ff bc 3e f8 21 be
       -0.14487955 -0.23889023 -0.031222746 -0.15817353
0003f0 98 d6 9d be 00 39 07 3a 18 1e f5 bd 8e b8 ef bd
       -0.30827785 0.0005158335 -0.119686306 -0.11705123

bias f4 [16]
000000 9b c1 e4 3e 4f 02 25 3f c1 79 53 be 82 5a 14 3c
       0.4467896 0.6445665 -0.20651914 0.009054782
000010 2b e1 50 be cd 2f 20 bd 7a ac 8e be cf 2f e0 3d
       -0.20398395 -0.039108086 -0.27865964 0.10946619
000020 f0 3e 5c bc 9a 87 9c be 38 87 b8 be 74 91 1c 3e
       -0.01344274 -0.30572206 -0.36040664 0.15289861
000030 00 b0 cf 38 d1 e6 a0 be bf 2f 1d 3e 6f 67 80 be
       9.903312e-05 -0.314261 0.15350245 -0.25078914

weight f4 [14, 16]
000000 ce bf d4 be bd 7d 31 be 52 96 78 3e ba d8 8b 3d
       -0.41552585 -0.17333122 0.24276093 0.06828447
000010 d0 ca 3c 3c b8 5d 68 3e f4 8d d2 bd 4a 1b 4a 3e
       0.011522964 0.22692001 -0.10280982 0.19736972
000020 30 27 bd 3d ba b9 d4 3e 6c 32 43 bd 8a 0b 88 3d
       0.0923599 0.41547948 -0.047655508 0.06642826
000030 f8 d0 b2 3c 9c 85 72 3e 30 0c d4 be 16 57 b5 be
       0.02182816 0.2368378 -0.41415548 -0.35418004
000040 4a f4 01 bf 76 88 02 3f a0 c0 b7 3c b5 18 2a 3e
       -0.5076338 0.5098947 0.022430718 0.16610987
000050 f2 f4 01 be b0 7d e4 3d 34 47 37 3e 16 6b 01 3f
       -0.12691095 0.111567855 0.17898256 0.50554025
000060 50 8b 0c bc e9 83 46 3e e0 3e 13 3e e6 08 4f 3f
       -0.008578137 0.19386257 0.14379454 0.8087295
000070 16 19 83 bd 5a c9 58 be 78 bf bd 3d e8 88 07 bd
       -0.06401269 -0.2117056 0.092650354 -0.03308955
000080 1c ec 13 3d 80 cb f6 bc f6 28 10 3e 74 bb cf bd
       0.036113843 -0.030126333 0.14078125 -0.10143176
000090 14 52 90 3d 43 c4 d6 3e 54 b9 1c 3d 26 9f 5f be
       0.07046905 0.4194661 0.03826268 -0.21838054
0000a0 02 38 aa bd af e4 bf be 20 54 62 be 20 24 5e be
       -0.08311464 -0.3747916 -0.22102404 -0.21693468
0000b0 c2 42 95 be 86 26 28 3e 1e b4 24 be b6 2f b0 3e
       -0.29152495 0.16420946 -0.16084334 0.344114
0000c0 00 6d 4c 3c 15 89 7f be 0c 08 e2 bd bc c7 1d bd
       0.0124771595 -0.24954636 -0.11036691 -0.03852056
0000d0 7c 92 3c 3e 4a 3c ae bd 75 c4 4a be ce 73 cb bd
       0.18415254 -0.08507593 -0.19801505 -0.09934197
0000e0 5d 28 1e 3e 00 54 ec 3b 60 09 a5 3c 08 e4 0c be
       0.15445085 0.007212162 0.020146072 -0.13758862
0000f0 f8 2f 99 3c 24 e6 89 3e 34 71 35 bd cb 6d dc 3e
       0.018699631 0.26933396 -0.044297412 0.43052515
000100 40 78 bf 3b 24 cc de bd d4 fb 4e be 28 b0 ab 3d
       0.0058431923 -0.108787805 -0.20213252 0.083832085
000110 a6 15 05 be a0 1c 50 bc 9e ee 53 3e 48 c7 32 be
       -0.1299654 -0.012702137 0.20696494 -0.17458832
000120 b0 19 21 3d 38 25 52 bd 96 3f 50 3e ac cc b0 3d
       0.039331138 -0.051305026 0.20336756 0.08632788
000130 26 36 06 be 58 bb 8d 3d fe e0 63 be c0 ac c2 3b
       -0.13106593 0.069204986 -0.22253796 0.0059410036
000140 fc 85 ab be 58 88 79 be 72 24 b7 bd a8 16 0e 3e
       -0.3350066 -0.24368417 -0.08942498 0.1387583
000150 3a 8e 85 3e 0a 5f 61 be 60 f5 71 3d 84 5b f3 3d
       0.26085073 -0.22008911 0.0590719 0.118826896
000160 6b b2 52 be a0 01 f4 3c d6 74 15 be a6 a6 68 be
       -0.20575874 0.029785931 -0.1459535 -0.22719821
000170 14 70 d2 bd 34 c6 02 bd c6 aa f7 3e 26 fb fc 3d
       -0.102752835 -0.031927302 0.48372477 0.1235259
000180 59 72 88 be 22 db 17 be e4 58 d7 bd d0 6f 56 3c
       -0.2664974 -0.14829686 -0.105150014 0.013088182
000190 3c 84 df bd 94 c6 28 bd 52 a0 89 be 40 e3 3d bb
       -0.109138936 -0.041205004 -0.26880127 -0.0028974563
0001a0 05 e1 75 be 28 5a ea bd d4 81 26 3e 50 b2 74 3d
       -0.2401162 -0.11442977 0.16260463 0.059740365
0001b0 bb b5 51 3e 8c b5 ab 3d 56 0d 31 be 59 73 d0 3e
       0.20479481 0.08384237 -0.17290244 0.40713003
0001c0 24 d1 db be ec e9 e5 3e dc 74 af bd 88 60 5b 3d
       -0.42933 0.4490503 -0.08567211 0.053558856
0001d0 ea ad 87 3d 88 c1 85 be b0 bc df bd 1f d1 7b 3e
       0.06624968 -0.26124215 -0.10924661 0.24591492
0001e0 a7 c5 12 be e8 9c e8 3d 74 76 a5 bd 92 6f b1 3d
       -0.14333211 0.113580525 -0.08079234 0.086638585
0001f0 56 aa 83 be ca 2b 0e be 64 d7 2e 3e 84 43 47 bd
       -0.25715894 -0.13883892 0.17074353 -0.048648372
000200 ff 03 25 be bc b6 55 be 98 11 31 be dc 8e 03 be
       -0.16114806 -0.20870489 -0.17291868 -0.12847465
000210 bc e4 88 3d 88 56 6a bd c8 1b 72 3d d0 b8 62 3e
       0.066842526 -0.05721143 0.059108526 0.22140813
000220 88 01 95 3c 62 fc 69 3e 4e b5 ca 3d d4 e0 40 be
       0.018189207 0.22850183 0.098978624 -0.18835765
000230 34 3f 6c 3d f4 3a f7 3d d1 09 68 3e d8 e8 8b 3e
       0.057677463 0.12071791 0.22659995 0.27326083
000240 a6 a7 03 bf 12 a6 63 be 70 4f bb 3c 07 8e 67 3e
       -0.51427686 -0.2223132 0.022865027 0.22612773
000250 02 2b 38 3e 00 b8 09 3a ac 97 d0 3d 34 2d d5 3e
       0.17985156 0.00052535534 0.10185179 0.4163605
000260 71 c0 38 be d1 dd 42 be 68 ea 1e 3e 25 0d 03 3e
       -0.1804216 -0.19029929 0.15519106 0.12797983
000270 b0 eb d5 bd d2 8c 02 be 78 08 bd 3e f4 4f 69 3d
       -0.104453444 -0.12749031 0.36920524 0.056961015
000280 c2 a1 27 be a0 cf d7 be 02 e9 db 3d 3f 46 9c 3e
       -0.163703 -0.42150593 0.10737802 0.30522344
000290 84 1a c3 bd c0 bb f0 bb c4 ab 1b bd 08 18 80 3e
       -0.09526542 -0.0073466003 -0.038005605 0.25018334
0002a0 ee c6 ca 3d ea 2b d8 bd 10 bd 52 3e 1e 21 20 3e
       0.09901224 -0.10555251 0.20579934 0.15637633
0002b0 66 8f c0 3d b8 73 90 be 42 f1 58 be 07 91 84 be
       0.09402351 -0.28213286 -0.21185783 -0.25891897
0002c0 30 15 ec bd 20 02 2f be 14 e7 26 3e 38 97 02 3e
       -0.11527479 -0.17090654 0.16299087 0.12752998
0002d0 fe ef 5d 3e cc b6 8a 3d 8a 0d 32 3e d0 c0 84 bc
       0.21673581 0.06773147 0.17387977 -0.016205221
0002e0 e0 e2 f3 bd 40 e6 82 bc 24 03 9b 3d d8 45 24 bd
       -0.11908507 -0.015978932 0.075689584 -0.04010567
0002f0 10 40 bc bd ee 4d 9a be 78 ef c3 bd 60 4f 08 3d
       -0.091919065 -0.3013758 -0.095671594 0.033278823
000300 cf 93 f5 3e d0 17 94 bd b8 70 c0 bd c8 96 cd bd
       0.47964332 -0.072311044 -0.093964994 -0.10038525
000310 a8 1d 45 bd 27 67 96 3e 84 3b 85 3e 9c 6b 9a 3d
       -0.048123986 0.29375574 0.2602197 0.07540056
000320 00 47 f9 3b c8 6e f6 bc 80 3b be bc 93 80 4d be
       0.007607341 -0.030082121 -0.023221731 -0.20068578
000330 94 ab 2f 3e 00 19 a7 ba 48 47 1b bf 1a 30 e3 3e
       0.17155296 -0.001274854 -0.6065564 0.44372636
000340 cc 91 5d be 50 62 99 be 46 df 49 3e 58 55 b6 bd
       -0.21637648 -0.2995782 0.19714078 -0.08902997
000350 a6 6a 42 be da f6 6a 3e 38 2f 6f be bc f6 1f be
       -0.18985996 0.22945729 -0.23357856 -0.15621465
000360 36 ec 46 be a0 f8 28 be e0 cc a4 bd 08 88 a0 3d
       -0.19426045 -0.16501093 -0.08046889 0.07838446
000370 60 c2 c6 bd 81 83 29 be d0 48 af 3e 6c 38 38 be
       -0.09705043 -0.16554071 0.3423524 -0.17990273

bias f4 [14]
000000 50 8b 21 bd 90 b7 7f 3c 35 1e f8 be 6a 0b 25 be
       -0.0394395 0.01560773 -0.48460546 -0.16117635
000010 30 17 47 be ef 9b 13 be a3 0d b0 be a8 5e e1 3d
       -0.19442439 -0.14414953 -0.34385404 0.11004382
000020 39 17 9b be 7e e2 50 be fa 84 b2 3e 63 c5 51 be
       -0.30291155 -0.203989 0.34867078 -0.20485453
000030 9d c0 bf bd 38 fb 2a be
       -0.0936291 -0.16697395

weight f4 [2, 14]
000000 35 43 4b be 75 09 27 3f cb b0 11 3e 34 d8 4e 3d
       -0.19849856 0.65248805 0.14227597 0.050499156
000010 76 60 d1 bd bb 98 cb 3e dd 2c 0e be b0 af d5 3e
       -0.102234766 0.39764962 -0.13884301 0.417356
000020 d4 5a 99 3e e1 6c 54 3f 39 77 e9 3c df f4 72 3e
       0.2995211 0.82978636 0.028499233 0.23726223
000030 d9 57 f5 be c6 cd f7 3d 80 28 cf be 5e cf 38 bf
       -0.47918585 0.12099795 -0.40460587 -0.7219142
000040 a6 39 31 3e 7e 66 87 be d0 2f 9b bd e8 e1 b4 be
       0.17307147 -0.26445383 -0.07577479 -0.35328603
000050 52 87 c0 3d b9 19 fa be d1 bd 74 be a5 6b c2 bf
       0.0940081 -0.4884775 -0.23900534 -1.51891
000060 22 c5 9e be 90 7b fb 3c 3e a3 c2 3e ee 0b b2 be
       -0.31009775 0.030698568 0.3801517 -0.34774727

bias f4 [2]
000000 10 b9 2b be dc df 03 be
       -0.16769814 -0.12878364
