aggregated_results/Red/Red_retrospective_mc_3.pt (torch, 4470 bytes, 6 tensors)

network.0.weight f4 [16, 5]
00000000: 74ca d43e 2cf5 9b3e 145d d3be 1a35 de3e
00000010: b2a3 dfbe 50b7 983d 78d8 843e a614 e4be
00000020: 540a 243e 2e60 41be 5016 123e 15cb ccc0
00000030: 3423 0ebd ae61 d03e 4681 b2be 4ffc aa3f
00000040: 80f5 5440 badd 98be b687 963e 7e5c 733f
00000050: 3dbe 5740 f0af cb40 64a2 133f 6e8b bdbe
00000060: 545d 673e b438 c9bf 7d87 00c1 522e 5dbf
00000070: 8cf5 be3e dc39 9d3f d64b 02c0 2b99 fb3f
00000080: 863c e23e 887f 8e3e 4c84 97bd 72e2 e9bd
00000090: 76f6 cfc0 8a30 8ebe b02f c9bd b261 ecbe
000000a0: 0a8d 233f 626c f9be b0bc c5be 882f e63d
000000b0: 3d84 afbe 4e46 e8bd 3490 8040 18a5 e8bc
000000c0: 1c7d acbd 109f 1b3e 1cad d4bf 2d94 d740
000000d0: 4560 103f 3ae5 9dbe 50d3 e8be 76d4 33be
000000e0: 2b0d d3be 583a a63d fca8 2ebe 0e15 26be
000000f0: 0ede 943e f496 d6be 521d b7be 5e99 b0be
00000100: 409d 593b c034 783d c075 b2bd 8888 773e
00000110: d8d5 8d3d c0b3 d63d 9465 bf3f 73aa 4c40
00000120: 44a2 83bd 682a 48bd 451a 5b3f 3a5a c2be
00000130: 97d6 b240 6eb2 f2be 278f 9abe 2efc 723f
0.4156071 0.3046049 -0.4128195 0.43399888 -0.43679577 0.07456839 0.25946403 -0.44547004
0.16019565 -0.18884346 0.14266324 -6.3997903 -0.03470154 0.40699524 -0.34864253 1.3358248
3.3274841 -0.29856664 0.29400414 0.95063007 3.3709862 6.3652267 0.57669663 -0.3702044
0.22594196 -1.572043 -8.033078 -0.86398804 0.37296712 1.2283282 -2.0358787 1.9656118
0.441868 0.27831674 -0.073982805 -0.11420144 -6.4988356 -0.27771407 -0.09823549 -0.46168286
0.63887084 -0.48715502 -0.3862052 0.112395346 -0.34280577 -0.113415346 4.017603 -0.028399035
-0.084223 0.15197396 -1.6615329 6.736838 0.56396896 -0.30838948 -0.4547372 -0.17561516
-0.41220984 0.08116597 -0.1705665 -0.16218969 0.29075664 -0.41912043 -0.35764557 -0.3449201
0.00332053 0.06059718 -0.08713865 0.24173176 0.06925553 0.10483503 1.4952874 3.1979034
-0.06427434 -0.048868567 0.8558696 -0.37959462 5.588695 -0.47401756 -0.30187342 0.94916046

network.0.bias f4 [16]
00000000: 6060 e23d d652 67be fe8a 0abf d8b3 163f
00000010: 1ec8 003f 00cd b73d f601 0e3f 1241 b9bd
00000020: af80 56be 3aae 28bf f05d 2b3f f898 9ebe
00000030: 3fac a3be 8a1b 82be 5881 a23f 88f0 813e
0.11053538 -0.22590193 -0.54118335 0.5886817 0.50305355 0.089746475 0.5547174 -0.09045614
-0.20947526 -0.6589085 0.6694021 -0.3097608 -0.3196735 -0.25411636 1.2695723 0.25378823

network.2.weight f4 [16, 16]
00000000: 802b 92bd b0b0 2a3e 6869 73be 480a 913d
00000010: bc87 fdbd 3c99 4abe 7cfd 1d3e 98be 39bd
00000020: 9488 fdbd 4817 f23d 8cd0 b7bd b42e a53d
00000030: 5810 0bbe 04da 58be 8c20 dd3d 6ea9 573e
00000040: 4ca3 cd3d 9caf 59be cd82 0040 eccd 80bd
00000050: 1fcc e2bf 1493 0e40 0cb1 b6bf 023b 0040
00000060: 2c17 71bd 3f1a 80bf 0cb1 79c0 5c0b 45be
00000070: 067a 0ebe 8008 59bd e7a0 ba3e a66a e43f
00000080: 40e7 363c b4ab 46be 6e56 a5be fc6a 61be
00000090: 44f6 b6bd 1cc3 17be d171 91be b068 a4be
000000a0: e4a2 b0bd b411 2cbe 4b96 99be f8c3 18bd
000000b0: 6436 29be 3628 68be 423c 22be d05d 5cbd
000000c0: 9284 3c3e 3ecd 163e d1c8 53be b239 173e
000000d0: a8c7 15bf acd4 4cbe 18fa 2ebe c4a2 96be
000000e0: 3e61 153e ec35 0d3d 172a 1fbf 7e77 793e
000000f0: 1867 b3bd 26f6 743e 3132 98be a572 c8be
00000100: ac5c 5e3e 581b 9c3d d3f6 c33f 088a c83d
00000110: abbf b7bf a014 b23f b110 0bc0 902c ca3f
00000120: 4310 b73e 4878 b6be 0301 4ec0 0a12 3d3e
00000130: 1291 00be 0093 fd3b bc5a 573f e456 0340
00000140: 60cf f6bc 863d 1d3e 67d2 613f 60f0 653d
00000150: 30c4 a93d 9647 443f a0bd e6bf b0dd 2e3f
00000160: b84b a5bc 1692 19bf b325 99bf 9244 4d3e
00000170: b802 c9bd b0a1 1bbd 2cda 483e 62cb 2c3f
00000180: 1c8b d3bd 549a 573e 05be 783f 178c 823e
00000190: 4233 41be 0807 9fbe 6211 d0bf 62e3 933f
000001a0: 4e49 14bf 0a21 9d3d 17fd 0bc0 acd3 a33d
000001b0: 101e 0c3e ee00 27be 6b20 243f b495 0440
000001c0: 1eed 7b3e 8090 3b3c 263d 0640 9deb df3e
000001d0: 345d 82bf b8a4 0140 eca0 d2bf 7532 f13f
000001e0: 10ca 053e 86e4 96bf a9c5 5cc0 947e 22be
000001f0: 1ad3 283e 1ecb 5dbe 553e 803f bc0c b13f
00000200: 70ae b43d c8af 8a3d aeed a93e fa30 433e
00000210: b205 64be 86bc 743f 7c6f 46bf 1df1 693e
00000220: 7fcc 2d3e d492 e2be 33f6 37c0 703f 843d
00000230: a275 68be 60c5 43bc b0bb 2e3f 0ccf 1a40
00000240: c07c 913c 5c76 61be daea 11bf 3cb4 43be
00000250: cded 1cbe 8031 0b3b 4d4d 6bbe fd12 f9be
00000260: 0d52 283e 44ca 64be 7ac7 c9be 1038 1e3d
00000270: 1202 6dbe e6c1 46be 6c30 cd3d b885 973d
00000280: c09d 5cbe 8814 30bd a2f2 d63f dcfd 893d
00000290: ec62 cdbf ceb4 9f3f 1cb5 0fc0 cae8 c83f
000002a0: 9408 673e e2a1 7abf 6aaa 85c0 e661 2b3e
000002b0: 0c72 08be cc5c 1dbe fe13 333e da58 b83f
000002c0: e288 56be 8045 293b 86f5 133e bb2d 193f
000002d0: 4ce6 573f 3f04 d0be 22d2 02c0 f320 e0be
000002e0: 3ead 09be e4e3 c9bf 0461 0e3f ecc3 a8bd
000002f0: 6843 b0bd 00f5 caba de8d 113f d21f fc3f
00000300: 087f afbd 844a 7c3e e104 3a3e e479 46be
00000310: 7329 1fbe d911 66be 709a 07be 68e4 cd3d
00000320: d8a4 adbc 74b4 71bd d205 25bf 400d 413e
00000330: c0ce 8fbc 6238 3b3e c0e2 c93d 2276 173e
00000340: a427 4e3e bcc0 353e a62e 10be e0eb 1a3d
00000350: bcda 5bbe 2013 7fbc a06f 2dbe aab0 213e
00000360: ec03 7bbe 3e67 113e 903e 13bd 4a76 7b3e
00000370: 4459 5dbe ee95 1fbe 50e1 7abe 4e12 61be
00000380: 58f9 333e 60c4 42bc 5464 de3f 447f 8d3d
00000390: ebab babe efcc ca3f f476 d6bf 2871 cd3f
000003a0: 3ab2 f8bd 812d b3be eeda 42c0 b831 4ebe
000003b0: d667 2dbe 18a6 74be 9a3d 173f 0b0c 8e3f
000003c0: 18a0 f03d 50ff 0dbe 2f6b 413e d2c1 2440
000003d0: b496 5640 b2f8 55bf 2f4f 223f 808b 983d
000003e0: bce9 38bd f6e9 95be 06f1 0140 68d4 053e
000003f0: 4924 21be 7676 17be cb96 0a40 03b3 3940
-0.07137203 0.16668963 -0.23770678 0.07082039 -0.12379405 -0.19785017 0.15428728 -0.04534778
-0.12379566 0.11820847 -0.08975324 0.080655485 -0.13580453 -0.21176916 0.107972234 0.21060726
0.10040912 -0.21258396 2.0079834 -0.062892765 -1.7718543 2.227727 -1.427278 2.0036016
-0.05885999 -1.000801 -3.901431 -0.19242615 -0.13913736 -0.05298662 0.36450884 1.7845047
0.011163533 -0.19401437 -0.32292503 -0.22013468 -0.0893369 -0.14820522 -0.28407148 -0.3211112
-0.08624819 -0.16803628 -0.29997477 -0.037296265 -0.16524655 -0.2267159 -0.15843299 -0.053800404
0.18409947 0.14726731 -0.20682074 0.14768103 -0.58507776 -0.20003003 -0.1708759 -0.29421055
0.14587876 0.034475252 -0.621736 0.24361989 -0.08759898 0.23922023 -0.29725793 -0.39149967
0.21715039 0.07622403 1.53097 0.09791952 -1.4355367 1.3912544 -2.1728938 1.5794849
0.35754594 -0.35638642 -3.2188118 0.18463913 -0.1255534 0.007738471 0.84122825 2.0521784
-0.030128181 0.153555 0.88211673 0.056137443 0.08289373 0.7667173 -1.8026619 0.6830702
-0.020177707 -0.59988534 -1.196463 0.20045689 -0.09814972 -0.037995994 0.19614476 0.6749784
-0.103292674 0.21054965 0.97164947 0.25497505 -0.1886721 -0.31060052 -1.6255305 1.1553767
-0.57924354 0.07672317 -2.1873224 0.079993576 0.13683343 -0.16308948 0.64111966 2.0716372
0.24602172 0.011448026 2.0974822 0.43734446 -1.0184693 2.0256786 -1.645536 1.8843523
0.13065362 -1.178849 -3.4495642 -0.15868598 0.16486779 -0.21659514 1.0019022 1.3832011
0.08822334 0.06771809 0.33189148 0.19061652 -0.22267798 0.95600164 -0.7751386 0.22845884
0.1697254 -0.44252646 -2.8744018 0.06457412 -0.22701123 -0.011948913 0.6825514 2.4188871
0.01775968 -0.22017807 -0.5699898 -0.19111723 -0.15325089 0.002123922 -0.22978707 -0.486473
0.1643755 -0.22342783 -0.3941 0.038627684 -0.23145321 -0.19409904 0.10019001 0.07398552
-0.21544552 -0.04298833 1.6792796 0.06737873 -1.6045814 1.2477052 -2.245429 1.5696042
0.22561866 -0.97903264 -4.1770525 0.16736564 -0.13324755 -0.1536743 0.17488095 1.4402115
-0.20950654 0.0025828779 0.14449129 0.59835404 0.8433578 -0.4062824 -2.0440755 -0.43775138
-0.13444993 -1.5772672 0.55616784 -0.08240494 -0.08606607 -0.0015484393 0.568571 1.9697211
-0.08569151 0.246378 0.18165924 -0.19382435 -0.15543155 -0.22467746 -0.13242507 0.10053331
-0.021196768 -0.059009984 -0.64462006 0.1885271 -0.01755464 0.18283227 0.09857702 0.14791158
0.20132309 0.17749304 -0.14080295 0.037822604 -0.2147016 -0.015568525 -0.16937113 0.15790048
-0.24513215 0.1419954 -0.035948336 0.24556842 -0.21616083 -0.15584537 -0.24500012 -0.21979639
0.17575586 -0.01188764 1.7374368 0.069090396 -0.36459288 1.5843791 -1.6755052 1.6050158
-0.12143369 -0.34995654 -3.0446124 -0.20136154 -0.16934142 -0.23891485 0.5907837 1.1097425
0.117492855 -0.13866925 0.18888544 2.5743299 3.3529482 -0.83582604 0.63402075 0.074484825
-0.04514478 -0.2928006 2.030336 0.13069308 -0.15736498 -0.14791283 2.1654537 2.901551

network.2.bias f4 [16]
00000000: ca61 5dbe 6d14 9e3e 5dd5 27bc 563f 14be
00000010: 65bf ca3e 8430 c43e c987 5abf ec9c 173f
00000020: fde9 3d3f 062d 87be e3f0 e8be 966b 0b3f
00000030: c213 c6bd 568a 5cbe 1b2c 3d3f c299 5e3f
-0.21619335 0.3087496 -0.010243741 -0.14477286 0.39599147 0.38318264 -0.8536344 0.5922382
0.7418516 -0.26401538 -0.45496282 0.5446104 -0.09671737 -0.21537146 0.73895425 0.86953366

network.4.weight f4 [2, 16]
00000000: f292 5fbe 9533 57c0 66f9 323e 706a fdbc
00000010: 345a 6fc0 542b 39c0 f77c 18c0 5ef3 7ec0
00000020: 4bd9 14c0 143d 593e d5c5 71c0 378a bdbf
00000030: 061d 1bbf 20cf 72bc f93f 75c0 1fcf 15c0
00000040: 0a32 793e 5844 1d40 1c15 e4bd a8e9 e23d
00000050: 7f69 2240 5827 6c3f 0831 5c40 d3a3 0d40
00000060: f43d 0f3f 9840 b3be 1eb8 ff3f 42fe 1a40
00000070: d003 3c3c d438 cbbd 5ca0 c73f 4714 1a40
-0.21833399 -3.3625233 0.1747795 -0.030934542 -3.7398806 -2.8932695 -2.3826272 -3.983604
-2.3257625 0.21214706 -3.7776997 -1.4807805 -0.6059116 -0.01481989 -3.8320296 -2.3407667
0.24335495 2.4572964 -0.11136839 0.11079723 2.537689 0.92247534 3.4404926 2.213124
0.5595391 -0.3501022 1.9978063 2.4217687 0.011475518 -0.099229485 1.5595813 2.4074876

network.4.bias f4 [2]
00000000: e98c a4be b34a 25be
-0.32138756 -0.16141777
