aggregated_results/Red/retrospective_ttt_3.pt (torch, 10256 bytes, 8 tensors)

network.0.weight f4 [16, 36]
000000 68 50 ef be 32 8c a6 3e aa 1d d1 3d 50 0f 17 3c
       -0.46741033 0.32528836 0.10210736 0.009219959
000010 90 f6 4e 3c 00 45 93 3c 28 8f 04 bd 7a 0e 9e be
       0.012632027 0.017977238 -0.032363087 -0.3087042
000020 aa a4 28 be 7c 7e 9d be c1 5a b6 be d4 65 d9 3e
       -0.16469064 -0.30760562 -0.35616115 0.424605
000030 e2 a5 11 be e0 60 d9 be d2 12 df be dc d6 84 be
       -0.14223436 -0.42456722 -0.43569046 -0.25945175
000040 5c 28 4d bd b0 b7 b0 3c 00 1b ff be 08 c5 04 3e
       -0.050087318 0.021571964 -0.49825287 0.12965786
000050 36 8b 13 be 0a 59 25 3e 5a ac d0 be 3b 0f 77 be
       -0.14408574 0.16147247 -0.40756494 -0.24126904
000060 38 0e 60 bf cd a5 0f 3f bc 8d c6 be 16 40 3c bd
       -0.87521696 0.56112367 -0.3878001 -0.045959555
000070 fe 63 ce 3d da 3e df be 58 db 98 be eb 64 0a bf
       0.10077666 -0.4360264 -0.29854846 -0.5406024
000080 bb 8f 10 3e c3 ac 32 bf 4e 55 85 be 3c 2f ae 3e
       0.14117329 -0.69794863 -0.26041645 0.34020412
000090 71 72 10 3e d4 65 10 bf 00 c9 49 ba 40 6b ba bd
       0.14106156 -0.5640538 -0.0007697493 -0.091024876
0000a0 c6 81 9d bd 4c 58 8e be 04 26 87 be fb 6c 01 be
       -0.07690768 -0.2780174 -0.2639619 -0.12639229
0000b0 83 53 87 bd 72 fe 12 be e0 37 9f 3c 4c 76 a7 be
       -0.066077255 -0.14354876 0.019435823 -0.3270744
0000c0 85 eb ba be 83 d5 f6 3e 53 91 0b be 30 3c 08 bd
       -0.36507812 0.48209772 -0.13629656 -0.033260524
0000d0 a7 aa 14 be 1a 64 05 bf 98 25 e8 bd 9a 7f ce be
       -0.14518224 -0.5210587 -0.113352954 -0.40331727
0000e0 a6 88 60 bd c6 df 05 bf 20 c6 94 bc 18 76 f9 3e
       -0.054817818 -0.52294576 -0.01816088 0.4872291
0000f0 20 50 ba bd 1e 21 03 bf 60 ee fd bb da e5 fc 3d
       -0.09097314 -0.5122241 -0.007749364 0.12348528
000100 1d ec 14 3e f0 53 f2 bd 00 ec 30 3c d4 46 d5 3e
       0.14543195 -0.11832416 0.010798454 0.416556
000110 bc 4c 33 3d e2 0b df 3d 80 bd ef 3c 0b 53 72 be
       0.04377435 0.10890938 0.029265165 -0.23664491
000120 73 ea c4 bd ac 14 d6 be a3 6e a5 bd 40 7b 0d bb
       -0.0961503 -0.41812646 -0.08077743 -0.0021588355
000130 00 2a a4 bd 60 11 a3 be 14 ab af be 70 9f 23 3d
       -0.08015823 -0.31849194 -0.3431021 0.039946973
000140 63 70 90 bd cb b5 8d 3e d0 6c d6 bd 22 0d 9e be
       -0.07052686 0.2767776 -0.10469973 -0.30869395
000150 92 8e 00 bf 02 25 74 3e 68 e3 cb bc e0 2e f4 3b
       -0.50217545 0.23842242 -0.02488871 0.007451877
000160 66 72 20 be 58 c1 9b be f6 e4 fc bd a3 a9 70 be
       -0.1566864 -0.30420947 -0.12348358 -0.23502211
000170 d5 3c 21 3e 46 e9 a7 be d6 1f e3 3d 9d 72 82 3e
       0.15745862 -0.3279516 0.110900566 0.25478068
000180 be c6 e6 3e 76 2a da be 00 5c 30 b9 f8 cd b2 bd
       0.45073503 -0.4261052 -0.0001681894 -0.08730692
000190 97 5b 1c be 4b a1 86 bd a4 89 14 bd e0 67 9f 3e
       -0.15269314 -0.06573733 -0.036264077 0.31133938
0001a0 5c 79 1d be 36 51 f5 3e e8 20 ed bc 08 a6 b3 be
       -0.15378326 0.47913522 -0.028946355 -0.3508761
0001b0 86 b8 6c bd 57 c0 f9 be a8 c3 df 3c 4b 25 b4 be
       -0.057793163 -0.48779556 0.027314976 -0.35184702
0001c0 3a fb d5 3d 9b d6 78 be f4 4e b5 be ce a7 fb 3d
       0.10448308 -0.24300615 -0.354118 0.122878656
0001d0 46 3b b6 bd 37 b1 d2 3e 00 3f 63 3c ae c1 93 be
       -0.08898024 0.4115083 0.013870001 -0.28858703
0001e0 c4 ca 81 be a0 a6 cd 3e 5e a9 90 3d 08 ea 82 bc
       -0.2535001 0.40166187 0.07063554 -0.015980735
0001f0 90 78 42 bc 30 a7 8a be 12 73 a4 be b6 8c 8a be
       -0.011869565 -0.2708068 -0.32119042 -0.2706048
000200 cf 3b 12 3e 73 d2 0b bf 20 9f c1 bd 9c a0 b1 3e
       0.14280628 -0.54617995 -0.09454179 0.34692848
000210 fe c5 9a 3e 00 46 ea be a1 af 29 3e 3c 20 a7 be
       0.3022918 -0.4575653 0.16570903 -0.3264178
000220 b0 12 71 3c 08 ea ac bd 0c b7 45 bd 9c 59 e8 3e
       0.014713928 -0.084430754 -0.04827027 0.45380867
000230 2b db c3 bd 76 e4 e6 3e 60 50 15 be d2 7f d8 be
       -0.09563287 0.45096177 -0.14581442 -0.4228502
000240 f8 6e 86 3e 82 44 05 bf 90 46 9a bd 5c 33 b4 be
       0.26256537 -0.5205766 -0.0753299 -0.35195434
000250 ca 51 da 3e d8 0a 07 3f e5 43 02 bf fc f7 fb 3e
       0.42640525 0.5275092 -0.5088485 0.49212635
000260 96 a8 94 bd 9e 21 e9 be 88 6d c3 3e fc c3 2b 3d
       -0.07258718 -0.4553346 0.38169503 0.041934952
000270 76 7e 00 be c0 e1 4f 3d c4 f4 06 be 8e 20 fe be
       -0.12548241 0.0507524 -0.13179308 -0.49634212
000280 90 a8 56 bd fa 0c 50 3f 48 f3 e7 3d bb b7 4c be
       -0.052406847 0.812698 0.11325699 -0.19991963
000290 73 d1 81 bd 56 4f fc be ba ae 06 3f 80 bd 94 ba
       -0.063387774 -0.4927928 0.5261036 -0.0011347979
0002a0 28 af 8a 3d 36 52 db bd 43 f3 a9 be 3d 7e 77 be
       0.0677169 -0.1070904 -0.33193406 -0.2416925
0002b0 06 52 be 3e 82 12 fe 3d 23 3f 09 3e c0 9f 78 3b
       0.37171954 0.12405874 0.13402991 0.0037937015
0002c0 80 fd 87 ba c3 88 d7 be e5 d9 c0 3e 52 68 19 be
       -0.0010375232 -0.42096528 0.3766624 -0.14981201
0002d0 f6 8b a1 be 3e 77 e2 bd 14 44 18 3d 96 ea b8 bd
       -0.31552094 -0.110579 0.0371743 -0.09029119
0002e0 dc 76 03 3d 6e 1d 01 bf aa 83 f5 be 00 cb 95 be
       0.032095775 -0.5043553 -0.47952014 -0.2925644
0002f0 2f ed 0a 3e 0b 77 1a be 40 2b ea be b0 6b e8 bd
       0.13567041 -0.15084474 -0.45736122 -0.11348665
000300 33 53 bf be 0e b2 e4 bd 6c ae df be 16 08 95 be
       -0.37368163 -0.11166774 -0.4368776 -0.29107732
000310 34 56 14 bd 00 86 00 bf 4e 1a 86 be f8 81 8f bc
       -0.036215022 -0.5020447 -0.26191944 -0.017518029
000320 03 7f e8 bd b5 04 f0 be 1c 60 0d bf bf 30 1d 3e
       -0.113523506 -0.4687859 -0.55224776 0.15350626
000330 0a 55 86 be fa aa c9 3d a4 0a 58 3d 34 eb 10 bd
       -0.26236755 0.09847064 0.052744523 -0.035380557
000340 5e 33 ff bd ec 8a ba be ef 91 cb be c6 6a ef 3d
       -0.124609694 -0.36434114 -0.39759776 0.11690287
000350 da 74 ed 3d be d7 84 bd d6 5d 8e be b0 a9 11 bd
       0.11594553 -0.06486462 -0.27805966 -0.035562217
000360 62 eb c7 3d 6c b9 2a bd 5c ea 62 bd 74 71 33 3d
       0.097616926 -0.04168074 -0.055399284 0.04380937
000370 f3 77 e5 bd 1c dd 24 be d6 10 97 3d 6c d4 15 be
       -0.11204519 -0.16099972 0.07376258 -0.14631814
000380 59 9e 1a 3e c1 d2 07 3e 6c 5c 14 be de e9 cb 3d
       0.15099467 0.1326399 -0.14488381 0.09956716
000390 5c 87 12 be 69 1b 15 3e 4e b4 19 be 6e e3 f3 bd
       -0.14309448 0.14561237 -0.15010187 -0.11908613
0003a0 ce 65 80 bd 80 06 52 3c e5 24 0a 3e b0 74 5c 3c
       -0.06269418 0.0128189325 0.13490637 0.013455555
0003b0 e8 69 d4 bd f0 7c 22 be 24 47 0d bd a6 6e 94 bd
       -0.103717625 -0.15867972 -0.034491673 -0.07247667
0003c0 83 af fc bd 86 5d 4e bd 60 f5 b6 bd 1b 06 a3 bd
       -0.12338164 -0.05038216 -0.0893352 -0.07960149
0003d0 31 f3 09 3e 9b a9 ff bd 7c 89 69 bd 60 a6 b4 bd
       0.13471676 -0.124835216 -0.05701588 -0.08820796
0003e0 4b ce 1a be 54 7a 0c 3d cc 46 45 3d e2 61 a3 3d
       -0.15117757 0.03429635 0.04816322 0.07977654
0003f0 92 72 eb 3e ac ec 98 3d e6 3a df 3d 0e 8a 29 3e
       0.45985848 0.074670166 0.10899906 0.1655657

network.0.bias f4 [16]
000000 e0 9a 6e bd 0c d3 be be 26 be 92 be c2 56 bc be
       -0.05825317 -0.3727039 -0.28660697 -0.3678494
000010 00 18 b1 39 a9 78 73 be c0 37 08 3d f7 d5 b3 3e
       0.00033777952 -0.23776497 0.033256292 0.3512418
000020 3c aa 8d 3d 10 86 ac be b0 28 07 3f 08 2e ad 3d
       0.06917235 -0.33696032 0.5279646 0.084560454
000030 98 eb 1e be ee 67 8f be 30 15 a6 be 44 98 ce be
       -0.1551956 -0.2800898 -0.3243804 -0.40350544

network.2.weight f4 [32, 16]
000000 4c 3e 1a 3e f1 eb b2 3e 48 03 4d be 44 86 78 be
       0.15062827 0.34945634 -0.20020783 -0.24269968
000010 ea aa 60 3f f1 81 c5 3e 80 a4 ce 3b 41 6a 1a 3f
       0.87760794 0.385757 0.006306231 0.6031838
000020 48 f4 03 3d b9 41 ec be ee 56 80 3e d0 8b 09 bd
       0.032215387 -0.46143892 0.25066322 -0.0335806
000030 c2 a1 48 be f0 06 16 3f 93 59 ee be e7 24 d5 3e
       -0.19592956 0.58604336 -0.46552715 0.41629717
000040 00 51 10 3b e2 86 0c 3f 2f c3 f8 3e 82 f4 a5 3e
       0.0022020936 0.54893315 0.48586413 0.32413107
000050 0e fc 6a be 0d 09 85 be b0 7d f5 bc 1e b6 8d be
       -0.22947714 -0.25983468 -0.029967159 -0.27678007
000060 ba 14 31 3e e7 5f 8e 3e 3b bc fd be c9 ee 1f bf
       0.17293063 0.27807543 -0.4955767 -0.6247373
000070 0c 7d 38 be 54 c6 bb 3e b6 e1 98 3e 4d 69 83 3e
       -0.18016452 0.3667475 0.29859704 0.25666276
000080 32 5a 52 be ae 32 7b be 50 e5 8d bc fe a3 73 be
       -0.2054222 -0.24531052 -0.017321259 -0.23793027
000090 00 80 d5 bb 3a 87 4f 3e ec ab a2 3d 38 85 8e bd
       -0.006515503 0.20266429 0.07942948 -0.06959003
0000a0 66 1f 31 be 08 02 30 be 00 32 b6 3a dc a2 55 3e
       -0.17297134 -0.17188275 0.0013900399 0.20862907
0000b0 b0 4d d8 3c 00 3e 46 3a 50 29 ed bc 70 dc 6d 3e
       0.026404232 0.00075623393 -0.028950363 0.23228621
0000c0 80 a8 4b 3b 3c 40 ee bd c0 f5 24 3c 60 79 26 bd
       0.0031075776 -0.116333455 0.010068357 -0.040643096
0000d0 a0 d8 2d bc b0 5a 37 3d 2a 6e 14 3e 3a ec 47 be
       -0.010610729 0.04476422 0.14495149 -0.19523707
0000e0 4c 1a 98 3d 20 ba 6f 3d 60 09 70 bc 68 24 0b bd
       0.07426891 0.058527112 -0.014650673 -0.033970267
0000f0 0c 6d c8 3d 14 68 7e 3e 88 33 78 bd c0 b0 c7 bc
       0.09786424 0.2484439 -0.06059602 -0.024376273
000100 46 42 10 bf 60 4f 09 3e 00 f7 80 3b 7a 3d 4f be
       -0.56351125 0.13409185 0.0039356947 -0.20238295
000110 e0 82 68 3d 54 1b a2 be ba 51 71 be d6 3e 1d be
       0.056765437 -0.31661475 -0.23566332 -0.15356001
000120 0d 18 80 be 12 d9 76 3e a8 6a 23 bf ec 4f 8a be
       -0.2501835 0.24106243 -0.6383462 -0.270141
000130 dc b7 e8 3d 40 8c a6 bd 2c f6 4e be 60 de 78 bc
       0.113631934 -0.08132219 -0.20211095 -0.015189737
000140 fd 3a 24 3f 04 63 6e 3e ae 84 5f 3e 66 f5 61 be
       0.6415251 0.23279959 0.21827957 -0.22066268
000150 55 29 56 bf db a8 b1 3e dc 69 39 be 52 00 32 3f
       -0.8365682 0.3469914 -0.18106788 0.6953174
000160 79 ad e5 3e 70 0b a3 3c 4e 09 5b 3f 6a a9 e4 3e
       0.44858912 0.019902915 0.8556107 0.44660503
000170 fc 30 f0 3d 00 3d 91 ba 70 d1 11 3d d8 bb 4e 3e
       0.11728093 -0.0011080801 0.035600126 0.20188844
000180 28 c2 7d be f1 1c ce be 24 52 b7 be b2 79 66 be
       -0.24781096 -0.40256456 -0.35804856 -0.2250736
000190 2a f9 6b 3f da 0d 1a 3e f8 59 76 bd 8e ac b8 3e
       0.9217707 0.15044346 -0.060144395 0.3606915
0001a0 50 80 17 3e 9f 0c 9b be e9 4e 9b 3e fc ec 13 be
       0.14795041 -0.30283067 0.3033364 -0.14445871
0001b0 f6 15 7c be 0f 3d 8a 3e 38 f0 24 bf 7e d2 98 3e
       -0.24617752 0.2699971 -0.64429045 0.29848093
0001c0 8c 48 22 be 6a a8 ac 3e 87 f1 9f be ec 0a 9c be
       -0.15847987 0.3372224 -0.31238958 -0.30477083
0001d0 e6 23 4e 3f 9e bc 66 3e e0 14 6a bd 82 b8 dd 3e
       0.80523527 0.22532889 -0.057148814 0.4330483
0001e0 d4 01 d8 3d c2 50 f9 be ba ec 7a 3e 12 02 1e be
       0.10547224 -0.48694426 0.24504367 -0.15430477
0001f0 c0 cb 31 3c 78 9b c3 3e c8 0e 50 be 33 0b ed 3e
       0.0108518 0.3820455 -0.20318139 0.46297607
000200 d8 30 0e bf fa 4f a6 be ec bc f6 3e 82 d8 9a be
       -0.5554328 -0.32482892 0.4819101 -0.30243307
000210 8a 98 89 be 10 7e 90 3c d0 66 2f 3e 54 a6 56 bf
       -0.2687419 0.017638236 0.17129064 -0.83847547
000220 e0 20 60 bc 6c e2 1b 3f d8 69 7e bf b4 de c0 3d
       -0.013679713 0.6089237 -0.99380255 0.09417477
000230 18 82 ce 3d d0 8a e9 be ee 9d c7 3e 85 d9 a3 be
       0.10083407 -0.45613718 0.38987678 -0.32001892
000240 0c 96 4e be 1a b3 0f be c4 ba 94 bd e4 80 03 be
       -0.20174426 -0.14033166 -0.07262185 -0.12842137
000250 38 e6 51 3e 10 fd ba 3c 8c 39 50 be a6 a6 15 be
       0.20497978 0.022825748 -0.20334452 -0.14614353
000260 cc d3 6e be 20 8f 71 be a8 c2 5d be ec 0b 4f be
       -0.23322982 -0.23589754 -0.21656287 -0.20219392
000270 5a 1e 71 3e 90 7c 6e be 00 d0 12 bb ec 6d f9 3d
       0.23546734 -0.23289704 -0.002240181 0.12179169
000280 c8 02 9a bd 80 92 9d 3b c8 ad 4e 3e 48 3b 8a bd
       -0.07520062 0.004808724 0.2018348 -0.06749588
000290 34 98 27 be 92 47 6a be 24 73 a1 bd d4 e7 78 be
       -0.16366655 -0.22878864 -0.078832895 -0.24307185
0002a0 b0 d0 ef 3c a6 63 68 be 96 1d 16 3e 44 43 b7 bd
       0.029274315 -0.22694263 0.14659724 -0.08948377
0002b0 b0 f1 18 3e 3e e7 79 3e 72 f8 1f 3e c8 c5 e5 3d
       0.14935946 0.24404618 0.15622118 0.112193644
0002c0 db 0f 01 3f 94 dd 00 3e dc d4 05 3e 80 16 77 3c
       0.5041482 0.12584525 0.1306948 0.015081048
0002d0 e2 a8 0e 3f ae 2c 45 3e 80 b6 36 3d 10 4f c9 bc
       0.55726445 0.19255325 0.04460764 -0.024573833
0002e0 eb 8b ac 3e fc d1 df bd 6e 3d 5a 3e 8c 35 eb 3e
       0.337005 -0.10928723 0.21312496 0.4593929
0002f0 ce a0 29 3e 40 ae 4c bc a0 66 9a 3d 70 88 6e bd
       0.16565248 -0.012492716 0.075391054 -0.058235586
000300 ec 4f a6 be e7 d2 a3 be f9 c6 d6 be c2 12 d5 be
       -0.3248285 -0.31996843 -0.4194868 -0.41615874
000310 d0 2b b3 bc 58 bf 21 3d 18 80 7c 3d da d8 bc be
       -0.021871477 0.03948912 0.061645597 -0.36884195
000320 3d 36 8c be 5e f3 5a be 28 52 cd be 9e 66 8c be
       -0.2738513 -0.213819 -0.40101743 -0.2742204
000330 b4 54 60 3e 72 2f 44 be d7 98 b0 be e4 44 02 bf
       0.21907312 -0.19158724 -0.34491608 -0.5088637
000340 f0 8d 4c 3d 01 2b 90 be ec 3a 9c be 7a b5 01 bf
       0.04994005 -0.2815781 -0.30513704 -0.50667536
000350 39 20 76 3f 5a dd 0c 3f 54 a5 85 bd e4 57 12 3f
       0.9614292 0.55025256 -0.065256745 0.5716536
000360 44 5c 2e 3e 0d 75 b1 be fe 42 12 3f d0 2e dd bd
       0.17027384 -0.34659615 0.5713347 -0.107999444
000370 42 f4 6b 3e 51 7f 8c 3e cf bd d8 be fc 0b 6a 3e
       0.23042396 0.27440885 -0.42332312 0.22856134
000380 04 70 d5 bd 9a fb 01 3e 00 d7 a2 bb c8 cf b9 3d
       -0.10421756 0.12693635 -0.0049694777 0.09072834
000390 c2 ad 18 be 60 26 f1 3d 08 69 ea bd 50 24 49 be
       -0.14910033 0.117748976 -0.11445814 -0.19642758
0003a0 ce 06 1d 3e a8 d2 2e 3d 80 4a 46 3e 68 14 14 be
       0.15334627 0.042681366 0.19364357 -0.1446091
0003b0 40 a9 78 3e 00 30 56 b9 00 9e e7 3b 80 bc ad 3d
       0.24283314 -0.00020426512 0.0070683956 0.08483219
0003c0 8c e0 04 3f 6c 53 51 be fa b6 0c 3e 44 cc 72 be
       0.5190513 -0.20441979 0.13741675 -0.23710734
0003d0 6a c3 66 bf be 55 1c bf 28 cd 0e 3d ca e3 6f 3f
       -0.9014193 -0.6106833 0.03486362 0.93706954
0003e0 30 9c e2 3e 8e 08 13 be d6 fb 66 3f 57 92 ff 3e
       0.44259787 -0.14358732 0.9022802 0.49916336
0003f0 94 8f a6 3d c6 6b 7c 3e 38 d1 10 be b4 f2 25 be
       0.08132854 0.24650487 -0.1414231 -0.16205865

network.2.bias f4 [32]
000000 72 f0 95 be 00 8b 75 bd 82 e5 37 be fa 6b 75 be
       -0.29285008 -0.059947014 -0.17958644 -0.23966971
000010 d1 55 17 bf ad f8 00 3f fc 41 94 be 24 b1 f0 3e
       -0.5911532 0.5037945 -0.28956592 0.47010148
000020 0a 7a 12 bf 50 97 86 bd 4c c5 29 be f6 9f 98 3d
       -0.57217467 -0.06571829 -0.16579169 0.07452385
000030 66 ba bd be de d4 93 be b6 7f 68 be ce 50 05 bf
       -0.37056273 -0.28873342 -0.22704968 -0.52076423
000040 12 3b 9f 3f 6a 4b a8 be a8 bb 00 3f ce ad b9 3e
       1.2439902 -0.32870036 0.5028634 0.36265415
000050 5e aa 04 be 48 17 21 3f 94 b7 1b be 57 71 eb be
       -0.12955615 0.6292615 -0.15206748 -0.4598491
000060 06 7f 0f be 92 b9 3c bf 53 dc be bd d3 87 a4 be
       -0.140133 -0.7372066 -0.09319367 -0.32134876
000070 1c 8d e5 bd 17 de 9f 3e 31 df a7 3e cc 40 76 be
       -0.11208555 0.3122413 0.3278747 -0.24048156

network.4.weight f4 [16, 32]
000000 3b 49 4b bf 04 a9 00 3e c4 1b 3f 3d e7 41 02 be
       -0.79408616 0.12564474 0.04665734 -0.12720452
000010 91 02 01 bf 38 96 05 bf 52 92 96 be 22 59 9b be
       -0.5039454 -0.5218234 -0.2940851 -0.3034144
000020 ea 58 9a be d8 d4 19 be 1c 43 a6 bd 92 2e a3 be
       -0.3014596 -0.150226 -0.08118269 -0.31871468
000030 1e bd 8b be aa b7 47 bf 2a c6 dc 3d 36 78 f5 be
       -0.27292722 -0.78014624 0.10779984 -0.47943276
000040 e4 0a 49 bf fe ff bc 3d 99 ff 6f bf f0 41 5f 3d
       -0.7853224 0.09228514 -0.93749386 0.054506242
000050 19 5f 6d be dc a2 25 bf 28 4d 1e be 88 5c 92 3e
       -0.23180808 -0.6470163 -0.1545912 0.2858622
000060 fa e7 0c be c2 7b 08 bf 22 7c ae bd 8c c6 81 3e
       -0.13760367 -0.5331384 -0.0851977 0.25346792
000070 69 00 4b bf ae 0a 41 bf fd 2b 08 bf 6f 52 27 3e
       -0.792975 -0.7540692 -0.5319212 0.1634004
000080 a6 39 14 be 15 b3 16 be 9d eb 01 be a0 a2 46 3c
       -0.14475116 -0.14716752 -0.12687536 0.012123734
000090 c6 fb 10 be 2a 1e db 3d 86 33 c9 bd 7a 76 b2 bd
       -0.14158544 0.10699113 -0.098242804 -0.08714004
0000a0 66 13 c1 3d 04 11 91 bd de 1a e6 bd 6f 35 e9 bd
       0.09427528 -0.070833236 -0.11235593 -0.11387145
0000b0 3a b8 d0 bd 18 4f d3 bc cb fd 26 be 6b 2f 0e 3e
       -0.101913884 -0.02579455 -0.16307752 0.13885276
0000c0 26 8d 72 bd 17 e8 28 3e 07 dc 0e be 28 98 da 3c
       -0.05921664 0.16494785 -0.13951121 0.026683882
0000d0 40 18 22 be d9 42 31 be 00 6a e0 bc 16 45 bb bd
       -0.15829563 -0.17310657 -0.027394295 -0.091440365
0000e0 da 02 84 3d 85 e4 12 3e 00 ea 7a 3c 08 7f e5 bc
       0.064458564 0.14344986 0.015314579 -0.028014675
0000f0 f5 11 0f 3e 3a a3 f6 3d 19 9a 03 be 60 74 37 3c
       0.13971694 0.12042852 -0.12851752 0.01119718
000100 e4 f9 0a bf 38 d6 20 bd 00 1b 39 bd 7a b8 ad 3d
       -0.5428755 -0.039266795 -0.045191765 0.08482452
000110 78 c6 0d 3f 30 ec d3 bc cd fa 0c bf 6f a0 d2 be
       0.55380964 -0.025869459 -0.5507019 -0.41138026
000120 f8 7f 3d 3d 48 9d 4c 3d 55 e2 03 3e dc f2 c0 3d
       0.04626462 0.049954683 0.12879308 0.09421322
000130 15 40 dc 3e a8 fd b6 be 1f 9f 2f 3e 20 cd 12 3e
       0.4301764 -0.357404 0.17150544 0.14336061
000140 25 0b 01 3f b2 8d ae be bf 70 95 3e a2 38 7a be
       0.5040763 -0.3409248 0.2918758 -0.24435666
000150 56 eb 6c bf e9 8a d9 be db cf 45 3e 28 24 81 be
       -0.92546594 -0.42488793 0.19317572 -0.25222898
000160 b4 b3 10 3d 20 ce e7 bc 85 84 fa be 39 d6 66 be
       0.03532763 -0.02829653 -0.4892923 -0.22542657
000170 f2 15 ef be cf 64 c2 3e 30 45 a6 bc 1d 7c 08 be
       -0.4669643 0.37967536 -0.020296663 -0.13328595
000180 4e 17 dd be 84 a6 cf be 02 e7 d9 3d c0 84 56 bb
       -0.43181843 -0.4055673 0.10639764 -0.0032732934
000190 f9 dc 34 3e f8 89 b8 bc b2 0b a5 be d2 4b 9d be
       0.1766242 -0.022526726 -0.32235485 -0.3072191
0001a0 70 46 8c bd 63 ed 22 3e 3d 39 05 3e 49 75 76 be
       -0.068493724 0.15910868 0.13010116 -0.24068178
0001b0 03 05 be bd 89 62 eb be 80 8b f8 bc 05 3c b4 be
       -0.092783 -0.45973614 -0.030339956 -0.3520204
0001c0 66 66 08 bf 26 29 e8 3d a7 71 ef be 58 d0 d8 be
       -0.5328125 0.113359734 -0.46766397 -0.42346454
0001d0 ad 8d 77 be b0 a2 88 be a4 f0 ef bd f7 65 9e bd
       -0.24175139 -0.2668662 -0.117158204 -0.07734292
0001e0 81 77 1a 3e 9a f3 92 3d 88 48 ec 3c 80 1a bc 3b
       0.1508465 0.071753696 0.02884318 0.0057404637
0001f0 a6 63 02 bf 2a 09 33 be 69 9f de be 98 bb 7a 3d
       -0.509333 -0.17483965 -0.43480995 0.06121406
000200 e0 19 5c bf 88 2e 1b be d9 e4 2f 3e fb 74 e8 bd
       -0.8597698 -0.15154469 0.17177142 -0.11350437
000210 28 a6 0d bf f2 f1 da be 53 d3 65 be 36 c3 95 be
       -0.5533166 -0.42762715 -0.22443895 -0.29250497
000220 61 2b ce be c0 b3 bd bc e1 b2 06 be 8a 40 d9 be
       -0.4026747 -0.023157 -0.13154174 -0.42432052
000230 7d ea b9 be 48 44 2f bf a8 45 cd bd ae 0c 9a be
       -0.36311713 -0.68463564 -0.100230515 -0.300878
000240 fa 32 43 bf b7 e7 92 bd 42 40 35 bf e0 78 46 3c
       -0.7624966 -0.07173102 -0.70801175 0.01211378
000250 9a ab de be 43 05 5a bf b1 7a 00 be e6 98 f5 3e
       -0.43490297 -0.8516428 -0.12546803 0.47968215
000260 ff de 22 3e 7f 8e f8 be 70 68 6b 3d 67 b8 d7 3e
       0.15905379 -0.48546216 0.057472646 0.42132875
000270 21 f2 27 bf 80 1e 41 bf b1 b6 12 bf f2 3a f8 3d
       -0.65603834 -0.75437164 -0.57310015 0.12120618
000280 c2 f8 fd be 7a 7c a6 be 5a 6c 98 3d b8 ad a5 3c
       -0.4960385 -0.32516843 0.074425414 0.020224437
000290 76 74 8d be f5 63 f0 be a6 5a 8c bd 38 d4 0b be
       -0.27627915 -0.4695126 -0.06853227 -0.13655174
0002a0 72 14 d7 3e 86 6b a0 3d c7 94 85 bd ec b8 fe be
       0.42007786 0.078330085 -0.06522518 -0.4975046
0002b0 31 5f 01 be 02 7b 04 bf 10 c3 ba bc ed d9 04 bf
       -0.12633969 -0.51750195 -0.022798091 -0.5189503
0002c0 55 65 c0 be 0b 6f 2d 3e 77 67 70 be af 2a d3 be
       -0.3757731 0.16936891 -0.23476969 -0.41243502
0002d0 7c 6b e1 be da 58 87 be da b4 b1 bd e8 2f b2 3c
       -0.44027317 -0.26434976 -0.08677073 0.02175136
0002e0 40 f2 66 bb f4 66 e3 3e 56 47 11 be 76 dd 95 3d
       -0.0035239607 0.44414485 -0.14187369 0.07317631
0002f0 34 fd 09 bf 3b 08 ca be fb 98 0e bf c2 c1 de 3d
       -0.5390198 -0.39459404 -0.5570218 0.108768
000300 5c 36 47 bf a4 71 8e 3d 4b 2c 0a 3e 98 36 97 3c
       -0.7781732 0.06955269 0.13493459 0.01845865
000310 12 1a 8f be 48 4e a9 be e1 bf 67 be 31 46 e1 be
       -0.27949578 -0.33067536 -0.2263179 -0.43998864
000320 a0 a7 c2 be 00 eb ae bc 46 3d da 3d be c8 e5 be
       -0.38018513 -0.021352291 0.10656218 -0.44879717
000330 44 1c aa be 4e e7 55 bf f8 af 49 bd d6 c7 f8 be
       -0.3322469 -0.8355607 -0.049240083 -0.48589963
000340 86 90 52 bf fa 3b 88 3d 27 6e 64 bf c4 16 2e 3e
       -0.82251775 0.066520646 -0.8923058 0.17000872
000350 a8 f2 a5 be 50 51 23 bf 2b 31 12 3e b9 a5 e1 3e
       -0.32411695 -0.6379595 0.14276569 0.4407175
000360 4e a9 1b be 48 29 f2 be 00 36 c2 39 ce 03 8d 3e
       -0.15201303 -0.4729712 0.00037042797 0.27541965
000370 cd 65 44 bf 5f 2d 4a bf b7 21 f5 be 11 2c 8a bd
       -0.76717836 -0.7897548 -0.47877285 -0.06746686
000380 62 02 ce 3e 00 88 5e 39 88 ca 0c be 2b 64 01 be
       0.40236193 0.00021222234 -0.13749135 -0.12635867
000390 2f df 25 3e db 7c 22 bf 42 13 dd 3e f7 fc cd 3e
       0.16198419 -0.63471764 0.43178755 0.4023206
0003a0 80 82 dc bd 35 31 18 3e 25 3d 17 3e a8 8b 9e bd
       -0.107670784 0.14862521 0.14769419 -0.07741481
0003b0 78 44 0c 3f c7 1c 83 3e 68 ca 39 bd f0 c0 44 bd
       0.54791975 0.25607893 -0.045359045 -0.048035562
0003c0 d7 26 c2 be 00 9d c3 be 77 6e 05 3f e2 f7 07 bf
       -0.37920257 -0.3820572 0.5212168 -0.53112614
0003d0 84 f9 09 3e e6 ce 04 3f b4 46 aa 3e e4 41 c2 be
       0.13474089 0.518782 0.33257067 -0.37940896
0003e0 14 bf 5f 3d 24 63 ed 3d a4 83 93 be fd a8 05 bf
       0.054625586 0.11591175 -0.2881137 -0.5221098
0003f0 c0 e3 06 3f 1f 8a f6 be 06 5c 03 3e 0e 8f f2 3d
       0.5269127 -0.48152253 0.12828073 0.11843692

network.4.bias f4 [16]
000000 83 c9 bf be 98 a1 bf bc f1 a0 c3 bd c6 87 b3 be
       -0.3745843 -0.023392484 -0.095521815 -0.35064524
000010 ba f8 41 be bb 18 fb be 15 3c cd be 50 8f 2d 3e
       -0.18942538 -0.49042305 -0.400849 0.169492
000020 6c 2f 44 3e d8 cc 19 3f c7 9e d9 bd f4 55 84 be
       0.19158715 0.6007819 -0.106259875 -0.25846827
000030 80 15 1f bd 00 52 97 b9 de 51 5f 3f 60 3c 87 3e
       -0.038838863 -0.0002886206 0.87234294 0.2641325

network.6.weight f4 [2, 16]
000000 00 b1 c5 bd b8 79 62 bd 30 21 50 be 53 96 9c 3e
       -0.09652901 -0.05529186 -0.2032516 0.30583438
000010 7c e1 06 3e 76 9b b4 be 56 be 4c be 58 50 20 3f
       0.13171953 -0.35274857 -0.19994482 0.62622595
000020 8a 73 1b 3f ba 22 af bf fc a6 3d be 00 e7 2a be
       0.60723174 -1.3682473 -0.1852073 -0.16689682
000030 40 25 28 3e a4 0e 3c be db 6a a2 bf 49 65 be be
       0.1642046 -0.1836496 -1.268886 -0.3718665
000040 64 9f 1a 3e 38 28 1f 3e fe e6 be 3e ca b6 b7 be
       0.15099865 0.15542686 0.37285608 -0.35881644
000050 b0 28 7b 3e f4 38 72 3e 14 d9 46 be 52 c0 d3 be
       0.2452724 0.23654538 -0.19418746 -0.41357666
000060 18 1b d1 be b6 95 8e 3f 10 52 45 3d c8 c8 0b be
       -0.40840983 1.1139438 0.048173964 -0.1365081
000070 30 87 81 bc 6a 59 bc be 82 65 b5 3f 4d 12 03 bf
       -0.015811533 -0.36786968 1.4171603 -0.511998

network.6.bias f4 [2]
000000 00 0c 28 bd d6 93 92 3e
       -0.04102707 0.28628415
