saved_mc/Data_Tomato/retrospective/Tomato_retrospective_mc_1.pt (torch, 4470 bytes, 6 tensors)

network.0.weight f4 [16, 5]
0.4156071 0.3046049 -0.4128195 0.43399888 -0.43679577 0.07456839 0.25946403 -0.44547004
0.16019565 -0.18884346 0.14266324 -6.3997903 -0.03470154 0.40699524 -0.34864253 1.044452
2.2859442 -0.29856664 0.29400414 0.13327684 2.9709888 5.965234 0.176697 -0.3702044
0.62182283 -2.3720286 -8.043269 -0.46398824 0.37296712 1.342778 -2.0358558 2.7652733
0.041868165 0.27831674 -0.76316667 -0.11420144 -6.4988356 -0.27771407 -0.09823549 -0.46168286
0.63887084 -0.48715502 -0.3862052 0.112395346 -0.34280577 -0.113415346 4.017603 -0.028399035
-0.084223 0.15197396 -0.8615332 5.9369125 0.1639691 -0.30838948 -0.85473704 -0.17561516
-0.41220984 0.08116597 -0.1705665 -0.16218969 0.29075664 -0.41912043 -0.35764557 -0.3449201
0.00332053 0.06059718 -0.08713865 0.24173176 0.06925553 0.10483503 1.0953205 1.9983612
-0.4642736 -0.048868567 -0.014900789 -0.3795944 3.9891784 -0.07401788 -0.30187342 0.2739753
00000000: 74ca d43e 2cf5 9b3e 145d d3be 1a35 de3e
00000010: b2a3 dfbe 50b7 983d 78d8 843e a614 e4be
00000020: 540a 243e 2e60 41be 5016 123e 15cb ccc0
00000030: 3423 0ebd ae61 d03e 4681 b2be 9ab0 853f
00000040: e94c 1240 badd 98be b687 963e b979 083e
00000050: ae24 3e40 32e3 be40 0ff0 343e 6e8b bdbe
00000060: c82f 1f3f 51cf 17c0 3bb1 00c1 de8f edbe
00000070: 8cf5 be3e 26e0 ab3f 764b 02c0 3dfa 3040
00000080: f47d 2b3d 887f 8e3e e45e 43bf 72e2 e9bd
00000090: 76f6 cfc0 8a30 8ebe b02f c9bd b261 ecbe
000000a0: 0a8d 233f 626c f9be b0bc c5be 882f e63d
000000b0: 3d84 afbe 4e46 e8bd 3490 8040 18a5 e8bc
000000c0: 1c7d acbd 109f 1b3e 718d 5cbf 30fb bd40
000000d0: 84e7 273e 3ae5 9dbe 0cd0 5abf 76d4 33be
000000e0: 2b0d d3be 583a a63d fca8 2ebe 0e15 26be
000000f0: 0ede 943e f496 d6be 521d b7be 5e99 b0be
00000100: 409d 593b c034 783d c075 b2bd 8888 773e
00000110: d8d5 8d3d c0b3 d63d 7633 8c3f 4dca ff3f
00000120: 45b5 edbe 682a 48bd 7022 74bc 325a c2be
00000130: b34e 7f40 b096 97bd 278f 9abe 7e46 8c3e

network.0.bias f4 [16]
0.11053538 -0.22590193 -0.54118335 -0.24024183 0.10305396 1.0428717 -0.36482775 -0.09045614
-0.20947526 -0.6589085 -0.13059755 -0.3097608 -0.3196735 -0.25411636 0.3585568 0.43442798
00000000: 6060 e23d d652 67be fe8a 0abf f401 76be
00000010: f40d d33d d27c 853f b4ca babe 1241 b9bd
00000020: af80 56be 3aae 28bf 5dbb 05be f898 9ebe
00000030: 3fac a3be 8a1b 82be c294 b73e 586d de3e

network.2.weight f4 [16, 16]
-0.07137203 0.16668963 -0.23770678 0.07082039 -0.12379405 -0.19785017 0.15428728 -0.04534778
-0.12379566 0.11820847 -0.08975324 0.080655485 -0.13580453 -0.21176916 0.107972234 0.21060726
0.10040912 -0.21258396 2.0079834 -0.06377375 -1.7855561 1.427961 -2.2271984 2.0036016
-0.05885999 -1.000801 -3.9016464 -0.19242615 -0.13913736 -0.05298662 0.35556325 0.18534642
0.011163533 -0.19401437 -0.32292503 -0.22013468 -0.0893369 -0.14820522 -0.28407148 -0.3211112
-0.08624819 -0.16803628 -0.29997477 -0.037296265 -0.16524655 -0.2267159 -0.15843299 -0.053800404
0.18409947 0.14726731 -0.20682074 0.14768103 -0.18508375 -0.20003003 -0.1708759 -0.29421055
0.14587876 0.034475252 -0.22176519 0.24361989 -0.08759898 0.23922023 0.10270038 0.0084551275
0.21715039 0.07622403 1.53097 -0.20309415 -1.8253969 1.3914404 -2.172833 1.5794849
0.35754594 -0.35638642 -2.4190137 0.18463913 -0.1255534 0.007738471 0.46447176 1.2531996
-0.030128181 0.153555 0.88211673 0.18712634 -0.30220914 0.36750293 -2.2035701 0.6830702
-0.020177707 -0.59988534 -1.196463 0.20045689 -0.09814972 -0.037995994 0.22919886 0.27239868
-0.103292674 0.21054965 0.97164947 -0.018532276 -0.5745798 0.48923722 -1.6255299 1.1553767
-0.57924354 0.07672317 -1.787323 0.079993576 0.13683343 -0.16308948 0.2730109 1.2721252
0.24602172 0.011448026 2.0974822 0.13113686 -1.4089997 1.2258396 -2.4454293 1.8843523
0.13065362 -1.178849 -3.449742 -0.15868598 0.16486779 -0.21659514 0.6236364 0.5731108
0.08822334 0.06771809 0.33189148 -0.06428489 -0.6053338 0.15617397 -1.5737166 0.22845884
0.1697254 -0.44252646 -2.8746312 0.06457412 -0.22701123 -0.011948913 0.3213485 1.6195201
0.01775968 -0.22017807 -0.5699898 -0.19111723 -0.15325089 0.002123922 -0.22978707 -0.486473
0.1643755 -0.22342783 -0.3941 0.038627684 -0.23145321 -0.19409904 0.10019001 0.07398552
-0.21544552 -0.04298833 1.6792796 0.0663507 -1.6200298 1.2478659 -2.2453315 1.5696042
0.22561866 -0.97903264 -3.3772523 0.16736564 -0.13324755 -0.1536743 0.1655321 1.4372395
-0.20950654 0.0025828779 0.14449129 0.40031362 0.4433599 -0.40614632 -2.0439184 -0.43775138
-0.13444993 -1.5772672 0.956166 -0.08240494 -0.08606607 -0.0015484393 0.16858521 1.9699707
-0.08569151 0.246378 0.18165924 -0.19382435 -0.15543155 -0.22467746 -0.13242507 0.10053331
-0.021196768 -0.059009984 -0.64462006 0.1885271 -0.01755464 0.18283227 0.09857702 0.14791158
0.20132309 0.17749304 -0.14080295 0.037822604 -0.2147016 -0.015568525 -0.16937113 0.15790048
-0.24513215 0.1419954 -0.035948336 0.24556842 -0.21616083 -0.15584537 -0.24500012 -0.21979639
0.17575586 -0.01188764 1.7374368 -0.23409545 -0.7547153 0.7845299 -2.4753199 1.6050158
-0.12143369 -0.34995654 -3.0447981 -0.20136154 -0.16934142 -0.23891485 0.21340457 0.3095975
0.117492855 -0.13866925 0.18888544 1.919229 2.9529493 -1.6154557 0.23402868 0.074484825
-0.04514478 -0.2928006 1.6303415 0.13069308 -0.15736498 -0.14791283 1.3654662 2.1015682
00000000: 802b 92bd b0b0 2a3e 6869 73be 480a 913d
00000010: bc87 fdbd 3c99 4abe 7cfd 1d3e 98be 39bd
00000020: 9488 fdbd 4817 f23d 8cd0 b7bd b42e a53d
00000030: 5810 0bbe 04da 58be 8c20 dd3d 6ea9 573e
00000040: 4ca3 cd3d 9caf 59be cd82 0040 d09b 82bd
00000050: 1a8d e4bf 6dc7 b63f 6b8a 0ec0 023b 0040
00000060: 2c17 71bd 3f1a 80bf 93b4 79c0 5c0b 45be
00000070: 067a 0ebe 8008 59bd 630c b63e 74cb 3d3e
00000080: 40e7 363c b4ab 46be 6e56 a5be fc6a 61be
00000090: 44f6 b6bd 1cc3 17be d171 91be b068 a4be
000000a0: e4a2 b0bd b411 2cbe 4b96 99be f8c3 18bd
000000b0: 6436 29be 3628 68be 423c 22be d05d 5cbd
000000c0: 9284 3c3e 3ecd 163e d1c8 53be b239 173e
000000d0: 9886 3dbe acd4 4cbe 18fa 2ebe c4a2 96be
000000e0: 3e61 153e ec35 0d3d 6a16 63be 7e77 793e
000000f0: 1867 b3bd 26f6 743e 9454 d23d 6087 0a3c
00000100: ac5c 5e3e 581b 9c3d d3f6 c33f eaf7 4fbe
00000110: 9ba6 e9bf b81a b23f b20f 0bc0 902c ca3f
00000120: 4310 b73e 4878 b6be 1fd1 1ac0 0a12 3d3e
00000130: 1291 00be 0093 fd3b 3ecf ed3e d868 a03f
00000140: 60cf f6bc 863d 1d3e 67d2 613f 0c9e 3f3e
00000150: 28bb 9abe 5829 bc3e 4b07 0dc0 b0dd 2e3f
00000160: b84b a5bc 1692 19bf b325 99bf 9244 4d3e
00000170: b802 c9bd b0a1 1bbd 1bb3 6a3e d777 8b3e
00000180: 1c8b d3bd 549a 573e 05be 783f 00d1 97bc
00000190: a917 13bf 4d7d fa3e 5d11 d0bf 62e3 933f
000001a0: 4e49 14bf 0a21 9d3d 00c7 e4bf acd3 a33d
000001b0: 101e 0c3e ee00 27be 16c8 8b3e 00d5 a23f
000001c0: 1eed 7b3e 8090 3b3c 263d 0640 be48 063e
000001d0: 1a5a b4bf 50e8 9c3f ea81 1cc0 7532 f13f
000001e0: 10ca 053e 86e4 96bf 93c8 5cc0 947e 22be
000001f0: 1ad3 283e 1ecb 5dbe a3a6 1f3f 64b7 123f
00000200: 70ae b43d c8af 8a3d aeed a93e cca7 83bd
00000210: 28f7 1abf 12ec 1f3e 8c6f c9bf 1df1 693e
00000220: 7fcc 2d3e d492 e2be f5f9 37c0 703f 843d
00000230: a275 68be 60c5 43bc ca87 a43e 6f4c cf3f
00000240: c07c 913c 5c76 61be daea 11bf 3cb4 43be
00000250: cded 1cbe 8031 0b3b 4d4d 6bbe fd12 f9be
00000260: 0d52 283e 44ca 64be 7ac7 c9be 1038 1e3d
00000270: 1202 6dbe e6c1 46be 6c30 cd3d b885 973d
00000280: c09d 5cbe 8814 30bd a2f2 d63f e0e2 873d
00000290: 235d cfbf 12ba 9f3f 83b3 0fc0 cae8 c83f
000002a0: 9408 673e e2a1 7abf e724 58c0 e661 2b3e
000002b0: 0c72 08be cc5c 1dbe 3f81 293e 77f7 b73f
000002c0: e288 56be 8045 293b 86f5 133e e8f5 cc3e
000002d0: 1200 e33e 69f2 cfbe 8fcf 02c0 f320 e0be
000002e0: 3ead 09be e4e3 c9bf 4cc7 743f ecc3 a8bd
000002f0: 6843 b0bd 00f5 caba 9aa1 2c3e 0028 fc3f
00000300: 087f afbd 844a 7c3e e104 3a3e e479 46be
00000310: 7329 1fbe d911 66be 709a 07be 68e4 cd3d
00000320: d8a4 adbc 74b4 71bd d205 25bf 400d 413e
00000330: c0ce 8fbc 6238 3b3e c0e2 c93d 2276 173e
00000340: a427 4e3e bcc0 353e a62e 10be e0eb 1a3d
00000350: bcda 5bbe 2013 7fbc a06f 2dbe aab0 213e
00000360: ec03 7bbe 3e67 113e 903e 13bd 4a76 7b3e
00000370: 4459 5dbe ee95 1fbe 50e1 7abe 4e12 61be
00000380: 58f9 333e 60c4 42bc 5464 de3f b8b6 6fbe
00000390: 0635 41bf f4d6 483f a46b 1ec0 2871 cd3f
000003a0: 3ab2 f8bd 812d b3be f9dd 42c0 b831 4ebe
000003b0: d667 2dbe 18a6 74be ba86 5a3e 9083 9e3e
000003c0: 18a0 f03d 50ff 0dbe 2f6b 413e 4ca9 f53f
000003d0: 1ffd 3c40 41c7 cebf 37a5 6f3e 808b 983d
000003e0: bce9 38bd f6e9 95be 08af d03f 68d4 053e
000003f0: 4924 21be 7676 17be 99c7 ae3f 1880 0640

network.2.bias f4 [16]
-0.21619335 -0.030849367 -0.010243741 0.25522134 0.8559209 -0.29601297 0.019066155 0.23500948
0.3672374 -0.26401538 -0.010765314 0.21716163 -0.09671737 -0.21537146 0.39187765 0.06953829
00000000: ca61 5dbe d0b7 fcbc 5dd5 27bc 5fac 823e
00000010: a21d 5b3f 038f 97be a030 9c3c 53a6 703e
00000020: 8a06 bc3e 062d 87be 0061 30bc 9e5f 5e3e
00000030: c213 c6bd 568a 5cbe 30a4 c83e 176a 8e3d

network.4.weight f4 [2, 16]
-0.21833399 -2.5627208 0.1747795 0.36902097 -2.9408267 -2.6453278 -1.9795723 -3.1835718
-1.5173235 0.21214706 -2.9800372 -1.480172 -0.6059116 -0.01481989 -3.0347176 -1.9407653
0.24335495 4.0548697 -0.11136839 0.11079723 3.3395934 1.5280995 3.4419324 3.8101747
0.55922365 -0.3501022 2.7997801 1.6262863 0.011475518 -0.099229485 3.1558 2.0078156
00000000: f292 5fbe 9e03 24c0 66f9 323e 51f0 bc3e
00000010: 8136 3cc0 0d4d 29c0 a062 fdbf a4bf 4bc0
00000020: a837 c2bf 143d 593e eeb8 3ec0 4776 bdbf
00000030: 061d 1bbf 20cf 72bc d038 42c0 ff6a f8bf
00000040: 0a32 793e 7ec1 8140 1c15 e4bd a8e9 e23d
00000050: e6bb 5540 c498 c33f 9f48 5c40 e7d9 7340
00000060: 4829 0f3f 9840 b3be 992f 3340 262a d03f
00000070: d003 3c3c d438 cbbd a1f8 4940 0d80 0040

network.4.bias f4 [2]
-0.3461226 -0.15296707
00000000: fb36 b1be 66a3 1cbe
