saved_mc/old/retrospective_mc_3.pt (torch, 4470 bytes, 6 tensors)

network.0.weight f4 [16, 5]
0.14825648 -0.28258678 0.021282256 -0.36321667 -0.083828986 -0.20002244 0.29726458 -0.57142675
-0.3366194 0.47986275 -0.31084925 -0.44453764 -0.013609692 0.41989505 -0.4323647 0.086961105
0.6826559 -0.14231996 -0.0020589232 -0.050422132 0.16648062 0.019151196 -0.19399247 0.17910051
0.09112695 0.378586 -0.2729569 -0.44532117 -0.08161399 -0.20044875 -0.21254762 0.12568219
-0.09725857 0.41628772 -0.21419583 0.06607808 -0.5426957 0.25779846 -0.42172796 -0.30647945
0.06827843 0.11606252 0.35380328 0.40750736 -0.20070614 0.28952634 0.34725064 -0.43284214
-0.3503936 0.289662 -0.30507803 -0.18758224 0.22238083 -0.41496658 -0.38651574 0.060440034
-0.18548827 -0.113554865 0.10091543 0.57730895 -0.08225843 -0.35610902 0.009704679 -0.066070795
0.24141786 0.34220243 0.3809501 -0.027943835 -0.32928762 -0.35158873 -0.2040576 0.42034745
-0.35459507 -0.17723468 0.060349643 -0.12572078 -0.1740684 0.015167072 0.24529189 0.38865054
00000000: 8cd0 173e 37af 90be 2058 ae3c 89f7 b9be
00000010: 88ae abbd afd2 4cbe 1033 983e 0649 12bf
00000020: 6159 acbe 92b0 f53e a227 9fbe 709a e3be
00000030: 30fb 5ebc 7cfc d63e e85e ddbe aa18 b23d
00000040: 89c2 2e3f 53bc 11be 00ef 06bb 7087 4ebd
00000050: e579 2a3e f8e2 9c3c f6a5 46be 2066 373e
00000060: c4a0 ba3d 06d6 c13e 02c1 8bbe 2301 e4be
00000070: 3c25 a7bd 7042 4dbe 15a6 59be d5b2 003e
00000080: 802f c7bd aa23 d53e 2756 5bbe f253 873d
00000090: 1bee 0abf 29fe 833e baec d7be e0ea 9cbe
000000a0: 90d5 8b3d 30b2 ed3d b425 b53e cea4 d03e
000000b0: e985 4dbe cc3c 943e d6ca b13e 7c9d ddbe
000000c0: ca66 b3be 944e 943e 3033 9cbe 8f15 40be
000000d0: cdb7 633e 8076 d4be 64e5 c5be f88f 773d
000000e0: a3f0 3dbe 748f e8bd c0ac ce3d 85ca 133f
000000f0: 1c77 a8bd ec53 b6be 6000 1f3c 2050 87bd
00000100: 3e36 773e 2835 af3e e40b c33e 78ea e4bc
00000110: 6398 a8be 7003 b4be 7af4 50be c837 d73e
00000120: 7c8d b5be 027d 35be 3031 773d f3bc 00be
00000130: fd3e 32be 507f 783c cc2d 7b3e 34fd c63e

network.0.bias f4 [16]
0.04221821 -0.09814589 -0.22536545 -0.31522322 0.2024721 0.29553592 -0.20337841 0.00085780025
-0.43761316 0.43666178 -0.03168021 -0.16272518 -0.13061054 0.12805893 -0.41504532 -0.14885882
00000000: 00ed 2c3d b600 c9bd 33c6 66be f064 a1be
00000010: d954 4f3e 7c50 973e 6e42 50be 00de 603a
00000020: d50e e0be 2292 df3e 1cc3 01bd 6ea1 26be
00000030: c5be 05be e121 033e d280 d4be 726e 18be

network.2.weight f4 [16, 16]
0.17941985 -0.17890684 0.068731815 -0.06984897 -0.009522989 0.049276024 0.109225065 -0.11345488
-0.123148024 0.04816051 -0.23735893 -0.09542632 -0.19548889 0.04985261 -0.08648175 -0.35643703
-0.20641631 -0.22675923 0.39333582 -0.025807828 -0.017401978 0.047403663 0.22635266 -0.011826709
-0.24680737 0.21482289 0.33059242 -0.098220974 0.2623796 -0.14640766 -0.13964742 -0.16885611
0.21448818 0.099930674 -0.21922034 -0.05291809 0.12604058 0.02440381 -0.06987442 -0.22661343
0.071802855 0.06712605 -0.4184667 -0.08806299 -0.21397766 -0.40575325 -0.16708428 0.13415344
-0.1927791 -0.10532302 -0.12678954 -0.02756828 -0.29603285 -0.02230972 -0.17231464 0.042879894
0.07427961 -0.1770531 -0.17634018 -0.030481279 0.03874004 -0.12527055 -0.14153326 -0.21482536
0.065567106 0.10626303 -0.24422939 -0.22728516 0.15192597 0.12537587 -0.07566017 -0.31920004
0.15615994 0.1607358 -0.2535114 0.2343191 0.23249371 0.019364148 0.037088692 0.032963485
-0.04935068 -0.11852077 -0.07812391 0.020351872 -0.018968433 -0.14729548 -0.31675848 -0.31757617
0.24256238 0.10163362 -0.26691782 0.03338182 0.18745868 -0.12646794 -0.09459302 -0.032356158
-0.026241928 -0.14775923 -0.047764868 0.013585448 -0.10097161 0.035635233 -0.23958221 -0.024979338
0.074926704 -0.24969032 -0.2815858 0.0005875528 0.0048996806 -0.13950172 0.1252487 -0.05220875
0.1034044 -0.03656283 0.13057446 -0.13538066 0.23205063 -0.09222391 -0.16410917 -0.07680169
-0.21579021 0.06160724 -0.10993606 0.1236642 -0.11300549 -0.17108202 0.23285705 0.14941534
-0.22223383 0.32248437 -0.017500654 0.07485792 -0.027584463 -0.12690845 0.40667987 -0.13542661
0.17959604 0.090700865 0.12102485 0.23037569 -0.18506336 0.38241404 0.00950712 0.44191474
-0.1685468 -0.37149835 0.20665538 -0.21367218 -0.42107528 0.1458503 0.17296475 0.060614854
0.059611052 -0.11021151 -0.12716907 -0.054590344 0.024845406 -0.042337894 -0.22948995 -0.24007791
0.0078498125 -0.1899769 0.081814796 -0.15338981 0.17234558 -0.23010689 -0.22576585 -0.18901893
-0.1295597 0.013440639 0.14639151 -0.009340078 -0.09449023 0.22198918 -0.0734449 -0.1975644
0.19909847 -0.24014392 -0.14909539 -0.009291977 0.21344748 0.024888158 -0.22627226 0.09243801
-0.06876868 -0.17229772 -0.13656732 0.038157433 -0.10901064 -0.10039815 -0.109763294 0.09437159
-0.0006253123 0.116789564 -0.33152977 -0.018081084 -0.14341035 0.060985446 -0.11861271 0.038737684
0.23693702 0.06947513 -0.15976703 -0.0147821605 0.2214992 -0.054233745 -0.08517653 -0.0128866285
-0.027964681 -0.18661273 -0.17511705 -0.12791234 0.19470367 0.15212843 0.050541073 -0.07428631
-0.17613667 -0.027465403 -0.12779984 0.24888188 -0.06741992 -0.06738716 0.12941167 -0.21630669
-0.2238869 -0.1674808 -0.015518278 -0.20580459 -0.032541245 0.17112428 -0.022931993 -0.08508739
-0.17600825 -0.086099595 -0.07590309 0.17785245 -0.147802 0.01854679 -0.22763807 -0.0525209
-0.04652548 -0.14483324 0.022638798 -0.17545202 -0.21126853 0.19027984 0.17421594 0.008654773
-0.13430566 0.010647342 -0.19825172 -0.1841377 -0.038683802 0.23726964 -0.17013851 -0.235604
00000000: d6b9 373e 5b33 37be 44c3 8c3d fa0c 8fbd
00000010: 5006 1cbc a8d5 493d 64b1 df3d 085b e8bd
00000020: 0835 fcbd f443 453d 380e 73be e06e c3bd
00000030: 3d2e 48be 4032 4c3d 581d b1bd ea7e b6be
00000040: cc5e 53be 9233 68be 5063 c93e f06a d3bc
00000050: 988e 8ebc 582a 423d fec8 673e d0c4 41bc
00000060: 12bb 7cbe 88fa 5b3e 6943 a93e 1428 c9bd
00000070: 9e56 863e e4eb 15be bcff 0ebe 9ee8 2cbe
00000080: caa2 5b3e 74a8 cc3d 4c7b 60be a4c0 58bd
00000090: c810 013e 80ea c73c 521a 8fbd 5a0d 68be
000000a0: 600d 933d 6279 893d 4441 d6be 5e5a b4bd
000000b0: f61c 5bbe e4be cfbe 2418 2bbe 855f 093e
000000c0: e267 45be 98b3 d7bd 1ed5 01be e0d6 e1bc
000000d0: 9e91 97be e0c2 b6bc 4073 30be d4a2 2f3d
000000e0: e81f 983d 684d 35be 8592 34be e0b3 f9bc
000000f0: e0ad 1e3d ec46 00be 18ee 10be 2efb 5bbe
00000100: 0c48 863d 6ea0 d93d 4517 7abe 71bd 68be
00000110: 7b92 1b3e 8862 003e b8f3 9abd 306e a3be
00000120: 64e8 1f3e ed97 243e 3fcc 81be 59f1 6f3e
00000130: d512 6e3e 90a1 9e3c 50ea 173d b804 073d
00000140: f023 4abd 04bb f2bd 6eff 9fbd f8b8 a63c
00000150: b063 9bbc a0d4 16be 2b2e a2be 5899 a2be
00000160: 4662 783e 4a25 d03d 74a9 88be 60bb 083d
00000170: 2bf5 3f3e d080 01be fcb9 c1bd e487 04bd
00000180: 50f9 d6bc 324e 17be 18a5 43bd 8095 5e3c
00000190: 34ca cebd 40f6 113d 0a55 75be 78a1 ccbc
000001a0: 2c73 993d d2ae 7fbe 042c 90be 0006 1a3a
000001b0: 808d a03b 8ad9 0ebe 3241 003e d8d8 55bd
000001c0: b0c5 d33d e8c2 15bd 50b5 053e 3aa1 0abe
000001d0: ae9e 6d3e e4df bcbd 3c0c 28be 344a 9dbd
000001e0: 1cf8 5cbe e057 7c3d 2826 e1bd a843 fd3d
000001f0: 6c6f e7bd 2030 2fbe 1472 6e3e 5600 193e
00000200: 4491 63be ac1c a53e 885d 8fbc 1c4f 993d
00000210: d0f8 e1bc 4af4 01be 5838 d03e 46ad 0abe
00000220: 06e8 373e 60c1 b93d e0db f73d 9be7 6b3e
00000230: 4081 3dbe c6cb c33e c0c3 1b3c a642 e23e
00000240: 8897 2cbe 0835 bebe 789d 533e e1cc 5abe
00000250: 2e97 d7be c859 153e ac1d 313e 4847 783d
00000260: b82a 743d 92b6 e1bd 9c38 02be 209a 5fbd
00000270: 9888 cb3c 806a 2dbd 6aff 6abe fcd6 75be
00000280: 809c 003c 4e89 42be 848e a73d 3812 1dbe
00000290: 5c7b 303e 24a1 6bbe 2a2f 67be 2e8e 41be
000002a0: 4cab 04be 2036 5c3c a8e7 153e 2007 19bc
000002b0: 1884 c1bd 2251 633e 486a 96bd 524e 4abe
000002c0: 78e0 4b3e 4ae8 75be 76ac 18be 603d 18bc
000002d0: fa91 5a3e 40e2 cb3c eab3 67be 2450 bd3d
000002e0: 98d6 8cbd d06e 30be 4ed8 0bbe f84a 1c3d
000002f0: f840 dfbd 8c9d cdbd 94cb e0bd e445 c13d
00000300: 00ec 23ba 5e2f ef3d 45be a9be c81e 94bc
00000310: 2ada 12be e0cb 793d 38eb f2bd 68ab 1e3d
00000320: 9e9f 723e fa48 8e3d f899 23be e030 72bc
00000330: b0d0 623e 3424 5ebd 0871 aebd 7022 53bc
00000340: 3016 e5bc 6817 3fbe e251 33be 74fb 02be
00000350: 6660 473e 8ec7 1b3e 2804 4f3d 6c23 98bd
00000360: 2c5d 34be 20ff e0bc f6dd 02be e4da 7e3e
00000370: 7413 8abd 4802 8abd 7e84 043e 807f 5dbe
00000380: 9c42 65be 1680 2bbe 6040 7ebc 70be 52be
00000390: f849 05bd 343b 2f3e e0db bbbc 4c42 aebd
000003a0: 823b 34be fc54 b0bd 1473 9bbd f41e 363e
000003b0: 6859 17be 70ef 973c f419 69be 2820 57bd
000003c0: 8091 3ebd 2a4f 14be 0075 b93c b2a9 33be
000003d0: c756 58be b8d8 423e aa65 323e c0cc 0d3c
000003e0: 6c87 09be 3072 2e3c 8002 4bbe 988e 3cbe
000003f0: e872 1ebd d0f6 723e ca38 2ebe 2d42 71be

network.2.bias f4 [16]
-0.075879484 0.18960707 0.037760615 -0.38177893 0.12993377 0.16220574 -0.3064644 -0.20952576
0.023289353 -0.096532226 -0.092142135 -0.2411809 0.11323395 -0.027264059 0.05025056 -0.10334486
00000000: b466 9bbd 5b28 423e e0aa 1a3d 8778 c3be
00000010: 5c0d 053e 4319 263e e7e8 9cbe ec8d 56be
00000020: 50c9 be3c b0b2 c5bd 04b5 bcbd 20f8 76be
00000030: 34e7 e73d e058 dfbc 88d3 4d3d 78a6 d3bd

network.4.weight f4 [2, 16]
0.24224086 0.2835397 -0.0007723272 -0.04637842 0.21697657 0.17341883 -0.031346068 0.121555895
-0.20666076 0.098889336 -0.0559175 0.06707284 0.08251175 -0.18507323 -0.23603112 -0.04359752
-0.14408287 -0.36849844 -0.16641438 -0.04807934 -0.15389849 -0.13464876 -0.038625285 0.070216715
-0.12316637 -0.18003677 -0.07528299 -0.093489975 -0.10360488 0.087879896 -0.20331654 -0.43052578
00000000: fd0d 783e 1e2c 913e 0076 4aba 4cf7 3dbd
00000010: 1b2f 5e3e b594 313e bc64 00bd 4cf2 f83d
00000020: e19e 53be 7e86 ca3d c009 65bd 7c5d 893d
00000030: ecfb a83d d683 3dbe 24b2 71be 5093 32bd
00000040: 768a 13be d4ab bcbe 8868 2abe d8ee 44bd
00000050: 9197 1dbe 5de1 09be 8c35 1ebd c8cd 8f3d
00000060: a63e fcbd 8f5b 38be f82d 9abd ac77 bfbd
00000070: cc2e d4bd 60fa b33d 3632 50be e06d dcbe

network.4.bias f4 [2]
0.38960853 -0.17485315
00000000: c57a c73e b40c 33be
