aggregated_results/Mob/retrospective_ttt_3.pt (torch, 10256 bytes, 8 tensors)

network.0.weight f4 [16, 36]
000000 d2 af 5b 3f c0 34 0c bf eb ef 26 be 5d fd b7 3e
       0.85815156 -0.5476799 -0.16302459 0.35935488
000010 02 fb bb 3e 80 56 ab 3a 2b 42 1f 3f 6f 73 ba 3e
       0.3671494 0.0013072044 0.6221034 0.36416194
000020 ba a5 06 bf 42 9e 2d 3f b9 c0 64 3d fe 14 18 be
       -0.5259663 0.6781961 0.055847857 -0.14851758
000030 77 79 60 3f a1 e8 bc be 94 cb 29 3d 8c e4 dc 3e
       0.8768534 -0.36896232 0.041453913 0.43143117
000040 80 4c d8 3e 2c 22 96 3d 20 03 58 3c 80 8c b6 bc
       0.42245865 0.073307365 0.013184339 -0.022283792
000050 84 34 48 3f 5e e9 37 3f 36 fa 5e bd 85 22 ee be
       0.7820513 0.71840465 -0.05443784 -0.4651071
000060 e6 ae 19 3f a8 3c eb be 56 53 b2 3d f4 da 10 bf
       0.600325 -0.45944715 0.08707301 -0.56584096
000070 c3 80 02 3f fa 83 f6 3e c9 b7 20 be 17 c5 0b 3f
       0.50977725 0.48147565 -0.15695108 0.5459761
000080 8c 9a cc 3e 40 d6 fe 3c 7f d4 06 be ad fb c2 be
       0.3996166 0.031108022 -0.13166998 -0.38082638
000090 ce c7 9a bd fa 26 b3 3d 59 82 16 3e 60 92 fa bd
       -0.07557641 0.087476686 0.14698161 -0.1223495
0000a0 c6 6c b0 3d b0 94 39 bc 96 da af 3d c0 96 c9 3c
       0.08614497 -0.011326954 0.08586614 0.024608016
0000b0 8e 39 c2 bd f0 de b4 bd 62 6f 14 be 80 7b ea ba
       -0.09483634 -0.088315845 -0.14495614 -0.0017889589
0000c0 b0 e1 92 3d 2d ab 23 3e 2f d9 14 be e0 58 7c bd
       0.07171953 0.15983267 -0.14535974 -0.061608195
0000d0 43 59 c2 bd 80 05 93 ba 53 f6 e1 bd 87 47 18 be
       -0.094896816 -0.0011216849 -0.11033311 -0.14871036
0000e0 c0 85 a8 bd 0a 36 d8 3d a7 b7 1e 3e c0 66 2c 3c
       -0.08228636 0.10557182 0.15499745 0.010522544
0000f0 f8 e4 f0 bd 90 37 5b 3c 53 62 15 be 56 98 86 bd
       -0.11762422 0.013379946 -0.14588289 -0.065720245
000100 a4 09 20 be 80 1e 3d bd e0 0f fd 3c 70 f0 bb bd
       -0.15628678 -0.046171665 0.030891359 -0.09176719
000110 6b 23 1d 3e 9c c8 2e 3d 90 f8 0a bd 90 83 2f bc
       0.15345542 0.042671785 -0.033928454 -0.010712519
000120 c8 1e fe be ea 61 b6 3d 1c bc 61 bd 00 a0 f5 3a
       -0.4963286 0.089053944 -0.055111036 0.00187397
000130 ea 0d 8a be 18 55 85 bc 79 4d 6f be 1d 87 c0 be
       -0.2696374 -0.016275927 -0.23369397 -0.37603083
000140 66 4e f1 3d d7 3f 0c bf ee 13 f6 bd 9a 64 c6 be
       0.117825314 -0.5478491 -0.1201552 -0.38748628
000150 c8 76 81 be c0 15 43 3d 56 4b df 3d 36 66 0d bf
       -0.25285935 0.047628164 0.10903041 -0.55234087
000160 5a 08 c8 3d b0 39 45 bd b6 5d 84 bd 8c 01 59 3d
       0.09767218 -0.04815072 -0.064631864 0.05297999
000170 4c 2a d4 be f1 7e 72 be 56 74 96 bd f9 69 08 3e
       -0.4143852 -0.23681237 -0.07346408 0.13321675
000180 ba 51 83 be 62 5d 15 be a1 55 0c 3e 20 91 43 3d
       -0.2564829 -0.14586404 0.1370454 0.047745824
000190 4f 18 75 be 0e cb e1 be a6 00 55 bd 80 00 02 3d
       -0.23935054 -0.4410023 -0.05200257 0.031738758
0001a0 a0 81 8f bc 48 a2 88 bc 0f 67 0c be 2c f2 08 be
       -0.017517865 -0.016678944 -0.13711189 -0.13373631
0001b0 e7 7d 01 bf d0 dc 29 bd f0 32 2e 3d e5 52 26 3e
       -0.50582737 -0.04147035 0.042529047 0.16242559
0001c0 2e 99 95 be 62 76 d4 3d 72 bd 84 be c4 d9 d3 3e
       -0.2921843 0.10374142 -0.25925785 0.4137708
0001d0 c0 76 5b bb cf 5c ff be d3 6b c2 bd 21 41 6f 3e
       -0.0033487529 -0.49875495 -0.09493222 0.23364688
0001e0 54 d7 a9 be 88 74 ab bd fd c8 08 3e 1b 7e 07 bf
       -0.33172095 -0.08371836 0.13357921 -0.52926797
0001f0 b8 4c f8 bc 32 07 d7 3d 13 3b b4 bd 70 e7 1c 3d
       -0.03031002 0.10499419 -0.0880033 0.038306653
000200 54 90 88 be 5c fb b4 be 10 fb a9 3d 2e af 9c 3d
       -0.26672614 -0.35348022 0.082998395 0.076506004
000210 d6 48 e5 be 66 55 e3 bd 48 d4 f6 bd ab b5 06 3e
       -0.44782132 -0.11100273 -0.12052208 0.13155238
000220 f7 23 72 be ae 1e 04 3f 78 ac d5 3c 60 ad d6 bb
       -0.23646532 0.51609313 0.026083216 -0.0065514296
000230 f7 e8 21 3e aa 86 f9 3d c2 31 19 be 42 97 97 3d
       0.15811525 0.12183888 -0.14960387 0.07401897
000240 04 86 bf be 10 9a 5f 3c a8 15 88 3d 92 b2 e9 be
       -0.37406933 0.013647571 0.066447556 -0.4564405
000250 d0 63 90 3d 2e e9 06 be d0 d4 e2 be 8a 2a 0f be
       0.07050288 -0.13174888 -0.44302988 -0.13981071
000260 92 5d 1c be 5a 75 ef be eb c0 f6 bd ce 56 c8 bd
       -0.15270069 -0.4676922 -0.12048515 -0.09782182
000270 f6 f4 80 bd 3e b3 a0 be 7c f7 57 bd a6 88 fc bd
       -0.062967226 -0.3138675 -0.052726254 -0.12330751
000280 e0 3c 88 be 5d aa 05 3e 86 0d bc 3d e9 46 20 3e
       -0.26608944 0.1305327 0.09182267 0.1565205
000290 b2 7e c5 be 60 7a b2 3b f7 88 23 3e 4e 60 91 be
       -0.38573223 0.005446717 0.15970217 -0.28393787
0002a0 99 1f ed be 50 16 0f be 2b ba ed bd b2 37 ae 3d
       -0.4631317 -0.13973355 -0.11607774 0.08506717
0002b0 4c 86 33 3d 75 26 19 3e fb e7 85 bd d2 31 82 be
       0.043829247 0.14956076 -0.065383874 -0.25428635
0002c0 0e 57 df 3d 30 89 07 bd 46 89 3b bd f8 b3 ea 3c
       0.10905276 -0.033089817 -0.04578521 0.028650269
0002d0 36 d8 bd 3e 40 c9 7b be 28 98 c7 bc 3a 12 c3 be
       0.37079018 -0.2458849 -0.024364546 -0.38099843
0002e0 c0 4b dc bc bb e3 05 bd 94 1c ca 3e 68 33 a9 3d
       -0.02689159 -0.032687884 0.39474928 0.08261758
0002f0 4b a6 03 bf 4c bd f5 3e 4b 01 e0 bd e4 6e c8 be
       -0.5142562 0.47995985 -0.109377466 -0.39147103
000300 d8 12 b5 bd e7 3a 76 be 2a 9a 8c 3d 10 13 e9 3d
       -0.08841485 -0.24045907 0.06865342 0.11380589
000310 d4 a7 b6 be e8 af 85 3d 07 d0 08 3e b8 f9 dd 3c
       -0.35674918 0.06527692 0.13360606 0.027096614
000320 5b f8 fa be 2e d2 95 3d 40 f2 a2 bc 7a cb 8c be
       -0.49017605 0.07315479 -0.019890904 -0.2749899
000330 ff 7e c6 3e fd f9 0d bf 64 0c 21 3d a3 69 3f be
       0.38768765 -0.55459577 0.039318457 -0.18692641
000340 00 7a 17 be 04 cc 16 bd 00 a0 b9 3b 28 1a f7 3e
       -0.14792633 -0.03681566 0.0056648254 0.48262143
000350 10 92 7d bc c0 46 fa bd b6 e8 8b 3d 56 71 d8 be
       -0.015476719 -0.12220526 0.068314955 -0.42273968
000360 d7 bd 61 be 40 86 1d bd e0 46 57 3d 56 58 67 bd
       -0.22045074 -0.03845811 0.052557826 -0.056480728
000370 27 b5 5c be b6 19 ac bd a6 f2 8e be df 3d 03 3f
       -0.21553479 -0.084033415 -0.279195 0.5126628
000380 02 66 c6 3d 0c 14 bb be 00 74 1e 39 57 ee 7e 3e
       0.09687425 -0.36538732 0.00015111268 0.24895607
000390 7b 1a 61 be 3e d0 29 be 50 f0 2a 3c 8c 79 9e be
       -0.21982758 -0.16583344 0.0104332715 -0.30952108
0003a0 b3 4c b3 bd b6 0c e0 bd 60 d7 b4 3c 00 71 7b 3d
       -0.087548636 -0.109399244 0.022075355 0.061387062
0003b0 6f b3 60 be 2e 08 f9 be 00 a4 b4 3c c0 40 bf bc
       -0.21943448 -0.48639053 0.022050858 -0.023346305
0003c0 84 4d 83 be ca ff 09 be 34 11 0d be 20 5f 95 bb
       -0.25645077 -0.13476482 -0.13776094 -0.004558459
0003d0 bb 78 79 be 0e 96 67 3e fa 88 b6 3d 10 e1 1d 3d
       -0.24362461 0.22615835 0.08912845 0.038544714
0003e0 d2 ea f1 3d da b1 21 be b2 9d f2 3d 02 8a 18 be
       0.118123665 -0.15790501 0.11846484 -0.14896396
0003f0 00 9e 2f 3c e2 7a a2 3d 80 8d 32 3c ea c5 90 3d
       0.0107188225 0.07933594 0.010897994 0.07068999

network.0.bias f4 [16]
000000 b5 1b 0e 3f f0 1f b0 bd 1a 99 84 be a4 7d ad be
       0.5551103 -0.085998416 -0.25898057 -0.3388492
000010 b6 2c 01 bf 8a 3a 85 be 22 10 86 be 2e 40 20 be
       -0.5045885 -0.26021224 -0.26184183 -0.15649483
000020 e8 62 60 3f 94 67 82 3c f2 e9 91 be 66 6f 82 3c
       0.8765092 0.01591853 -0.284988 0.01592226
000030 60 e7 20 3f aa 6c fe be a0 03 52 3f 85 e4 b5 3e
       0.6285305 -0.4969228 0.8203678 0.3552591

network.2.weight f4 [32, 16]
000000 80 d0 05 bd a8 49 1d be 0c 95 12 be 18 96 ef bd
       -0.032669544 -0.15360129 -0.1431467 -0.1169855
000010 c0 b4 75 3d b0 21 55 3e 22 8d 04 be 70 bd 38 be
       0.05998683 0.20813632 -0.12944463 -0.18041015
000020 78 a6 58 be 58 de 34 bd 00 f2 c5 bd 24 44 68 be
       -0.21157253 -0.044157356 -0.096652985 -0.22682244
000030 88 21 3f 3d 20 73 2d bd 40 84 f8 3b 9a 5c 58 be
       0.046662837 -0.04234612 0.007584125 -0.21129075
000040 e4 01 97 be 00 f5 85 bb 58 68 f1 3e 9e 5a 9f 3e
       -0.2949363 -0.004088044 0.4714992 0.31123823
000050 9c aa d0 3d 98 97 90 bd d1 91 0b 3f f4 8e d7 bd
       0.10188791 -0.07060164 0.54519373 -0.10525313
000060 03 61 09 bf 36 62 30 3e 34 11 24 3f 00 d5 19 3d
       -0.53663653 0.17224964 0.6408875 0.03755665
000070 be d0 53 3e e3 3f b7 be b1 cc 81 be ec dc 76 be
       0.20685098 -0.3579093 -0.2535148 -0.24107713
000080 b6 21 ed be e0 09 4b bd c2 7f 9a 3e 00 fc 58 3e
       -0.46314782 -0.049569964 0.30175596 0.2118988
000090 52 05 10 3e fc 3f 30 be 1f 89 e4 3e 86 f3 2f 3e
       0.1406453 -0.17211908 0.44635865 0.1718274
0000a0 28 8e cd be bc 31 82 bd 56 0d 38 3e ca 9e 04 be
       -0.4014752 -0.06357142 0.17973837 -0.12951198
0000b0 60 93 6f be 70 58 ff be 0e f7 99 be 88 bc 23 be
       -0.23396063 -0.4987216 -0.300713 -0.15989888
0000c0 7a fd 2b 3f 00 4c d6 b9 da 61 f7 be 52 e6 65 be
       0.6718365 -0.00040873885 -0.48316842 -0.22451141
0000d0 b2 70 1e 3f 1e a2 f6 be 18 82 6c be 1f fe 5b 3e
       0.6189071 -0.4817056 -0.23096502 0.21483658
0000e0 02 b2 01 3f 88 f4 45 3e bf 34 e5 be 08 06 32 bd
       0.50662243 0.19331563 -0.44766805 -0.043462783
0000f0 65 cb 1c bf 23 7c 92 3e 18 98 66 3f 4f 7b 2f be
       -0.61247855 0.28610334 0.90075827 -0.17136882
000100 b9 0b c4 be 4e aa 1d be 12 97 1c 3e c8 d4 5d 3e
       -0.38290194 -0.15396997 0.15292004 0.21663201
000110 1c 39 54 be e4 2e c4 bd 28 a7 00 3f 68 23 47 bd
       -0.2072491 -0.09579256 0.5025506 -0.04861775
000120 c5 42 8c be 50 d8 17 3d 24 a5 38 3e 00 37 70 be
       -0.2739469 0.037071526 0.18031746 -0.23458481
000130 48 38 50 3d ee e9 6b be c5 c0 e7 be 42 cb 7e be
       0.050834924 -0.23038456 -0.4526426 -0.24882224
000140 63 bd c2 3e 74 79 34 3e 30 dc a1 3d 28 2e 04 3e
       0.38035116 0.17624456 0.079033256 0.12908232
000150 5e 7a 79 3e e0 0e 24 be c4 9d c9 bd 2f fa 7d 3d
       0.24363086 -0.160213 -0.098445445 0.06200617
000160 24 4c 11 3f 7a 7e a0 3d aa 77 6d be f5 d7 65 be
       0.56756806 0.078366235 -0.2319018 -0.22445662
000170 2d 63 ff be a0 cb 31 3e 32 c4 ec 3e 8e ff 24 bf
       -0.49880353 0.17362833 0.46243435 -0.64452446
000180 de ac 96 be 30 c6 0a bd 38 af 09 be 64 90 00 bf
       -0.29428762 -0.033880413 -0.13445747 -0.5022032
000190 d2 76 11 bf 1a 3b a7 3e f9 82 ad be 4e e8 7f 3e
       -0.5682193 0.32662278 -0.33888987 0.24990961
0001a0 6c a0 32 be d8 e2 51 be ec f1 0a bf 62 7f 2a 3e
       -0.17444009 -0.2049669 -0.54275393 0.16650155
0001b0 db 0a ca 3e e6 59 d3 3e 38 28 6e bd 84 7c a5 3e
       0.39461407 0.41279525 -0.058143824 0.3232156
0001c0 80 d1 7d be fe d4 71 be 10 10 5b be c4 7b 9a 3d
       -0.24786949 -0.23616406 -0.21392846 0.07543138
0001d0 58 a7 14 bf ab f5 1c 3f f0 29 e9 bd 24 c2 3c be
       -0.58067846 0.6131236 -0.11384952 -0.18433434
0001e0 17 fe b2 be bc 53 98 bd 46 3d 59 be 3c 08 f0 3d
       -0.3495948 -0.07437846 -0.2121478 0.117203206
0001f0 f7 b2 ba 3e 60 fc 25 bd 10 15 1a be 7d e8 fd 3e
       0.36464664 -0.040523887 -0.15047097 0.49591437
000200 58 72 4d be c2 a6 1c 3e 80 78 f6 3c 40 58 fb bb
       -0.2006315 0.15297988 0.030086756 -0.0076704323
000210 56 bb 70 3e 02 7d 0d 3e c4 ac 76 be c4 ea 80 bd
       0.23508963 0.13817218 -0.24089342 -0.06294778
000220 fc 5e 0c be 4c 4a a9 bd 92 7a 61 be ac d0 12 3e
       -0.13708109 -0.08266124 -0.22019413 0.14337415
000230 9c cc 7e be 40 da a3 3c 38 43 a6 bd f0 c5 14 bd
       -0.2488274 0.02000153 -0.0811829 -0.03632158
000240 44 f0 4c be 46 ad 19 be 42 e7 7c 3e e0 77 0f 3d
       -0.20013529 -0.15007505 0.24697593 0.03502643
000250 d8 9e aa be 5a 4c 8f 3e 08 14 7c be a0 5e d6 bd
       -0.33324313 0.2798794 -0.24617016 -0.10467267
000260 8a 93 41 be 80 44 5a bc 44 36 3d be c6 d8 16 be
       -0.18903938 -0.013321996 -0.18477732 -0.1473113
000270 d0 41 e3 3e f4 5c 71 be 24 bc 35 be d0 3e 29 3e
       0.44386148 -0.23570615 -0.17747551 0.16527867
000280 b7 f8 07 3f 90 09 39 bd 84 4d c3 3e 50 6f af 3e
       0.53113884 -0.045175135 0.38145077 0.34264612
000290 ed 6d 1a 3f f4 85 a1 be fa 86 1d 3f a7 f2 2d 3e
       0.60323983 -0.3154751 0.6153408 0.16987096
0002a0 e3 a6 8a 3e c3 4d ff 3d 22 43 b1 3e 12 99 bc 3c
       0.2708045 0.12466004 0.3462153 0.023022208
0002b0 2e d3 16 bf 08 f6 e7 3d 23 52 59 3f 60 c8 0a bf
       -0.58915985 0.113262236 0.84890956 -0.54212
0002c0 f4 cf 94 bd 00 df 67 bc 98 c3 eb 3e c2 40 b5 3e
       -0.072662264 -0.014152288 0.46047664 0.3540097
0002d0 00 dc f5 bb 10 f5 9e 3d ff c2 eb 3e c0 be d4 bb
       -0.0075030327 0.07761586 0.46047208 -0.0064924657
0002e0 54 7d ae be 74 c2 59 be 12 5d d9 3e 90 e7 3a 3d
       -0.34079993 -0.21265584 0.4245382 0.04563099
0002f0 00 60 83 ba 50 09 dc be 94 8b b7 be c6 6b 08 be
       -0.0010023117 -0.42975855 -0.35848677 -0.13322362
000300 88 4a 54 bd c4 c7 d5 bd eb 15 8b be 52 7d 9f be
       -0.05182889 -0.10438493 -0.2716516 -0.311503
000310 3a 9f 5a 3e 60 55 28 3c 39 72 ac be 50 68 c3 3c
       0.21349803 0.010274261 -0.33680895 0.023853451
000320 58 91 80 3d cc 5a 65 be 97 8d cc be 00 90 a3 b8
       0.06277722 -0.22397918 -0.39951774 -7.799268e-05
000330 58 9d 21 bd 69 8e fc be 74 ce d7 be 74 30 83 bd
       -0.039456695 -0.493274 -0.421497 -0.06405726
000340 9f a2 0c 3d b8 14 7d 3d b3 86 86 3e ac b2 63 3e
       0.034334775 0.061787337 0.26274642 0.22236127
000350 cc f1 23 be 85 46 fe 3e 64 83 df 3e 2e e0 05 3d
       -0.16010207 0.49663177 0.4365493 0.032684498
000360 44 ee 48 3e 79 c6 59 be 02 b6 8a 3e 28 23 db 3c
       0.19622141 -0.21267118 0.27091986 0.026750162
000370 bd e3 18 3e db 69 eb 3e d8 50 5b 3e aa 82 4c 3e
       0.14930625 0.459792 0.21417558 0.1997172
000380 71 b1 05 bf a6 42 2e be 99 36 c9 3e 55 fd dc 3e
       -0.5222388 -0.17017612 0.39299467 0.43162027
000390 24 28 67 be e8 c6 c3 bd ce 65 d0 3e fa 3b 0e be
       -0.22573906 -0.09559423 0.4070267 -0.13890067
0003a0 09 71 15 bf 84 b8 bc bd 31 f5 0c 3f a8 d6 6f bd
       -0.583756 -0.09214881 0.5506163 -0.05855432
0003b0 aa 18 6e 3e 24 c1 0d bf 5a 94 4e be fc 1b b5 bd
       0.23251596 -0.55372834 -0.20173779 -0.08843228
0003c0 dc 2f 2b 3f 30 88 e0 bc 13 9e 87 be e6 04 5d be
       0.668699 -0.02740869 -0.2648779 -0.215839
0003d0 10 d7 13 3f 98 c7 00 bf c4 44 2a be 63 37 83 3d
       0.57750034 -0.50304556 -0.16627795 0.064070486
0003e0 32 b8 4c 3f 9d 8a 9e 3d 56 f5 1a be bc 22 4f be
       0.7996856 0.07741282 -0.1513265 -0.20228094
0003f0 ea ce 21 bf 7e 87 da 3e b5 7c d9 3e 65 f3 f7 be
       -0.6320635 0.42681497 0.42477956 -0.48427883

network.2.bias f4 [32]
000000 02 b8 14 3e 84 99 30 bd a7 ff 77 3e a1 70 cc 3e
       0.14523318 -0.043115154 0.24218617 0.3992968
000010 e6 32 69 3e 03 0b bb be 7a 25 a2 be 79 1e fc be
       0.22773322 -0.3653184 -0.31669217 -0.49242
000020 3c ea 1a be e0 82 26 3e 24 ec 24 3f fe 04 97 bd
       -0.15128416 0.16260862 0.6442282 -0.07373999
000030 79 32 f4 be 69 88 9e 3d 02 ed a8 bd 98 d0 84 3e
       -0.47694758 0.07740862 -0.08248331 0.25940394
000040 39 49 0c be 8a 3f 06 3f 09 d1 6e 3f 6f 5d a7 3e
       -0.13699807 0.524407 0.9328771 0.32688472
000050 44 7e 37 be 28 e8 c3 be 2b c5 15 bf b8 d0 7f be
       -0.1791926 -0.3826306 -0.5850398 -0.24981964
000060 f4 7e e2 bd c6 c3 66 be ad 54 19 3f 26 55 2d be
       -0.11059371 -0.22535619 0.5989483 -0.16927013
000070 48 b2 12 3f 77 2a 11 3e 0c 44 00 be 98 6c 3b 3d
       0.57303286 0.14176355 -0.12525958 0.04575786

network.4.weight f4 [16, 32]
000000 e0 66 1d bd 0e bb ef be c4 76 b5 3e 26 72 54 bd
       -0.038428187 -0.468224 0.35442173 -0.051866673
000010 b1 80 0f 3f dc 4c 82 3e fe aa 3c 3f 7d 0f b7 3e
       0.5605574 0.25449264 0.73698413 0.35754004
000020 dc 06 87 bd e6 ca c1 3e c5 d0 90 bd da 30 89 be
       -0.06593105 0.37850112 -0.0707107 -0.26795083
000030 56 b9 ad be d5 f6 72 3f b6 7f 0f bf 64 48 e3 bd
       -0.33930463 0.94907886 -0.56054246 -0.11097792
000040 09 74 54 3e 96 1d 38 3e 52 56 24 3f 85 43 b3 3c
       0.20747389 0.17980036 0.64194214 0.021882782
000050 b8 85 54 3f d1 1b 02 3e 46 a4 a2 be 6a cb ce 3d
       0.8301654 0.12705924 -0.31765956 0.10097392
000060 b3 74 99 bd 98 c5 fc bd d7 4d 5a 3f 8a de fd 3d
       -0.07492962 -0.123423755 0.85275024 0.123959616
000070 61 2d 48 3e 42 be 93 be 4b 51 31 3e 1b e8 11 3e
       0.1954856 -0.28856093 0.17316167 0.14248697
000080 e1 ad 19 3e 42 d1 ca 3d 60 f2 06 be 39 8a c1 3e
       0.15007736 0.09903194 -0.13178396 0.37800768
000090 48 5a aa 3c 89 c0 b7 3e 6a 73 ce 3e 9e c4 10 3f
       0.020795003 0.3588908 0.4032243 0.56550014
0000a0 c2 71 00 be c8 35 d7 3e 27 8d 08 3f f4 ad 7c bd
       -0.12543395 0.4203322 0.5334038 -0.061689332
0000b0 d4 11 4a 3d 6a 85 72 3e 0b 39 0f be d8 66 5e 3e
       0.04933341 0.23683706 -0.13986604 0.2171892
0000c0 ab 86 08 3f 45 be 04 3f 62 28 ab 3e d2 f6 c5 3e
       0.53330487 0.5185283 0.33429247 0.3866487
0000d0 77 24 0d 3f da b8 00 3f 90 8f c8 bd 60 d7 be 3b
       0.55133766 0.5028206 -0.097930074 0.0058240145
0000e0 b4 21 2f 3d d3 ec 9c bd a2 ff d3 3e 89 68 21 be
       0.04275675 -0.07662358 0.4140597 -0.15762533
0000f0 aa 1e ca 3e c0 4d 55 3d 70 ca 55 3c 9c 9b 87 3d
       0.3947652 0.0520761 0.013048753 0.06621477
000100 45 79 03 3e 84 76 3c 3d 89 fc 1b be a7 97 b8 3e
       0.1283923 0.046011463 -0.15233053 0.36053202
000110 d6 30 0d be 1d e0 cd 3e ac 32 9b 3e 87 6c 07 3f
       -0.1378816 0.40210047 0.30312097 0.52899975
000120 38 97 04 bd 98 ef e3 3e 7f 3f fe 3e 18 75 20 bd
       -0.032370776 0.44518733 0.4965782 -0.03917417
000130 88 67 a5 bc 10 dd f4 3e c8 59 35 bd be a9 0b 3f
       -0.02019097 0.47824907 -0.044275075 0.5455588
000140 18 9c 6a 3e 6a af ef 3e c4 b2 06 3f b9 b1 74 3e
       0.22911108 0.46813518 0.52616525 0.23895921
000150 7e 37 e6 3e 2c 3c 61 3e 40 26 2f 3b 26 1e d2 3d
       0.44964212 0.2199561 0.002672568 0.102596566
000160 c1 5e 18 be 00 c8 30 bd 76 76 04 3f 4a ad 9b bd
       -0.14879896 -0.043159485 0.5174326 -0.07601412
000170 2c 58 0d 3f e8 50 2a be 1a 71 1d be 59 6c 88 bd
       0.55212665 -0.16632426 -0.15375176 -0.06661291
000180 2f 4c e0 bd 79 ff 2c be 38 b8 b1 3c 61 34 0a be
       -0.10952031 -0.1689433 0.021694288 -0.13496543
000190 72 25 82 bd 62 9c d2 3d ea f9 00 be b8 e6 77 bd
       -0.063547984 0.10283734 -0.12595335 -0.060522765
0001a0 f6 6e d0 3d fc 15 50 bd 78 2d a1 bd 87 6d c7 bd
       0.10177414 -0.050802216 -0.078700006 -0.097376876
0001b0 b2 af af 3d 27 da 0a be 25 b5 a1 bd 9a 90 18 be
       0.08578433 -0.13559781 -0.07895879 -0.14898911
0001c0 64 11 7d bd c0 41 69 3b 38 0c 5e 3d cf c9 15 be
       -0.061784163 0.0035592169 0.05421087 -0.14627765
0001d0 46 55 89 3d 8e ab d0 3d ce 8a 7e bd 1c 6d 18 3d
       0.06705718 0.101889715 -0.062144093 0.03721343
0001e0 ed f9 c4 bd 26 3f 8c bd 0e a6 d2 3d f6 96 0b be
       -0.09617982 -0.06847982 0.10285579 -0.13631806
0001f0 72 ab 92 3d 23 35 ed bd a0 0b 95 bb 9c b6 ee bd
       0.07161607 -0.11582401 -0.004548505 -0.11655924
000200 02 48 05 be ca 94 bd 3e 41 d9 6a be 23 0c cd 3e
       -0.1301575 0.3702758 -0.22934438 0.40048322
000210 24 8e b9 be a9 94 17 3e 29 22 0b bf 40 ad 06 be
       -0.36241257 0.14802803 -0.54349 -0.13152027
000220 30 f8 31 bd 90 c0 49 bd a1 31 a7 3e 4a 1e b3 3e
       -0.04344958 -0.049255908 0.3265505 0.34984046
000230 a2 6b 01 3f 9a 1f d4 be a0 cd bf 3e 90 a3 fd 3e
       0.5055486 -0.4143036 0.37461567 0.4953885
000240 01 d2 87 3e 14 eb 00 3f 20 9e da be da b6 8c 3e
       0.26527408 0.503587 -0.42698765 0.27483255
000250 ec 01 03 bf e2 1b ae 3e 13 f5 83 3e ee 4a b6 3d
       -0.5117481 0.34005648 0.25772914 0.089010105
000260 10 a0 29 be b0 dc 5f 3c 7c 64 0b bf 0a 85 9d 3d
       -0.16564965 0.013663456 -0.544502 0.07691391
000270 e3 c4 00 3f 88 9c c2 3e 44 7a 91 3d f0 8d 51 bd
       0.50300425 0.3801005 0.071033984 -0.051160753
000280 dc 0c 25 be 00 ce 30 ba 30 7c 51 bc d4 69 d8 bd
       -0.16118187 -0.00067445636 -0.012785956 -0.1056706
000290 40 c0 78 3b 2f 87 25 be 2c 69 f4 bd c4 e9 02 be
       0.0037956387 -0.1616485 -0.119341224 -0.12784487
0002a0 5e 67 18 be 30 bb d0 3c 5e 43 b0 3d 7d 27 20 be
       -0.14883181 0.025479883 0.08606599 -0.15640064
0002b0 09 2e 20 3e b6 a7 0b be dd 08 15 3e a6 2f 77 bd
       0.15642561 -0.13638195 0.14554162 -0.060348175
0002c0 53 89 02 3e e2 04 f5 3d 40 95 84 3b 2a 51 15 be
       0.12747698 0.11963822 0.0040461123 -0.14581743
0002d0 32 a8 72 bd 6c 20 7b bd f9 da 25 be 00 23 98 bc
       -0.059242435 -0.061310217 -0.16196813 -0.018571377
0002e0 e8 f0 29 bd fa d9 e2 3d b8 15 9e bd a8 bc a7 bc
       -0.04148951 0.11076732 -0.07718986 -0.0204757
0002f0 3c 7d 1d be 30 81 85 bd 85 c6 21 be 70 1e 65 3d
       -0.15379804 -0.06518781 -0.15798385 0.05593723
000300 20 7e 17 bc f5 bf bb bd d1 0a 16 3e d6 b1 bc 3d
       -0.009246379 -0.09167472 0.14652564 0.09213607
000310 10 0a 05 be fc 8b 25 bd c6 33 e6 3d 08 b4 05 bd
       -0.1299212 -0.040416703 0.11240344 -0.032642394
000320 66 ed e9 3d 72 43 9f 3d 66 13 06 be d5 cc b4 bd
       0.11422233 0.07776536 -0.13093337 -0.08828131
000330 d0 7a 89 bd 13 c8 f9 bd 78 c9 ba bc 86 95 0e be
       -0.06712878 -0.12196364 -0.022801146 -0.13924226
000340 a3 3b 06 be 4e f4 e1 3d 38 bc 72 3d 70 e7 3e 3c
       -0.13108687 0.110329255 0.05926153 0.011651859
000350 3d 22 25 be 30 42 fd bd c4 26 38 bd 97 c3 2e 3e
       -0.16126342 -0.1236614 -0.044958845 0.17066799
000360 ae 86 94 3d ba 91 a4 3d 6b 75 29 3e 04 0d 47 3d
       0.072522506 0.08035608 0.16548698 0.048596397
000370 9c 0e e5 bd 5f 42 28 be da fc f3 bd 9d db 0f be
       -0.11184427 -0.16431569 -0.11913462 -0.1404862
000380 65 6f 2a 3e 40 04 3e 3b a7 97 a8 bd aa 9c db be
       0.16644056 0.0028994232 -0.082320504 -0.42892963
000390 c4 63 50 bd 46 37 cf be 11 87 05 bf e6 b8 f8 be
       -0.050876394 -0.40471858 -0.5215922 -0.48578566
0003a0 70 b9 24 bd ae 17 be be 7d 73 7a be 4a 05 9f 3d
       -0.04021591 -0.3712744 -0.24458118 0.07764681
0003b0 39 3c 00 be 53 90 71 be 0e 6c e2 3d fa d7 92 be
       -0.12522973 -0.23590212 0.11055766 -0.28680402
0003c0 e9 12 d7 be b6 48 cb be 48 b0 e9 be 30 82 d6 be
       -0.42006615 -0.39703912 -0.45642304 -0.418962
0003d0 e1 62 fb be ba 59 8a be 60 b3 8e 3b 5c c0 20 be
       -0.49098876 -0.2702158 0.0043548793 -0.1569838
0003e0 1c 37 ad bd e4 30 12 bd 71 23 be be 81 5d f4 bd
       -0.08457777 -0.035691157 -0.37136415 -0.11931897
0003f0 ed 1e bb be 15 67 24 be d4 6b 14 bd 0c 2a 8e bd
       -0.36547032 -0.16054948 -0.036235645 -0.069416136

network.4.bias f4 [16]
000000 40 68 04 3b e9 71 34 be cb 06 14 be df 8c 1a be
       0.002020374 -0.17621578 -0.14455716 -0.150928
000010 30 e2 d3 3c 8b ea 1a be be 02 56 bd ca f2 c4 bd
       0.02586469 -0.15128534 -0.05224871 -0.09616621
000020 01 e3 03 3e 88 89 37 ba df aa 25 be 22 31 83 3e
       0.12879564 -0.000700139 -0.16178463 0.25623423
000030 cf 32 7f 3d c8 27 67 3e de 0e fb 3d dc 16 ee bd
       0.062304314 0.22573769 0.12258695 -0.11625454

network.6.weight f4 [2, 16]
000000 aa 71 2f be 0d c7 36 3e db 5b 01 3f 0e fe 19 be
       -0.17133203 0.1784937 0.50530785 -0.1503832
000010 42 9a f9 3e 1e df 7c be 94 79 c3 3d a4 bb bd 3e
       0.48750502 -0.24694487 0.095446736 0.3705722
000020 fe 92 4a 3f ce 0f fc 3e 93 40 e1 3e 24 f0 c2 3e
       0.7913054 0.49230808 0.4399458 0.38073838
000030 df 74 0a 3f 7d 8d 1c 3f fe 08 5a 3f ea 8e 7a be
       0.5408458 0.61153394 0.8516997 -0.2446858
000040 6c db f8 3d c6 a7 07 bf a3 73 0c bf d6 e1 64 be
       0.121512264 -0.52990377 -0.5486395 -0.22351775
000050 0d 1c 99 be 68 e7 c3 3d 32 01 77 3e a8 6b 9a be
       -0.29904214 0.095656216 0.2412155 -0.3016026
000060 d6 38 28 bf b4 d1 83 bf c3 72 82 be 3c 53 cd be
       -0.65711725 -1.0298371 -0.2547818 -0.40102565
000070 40 cb 73 be b8 ae 28 bf f3 da 34 bf 7c bf b1 3d
       -0.23808002 -0.658916 -0.7064659 0.08679101

network.6.bias f4 [2]
000000 27 30 1e 3d 70 27 ad 3e
       0.03862014 0.3381915
